checkpoint-episode-200.pth.tar (torch_old, 176659 bytes, 6 tensors)

fc1.weight f4 [128, 207]
000000 3e 9c bd bc b1 c4 04 bd af 6c 2e bc 6d 06 1b 3d
       -0.023145791 -0.032414142 -0.010646029 0.037847925
000010 c0 ad 46 3d 94 a3 c9 bc 97 7c 76 bd c6 11 25 3c
       0.048505545 -0.024614133 -0.060177412 0.010075038
000020 7e 10 ef 3c 07 36 66 bc cd cf 68 bd ee 85 2a bd
       0.029182669 -0.014050967 -0.0568388 -0.04163163
000030 55 f8 2e 3c d3 2e 28 bd 6a 47 95 3d a6 ab d7 3c
       0.010679324 -0.04106028 0.07289012 0.026326966
000040 65 5b 69 bc fa 56 bf 3b b9 9b e3 bc 9d 89 9a bc
       -0.014242982 0.005839226 -0.027784215 -0.018864447
000050 d1 1f cf 3c d7 9d 76 3b 0d 19 5d 3d 63 00 17 3d
       0.025283726 0.00376307 0.05397897 0.036865603
000060 e9 0b a3 bb ee 1f e9 3c 58 6d 28 bd 6e 17 4f 3d
       -0.004975785 0.028457608 -0.041119903 0.050559454
000070 34 bf 2c 3d 02 e2 6e 3d c9 f9 10 3d ec db d6 3c
       0.042174533 0.058321007 0.035394464 0.026227914
000080 f6 c5 e3 3c d3 bf b4 3b 0d 04 e8 3c dd 2e a2 bc
       0.027804356 0.0055160313 0.028322244 -0.019797737
000090 96 1e 56 bd fe 28 35 3c 47 27 64 bd 1a 92 91 bd
       -0.052275263 0.011057137 -0.05570152 -0.07107945
0000a0 46 ba c2 3b 4a 89 47 bd 4e 7c e5 3c 63 27 ba bc
       0.0059426157 -0.048714913 0.028013375 -0.02272386
0000b0 9f cb d0 3c f0 02 ed bc 4d 2b be 3c 15 6f d3 bb
       0.02548772 -0.028932065 0.023214007 -0.006452451
0000c0 46 ec 59 3c 31 16 57 3c e1 fc 82 bc 5b 98 8e 3d
       0.013300961 0.013127849 -0.015989723 0.06962653
0000d0 d7 e6 41 3d d2 13 52 3d a1 53 ed 3c bb 78 48 bd
       0.047339287 0.051288433 0.028970541 -0.048943263
0000e0 f2 8e 0c bb 4f c7 0b 3c f8 07 66 bc da 36 f2 3c
       -0.0021447507 0.008531406 -0.014039986 0.02956717
0000f0 82 11 97 3c 17 be 9f bd 28 7b 4a 3c 14 3a 96 bd
       0.018440966 -0.07799929 0.012358464 -0.07335296
000100 9e ea 58 3c 57 88 d4 3c 9b 56 bd bc 43 a0 52 bd
       0.013239531 0.025943918 -0.023112586 -0.05142237
000110 f2 56 4b 3d 6f 98 f3 bc 51 3c 6c 3d 11 2a 7e 3c
       0.049643464 -0.029735772 0.05767471 0.015512959
000120 fd ff 87 3d 81 ed 55 bd 03 0a 14 bd c5 93 88 bd
       0.06640623 -0.052228455 -0.03614236 -0.0666881
000130 cb 11 65 3d 20 95 e3 3c ae f1 85 bd 8d 53 50 3d
       0.05592517 0.02778107 -0.06540237 0.05086093
000140 61 7f 59 3d 0b b2 96 3d 06 dd 31 bd 77 c5 75 bb
       0.053099994 0.07358178 -0.043423675 -0.0037501731
000150 6b 66 58 bd 67 33 d0 3c 0c c5 2a bd 74 52 33 3c
       -0.05283205 0.025415136 -0.041691825 0.010944951
000160 a5 7b d6 3b fd c7 87 bc 9e d6 22 bd 39 5d 65 bc
       0.0065455013 -0.016574854 -0.039755456 -0.013999277
000170 c6 10 21 3d 87 17 38 3d e3 13 bc bc 1e 3c c8 3b
       0.039322637 0.044944312 -0.022958701 0.006110682
000180 80 97 1a 3a f9 bb 70 bd 96 5a 25 3d 46 c3 b6 bb
       0.0005897209 -0.058773015 0.040369593 -0.0055774776
000190 db 58 f3 bb 21 13 eb bc ff 5a 04 3d 3d 12 0e bd
       -0.007426364 -0.028695645 0.032313343 -0.034685362
0001a0 0b e1 46 3d ff f9 a4 3d c9 26 ae bc 72 19 70 bc
       0.04855446 0.080554955 -0.021258729 -0.014654504
0001b0 0d a0 6d 3d e1 0c 27 bc a1 47 ee 3c 2c 76 2c bd
       0.058013964 -0.010195942 0.02908689 -0.042104885
0001c0 78 c0 52 3b 15 64 c4 bc a2 11 db 3c 51 87 95 3d
       0.0032158177 -0.023973504 0.026741806 0.073012
0001d0 46 d6 78 3d 46 3c bd bc 0e 61 ba bc 32 b0 15 bd
       0.060751222 -0.02310003 -0.022751357 -0.036544986
0001e0 19 3b bf 3c 6b 17 9c 3c 2e e7 1e bd a3 b3 26 bd
       0.02334361 0.019054135 -0.03879469 -0.04069866
0001f0 10 73 2c 3d 0c ed 91 3d 72 15 ce bc 15 4e 47 3c
       0.04210192 0.07125291 -0.02515671 0.012164612
000200 ba 74 9b bc 73 14 90 bc 88 3f 3f 3d a4 a0 ff 3c
       -0.018976558 -0.017587876 0.046691447 0.03120453
000210 4c e2 a5 bd 69 89 a6 ba 17 fa b8 bc cd cd 08 bd
       -0.08099803 -0.0012705746 -0.02258019 -0.033399392
000220 53 36 03 3c 8a e6 1c bd c8 b0 59 bd 11 fd 25 bd
       0.008008557 -0.038305797 -0.053147107 -0.040524546
000230 88 33 0d bd 10 0f 4b bd 5b 9e 67 3d 46 f8 cb bc
       -0.034472972 -0.04957491 0.056547504 -0.02489866
000240 ab d8 4b 3c 54 5e 8b bd 8b 4c 8d bd 8e 6d 56 3d
       0.012441794 -0.06805101 -0.06899365 0.052350573
000250 3d 75 90 bc 43 58 ae 3b 38 ba 45 bd 68 a0 86 bd
       -0.017634029 0.00532058 -0.048273295 -0.06573564
000260 8c 6e 8a bd 3c d0 2e 3c d9 68 42 3d ef a5 7a bc
       -0.067593664 0.010669764 0.04746327 -0.015298351
000270 01 9e 66 bb 98 00 1b bd 18 4e ee bc 97 d9 ad bb
       -0.0035189393 -0.037842363 -0.029089972 -0.0053054797
000280 b4 ba 08 bd 79 6b e4 3c 5c 20 b0 3c 19 18 70 bd
       -0.03338118 0.027883278 0.021499805 -0.05861673
000290 45 0e 84 bd 55 4e 88 bd 34 fc 30 bc e0 4e 89 3c
       -0.06448034 -0.06655566 -0.010802317 0.016761243
0002a0 56 27 19 3c be 94 48 3d 57 69 31 3d e5 f8 fc bb
       0.009347757 0.048969977 0.04331335 -0.0077201
0002b0 6c 5f d5 3b 46 cb 58 3c 8f 68 34 3d 9f 97 11 bb
       0.0065116193 0.013232058 0.044045027 -0.0022215617
0002c0 f4 77 7d 3d e3 86 33 bd 6b 66 41 bd 44 b6 23 bd
       0.061881974 -0.04382981 -0.047216814 -0.039968744
0002d0 99 5d 2e 3d 4b 54 e1 3c 51 8a 98 3c 6e 77 c0 bb
       0.04256973 0.027506014 0.018620642 -0.005873612
0002e0 a3 b3 af bc d8 40 2f 3d 72 82 65 3d 6b 7f 55 bd
       -0.021447962 0.04278645 0.056032605 -0.05212347
0002f0 f4 7a b8 3b cb fe db 3c df 97 81 bc 2e eb 11 bd
       0.0056298915 0.026854893 -0.015819488 -0.035624675
000300 f6 01 0f 3d 8c fa 45 bd bf 0a 2a bd 52 d0 44 3d
       0.03491398 -0.048334643 -0.041514155 0.048050232
000310 1d 28 7c 3c 22 aa 70 bd 02 f6 ff 3b 2c 3e 3a bd
       0.015390423 -0.058756 0.007811309 -0.045469448
000320 59 ff 01 3c 7e 83 85 bd 2b bc fa bc 25 23 f0 bb
       0.007934415 -0.06519221 -0.030607304 -0.0073284083
000330 7a 28 2a 3c a4 f9 61 bb a4 e7 68 bd ed ad 65 bd
       0.010385627 -0.0034481073 -0.056861535 -0.05607407
000340 ac 46 34 bd 61 a7 84 3c d9 1d 93 bc 67 ac 83 bd
       -0.04401271 0.016193094 -0.017958568 -0.064293675
000350 72 a7 7c 3d 8e f1 02 bd cb 95 90 3d 13 60 ac 3d
       0.061683126 -0.031968646 0.07059821 0.08416762
000360 30 f0 6f bb 8d f4 85 3d 5e f9 63 3d 61 bf f1 3c
       -0.0036611669 0.06540785 0.055657737 0.029510202
000370 45 7e 5b bc 11 66 a4 3b 54 80 39 3d 61 6a 47 bc
       -0.013396804 0.00501705 0.0452884 -0.012171359
000380 ba 86 d0 bc b1 b7 36 3d d3 eb 72 3d d1 e4 b7 3d
       -0.025454868 0.044608776 0.05930693 0.0897919
000390 71 1f 99 bc 14 e1 04 bd 84 01 26 bd 83 31 50 3d
       -0.01869175 -0.032441214 -0.04052879 0.050828468
0003a0 39 53 a1 3d 42 52 59 3d 90 1c 18 bd 37 54 24 bd
       0.078772016 0.053056963 -0.037136614 -0.040119376
0003b0 3b 29 ed bc 18 5a 3f bc 5e 12 bc bc b9 86 c6 3c
       -0.028950324 -0.011679195 -0.022957977 0.024234163
0003c0 7d cd a0 bc 1c da 74 3c 9a ba 06 bc 28 1a 85 bd
       -0.019629234 0.014944579 -0.0082232 -0.064991295
0003d0 5a 32 3f bc b0 6e eb 3c 61 d6 25 3d 8f b6 b3 bb
       -0.01166972 0.028739303 0.04048765 -0.005484409
0003e0 4f 41 f2 3c c4 30 3e 3c fe 3a c5 bc bb 58 a2 3d
       0.029572157 0.011608306 -0.024075981 0.0792708
0003f0 9a f3 a4 3d 4b 3b 18 3d 60 74 dd bd dd 70 0c 3d
       0.08054276 0.03716592 -0.108132124 0.034287322

fc1.bias f4 [128]
000000 66 97 13 bd 39 54 41 3d 8d ce 4b 3c fe 3e 3b 3d
       -0.036033057 0.04719946 0.012439382 0.04571437
000010 8b d1 e3 3c 00 3d 2a bd d5 95 7f 3d 8a 73 83 3b
       0.027809879 -0.04156208 0.06239875 0.004011576
000020 0a 46 35 3d 96 f7 8e bd 6a af 89 3d 8b 94 8b bd
       0.044256248 -0.06980817 0.06722911 -0.06815442
000030 74 57 db 3a cb b5 be bc 41 67 64 3d d1 94 f3 3c
       0.0016734437 -0.023280045 0.055762533 0.029734047
000040 57 ea a8 bb a3 6a bf 3c ff 8e 62 bd f8 cf 29 bc
       -0.0051548886 0.023366278 -0.055312153 -0.010364525
000050 9a ef e5 bc 97 b9 22 3d c5 89 24 bc d2 06 6f 3d
       -0.028068352 0.039727774 -0.010042612 0.058356114
000060 12 20 8d 3d 88 60 7b 3b 4f 93 92 3d 2e 44 46 bd
       0.068908826 0.0038357098 0.07157003 -0.048404865
000070 ce 6e 62 bd be 54 95 3c 9c eb 8e 3d 01 5f c7 3c
       -0.055281453 0.018228885 0.06978533 0.024337294
000080 27 b5 95 3c ba de 5b bd 2b fd a4 3c 9e 6a d0 3c
       0.018274857 -0.053679205 0.020140251 0.025441464
000090 55 81 46 bd 23 bb c6 3c 3f 42 69 3d fa 5b 8c 3d
       -0.048463184 0.024259156 0.056947943 0.06853481
0000a0 da b9 20 3d 70 3e 1f 3d 01 bf 8b 3d d4 f5 c1 3d
       0.03923974 0.038877904 0.068235405 0.09470716
0000b0 44 3c 10 3c a4 5a 47 3d a4 b9 38 3c 85 24 63 bd
       0.008803431 0.048670426 0.011274729 -0.05545475
0000c0 5f 1f 85 3d 48 70 7c bb 4e 91 a2 ba 81 2d 73 3d
       0.06500124 -0.0038519073 -0.0012402923 0.059369568
0000d0 5b 4e fa 3c a2 e8 07 3d 2a 59 a5 3c 21 31 8d 3d
       0.03055494 0.03318084 0.020184118 0.06894136
0000e0 ff 7a 5b 3c a6 77 47 bd 6a 6d 4f 3d a4 47 a7 3d
       0.013396024 -0.04869809 0.050641455 0.08167961
0000f0 56 fe d4 3c b2 3f 4f bc 8b 5a a2 3d 7a 44 95 3d
       0.026000183 -0.0126494635 0.07927426 0.072884515
000100 fd 53 5a 3d d6 5a 60 3d 36 64 b8 3d a5 4f bc 3b
       0.053302754 0.054774128 0.09003489 0.005746799
000110 50 fa 10 3c e6 82 3b bd 35 b5 7f bd 17 2e 88 bd
       0.008848742 -0.04577913 -0.062428672 -0.06649416
000120 cd 21 70 3d 07 ef 13 3c c2 f7 23 3c 00 bf 61 3d
       0.058625985 0.0090291565 0.010007801 0.055113792
000130 a6 78 2e ba b2 89 90 3c 49 00 3f bd 02 73 38 3c
       -0.0006655551 0.017643783 -0.04663113 0.011257889
000140 16 eb 61 bd 20 db 4e bd 19 a0 aa 3a 15 c0 c3 3b
       -0.055155836 -0.050501943 0.0013017684 0.0059738257
000150 37 90 1d 3d ac 8d 1b 3d 0f c2 f3 3c ea 6a ef 3b
       0.038467612 0.037976906 0.02975562 0.0073064463
000160 8f 70 e8 3c ac d9 50 bc 4c 23 46 3d 13 8c 3d bd
       0.028373985 -0.0127472095 0.048373505 -0.046276163
000170 dd 6a 83 3d da 24 58 3d f9 ed 86 bd ca f8 ec 3c
       0.06416867 0.05276952 -0.065883584 0.028927226
000180 b0 88 35 bd de 59 15 3d 93 01 a2 bd 73 31 8c bd
       -0.04431981 0.036462657 -0.079104565 -0.06845369
000190 dd 7e 85 bd 30 8a ae 3b 71 f1 99 3c e5 2e 60 3d
       -0.06518338 0.005326532 0.018791886 0.054732222
0001a0 d2 cf 9b 3c 8b e0 86 3d 73 e4 b7 3c d3 d0 d2 3c
       0.019019995 0.06585797 0.0224478 0.02573434
0001b0 89 0b 94 ba 88 49 3a bd d8 3a 81 bd 20 e1 8a 3d
       -0.0011294942 -0.04548028 -0.06310052 0.067812204
0001c0 73 63 8c 3d 57 3b d8 3b 57 21 2d 3d e7 80 bf 3c
       0.06854906 0.0065988707 0.042268123 0.023376895
0001d0 0f 8f 50 3d dc ff 3b bd 7e 62 5d 3d b1 5f 53 3d
       0.05091768 -0.045898303 0.054049008 0.05160493
0001e0 d8 b9 04 3c 2c a2 6e 3d 43 6a 82 3c ae 37 5c 3c
       0.008100949 0.058260128 0.01591981 0.013441009
0001f0 71 f9 09 bd 1b 13 85 bc 2c a5 2c bd 8b 9c 91 bb
       -0.03368515 -0.016244462 -0.042149708 -0.00444371

fc2.weight f4 [128, 128]
000000 1a 3a 2c 3d ea 93 a2 3c 22 30 6b 3d c8 51 60 bd
       0.042047597 0.019845922 0.05741895 -0.054765493
000010 81 41 ef bc 19 ae f6 3c ed 78 19 3d 0d c5 2f bd
       -0.02920604 0.030112313 0.03746884 -0.04291253
000020 f7 b3 8a bd df c6 17 3d 33 6e 84 3d e6 12 95 bd
       -0.06772607 0.037054893 0.06466331 -0.07278995
000030 07 16 37 bb ff 93 bd 3c 25 45 b0 3b 21 e3 ab 3d
       -0.0027936713 0.02314186 0.0053793364 0.08392931
000040 9b 44 f3 3c 95 78 0b bd c8 63 b2 3d 5b 83 6c 3d
       0.0296958 -0.034050543 0.08710438 0.057742458
000050 56 83 86 3d 77 01 28 bd dd cc 60 bd c1 71 41 3d
       0.06568019 -0.041017022 -0.054882873 0.047227625
000060 08 69 50 bd de 16 7f bd ab 80 e6 3c db 6f 5b bd
       -0.050881416 -0.062277667 0.028137526 -0.05357347
000070 a9 5a 35 bd 08 23 61 3d 53 40 c1 3d a5 5c 73 bc
       -0.044275913 0.05496505 0.09436097 -0.014853631
000080 14 f6 c8 bc 89 76 24 3c d9 11 13 3d af c1 94 3c
       -0.024531402 0.010038027 0.035905693 0.018158762
000090 0b 24 35 3d 94 fe 3d bb 51 56 a7 3c 2d b8 9d 3d
       0.044223826 -0.0028990852 0.020426901 0.07701144
0000a0 43 ac 48 3d fc 83 c8 3a 0b da 7b 3c 43 49 29 bd
       0.048992407 0.0015298123 0.01537181 -0.041329633
0000b0 6a 97 b5 3c 0f 9a 74 bd 51 47 01 bd 79 6c 25 3d
       0.022166926 -0.059717234 -0.031562153 0.04038665
0000c0 47 80 dd 3b e1 f1 d3 3b 2e 45 b6 bd 14 9b 46 bd
       0.0067596766 0.006468043 -0.08899914 -0.048487738
0000d0 ca 2b 2c bc ec 55 66 bd de fb 7f bd 50 83 a0 3d
       -0.010508487 -0.056234285 -0.06249606 0.07837546
0000e0 67 63 58 3d c8 fb 6e 3c e4 76 02 3d ac c5 03 3d
       0.052829172 0.0145863965 0.031851664 0.032170936
0000f0 8e 24 3b 3d a3 7c 65 bd ef 91 82 bd f5 bf 4b 3c
       0.04568916 -0.056027066 -0.06375491 0.012435903
000100 a7 fc 94 3d df e0 54 bd b3 07 a9 3b 9a 5c 8c bc
       0.07274752 -0.051972266 0.0051583885 -0.017134
000110 41 40 43 bc d4 e7 32 bd 6a 6b 63 3d e6 55 11 3d
       -0.011917175 -0.04367812 0.05552236 0.03548231
000120 5e d4 59 3d 1d 8b a8 bd c5 b8 9e 3d d9 1d ae 3c
       0.053181045 -0.08229659 0.07750086 0.021254467
000130 b5 73 c5 bc 98 08 7f 3d ed b3 63 bd 6f 10 78 3d
       -0.024103025 0.062264055 -0.055591512 0.060562547
000140 40 83 8c 3d 46 9c ab 3d b6 df 34 3b 04 dc d9 bd
       0.068609715 0.08379416 0.0027599162 -0.10637668
000150 63 e3 02 3d fc b9 31 bd b7 c7 fd 3c 95 1b b0 bd
       0.031955134 -0.04339026 0.03097902 -0.08599011
000160 62 2f 45 bd 53 f7 7a bd 63 f4 30 bd 53 81 46 3d
       -0.04814089 -0.061271023 -0.043201815 0.048463177
000170 d6 db bb 3d dc b1 45 3d 51 bf 6b bd d3 11 30 bd
       0.0917279 0.048265323 -0.0575555 -0.04298575
000180 e9 2d e4 bc 45 b3 98 3c 0a 1d 04 bc e5 3a 9b 3d
       -0.027853923 0.01864017 -0.008063564 0.075795926
000190 c1 cd 55 3d 49 4c 7d bd 02 03 72 3c 19 bb 06 bd
       0.052198175 -0.06184033 0.014771225 -0.032893274
0001a0 95 d6 13 3d 7f c9 a1 bd 4a 57 ca bc 8b 08 0c 3d
       0.036093313 -0.078997605 -0.024699826 0.034187835
0001b0 09 a5 92 3d 60 d4 7a 3d f4 6d 96 bd 40 79 ef bc
       0.07160384 0.061237693 -0.07345191 -0.029232621
0001c0 b8 66 03 3d e6 01 68 3d 96 b8 05 3d 8c 2a 6f bd
       0.032080382 0.056642435 0.032646738 -0.058390185
0001d0 69 c9 11 3d a9 6a 00 3d 62 55 96 3d 7c 06 1a 39
       0.03559247 0.03135172 0.07340504 0.00014689
0001e0 dc ee 50 3d 72 ac 92 3d cc 57 84 bc 4b 57 38 bd
       0.051009044 0.071617976 -0.016155146 -0.045005124
0001f0 8c d0 b1 3c 67 4d 82 bd 37 33 53 3d 9c 64 43 bd
       0.021705888 -0.063624196 0.051562514 -0.04770337
000200 66 a3 8f bc 73 b8 41 3d 13 f7 05 bb 06 5b 51 3d
       -0.01753397 0.047295045 -0.0020441457 0.051112197
000210 f9 94 f0 3b c8 96 75 3d 83 f9 7a 3c 29 bd 10 3c
       0.0073419777 0.05995825 0.015318277 0.008834162
000220 8b 15 ab bd d1 d2 96 bc c4 7b 93 bd 01 1c 82 bd
       -0.08353718 -0.018411072 -0.07201341 -0.063529976
000230 ee a0 29 3d 3d 23 9d 3d b7 3f 92 3d 31 dd 9f bd
       0.04141324 0.07672737 0.07141059 -0.07805861
000240 c0 7d 26 3d e0 c0 13 3d 3b ea a6 3d 0e 49 1b bc
       0.04064727 0.03607261 0.08150145 -0.009477867
000250 13 d6 93 3d b0 62 9c 3d 5b 14 a4 bd 2d a3 1d bd
       0.07218566 0.07636011 -0.08011695 -0.038485695
000260 97 76 3e 3d 80 c3 3a 3d f9 22 93 3c d5 57 74 3c
       0.046499815 0.0455966 0.017961012 0.014913519
000270 60 d4 a9 3b 54 bd cb 3c 3f 09 b5 bd 01 a2 82 3c
       0.005182788 0.024870552 -0.08839654 0.01594639
000280 b3 25 d7 3c c4 49 8b 3d 61 8c 8c 3d d7 f5 56 bc
       0.026263094 0.06801179 0.06862713 -0.013120136
000290 33 4f 77 bd 39 07 bb 3c 39 67 60 bd 48 81 86 bd
       -0.060378265 0.022830592 -0.05478594 -0.06567627
0002a0 59 c9 1d 3d 9a 11 3e bd 82 e9 91 3c 26 d8 07 bd
       0.0385221 -0.046403505 0.01781154 -0.03316512
0002b0 ea 23 9c 3c fa da af bd 8f ed e2 bc ed 4a 80 bc
       0.019060094 -0.08586688 -0.027701167 -0.015660727
0002c0 7b 5a 2d bd 86 06 9b 3d 99 18 2e bd 56 d6 93 bd
       -0.042322617 0.075696036 -0.042503927 -0.07218616
0002d0 cd 04 91 3d 7a 3f a2 3d 0b 2d 90 bd f1 49 11 ba
       0.07080994 0.079222634 -0.07039841 -0.0005542329
0002e0 c6 27 6e 3d 4e 91 24 3d 2d 76 ae bd 12 a2 fe 3b
       0.0581434 0.040177636 -0.08518634 0.007770785
0002f0 8d b6 9e 3d fd 79 8c bd fd d1 b8 3c 21 88 31 bd
       0.077496625 -0.06859205 0.022561068 -0.043342713
000300 73 b1 09 bd f4 7f af 3d d4 ee f4 bc 13 3c 41 bd
       -0.033616494 0.08569327 -0.029899038 -0.047176432
000310 86 74 84 bd e5 42 a6 3c 56 f6 e4 bc 0d c7 38 bd
       -0.064675376 0.02029557 -0.027949493 -0.045111705
000320 87 31 c4 bd f8 cb 98 3c 56 fd 68 bd f5 46 0c 3d
       -0.09579759 0.018651947 -0.056882225 0.034247357
000330 2c 20 f7 3c 95 d5 1d bd 21 86 7f ba 5f 03 28 bd
       0.030166708 -0.038533766 -0.0009747465 -0.04101884
000340 06 27 37 bd eb 12 97 3c 8d 12 a7 3d 33 9b 60 bd
       -0.04471495 0.018441638 0.08157835 -0.05483551
000350 c1 d8 26 3d 28 58 64 3d 3f 54 ae bd 45 45 84 3d
       0.040734056 0.055748135 -0.085121624 0.064585246
000360 19 f6 81 bd 4f c2 a1 bd 15 d1 a9 bd df a9 2f 3d
       -0.063457675 -0.078983895 -0.08291832 0.04288661
000370 69 8c a9 3d 31 7f a5 3c 3f 9e 99 3d 5a 3e d7 3c
       0.08278734 0.020202251 0.07500886 0.026274849
000380 9a 7b 92 bd cc 7e 83 bd e5 48 3c 3c 72 8f 37 3d
       -0.071524814 -0.06420669 0.011491989 0.044814534
000390 b7 97 4d bd 34 63 7a bd 6a cf 8f 3d b1 ff 05 bd
       -0.050193515 -0.061129764 0.07021983 -0.03271455
0003a0 08 c4 39 bd c6 af 8a bc 3e 4b 9b bd 5f 40 8e 3d
       -0.045352966 -0.016929518 -0.07582711 0.069458716
0003b0 bf 1c a8 3d 4c 48 5d bd 5e f8 22 bc 67 87 29 3d
       0.08208608 -0.054024026 -0.009946911 0.041388895
0003c0 c3 34 d6 3c eb ad 97 bd a3 21 c3 bd 63 32 9c bd
       0.026148206 -0.07406219 -0.095279 -0.07626798
0003d0 b8 cf 1a bc 7e c1 2d bd c9 15 70 bd d7 37 80 bd
       -0.009448938 -0.042420857 -0.058614526 -0.062606506
0003e0 57 33 44 3d 70 5e a1 bc 3a 4d ea 3b 7c 83 a2 bd
       0.047900524 -0.019698352 0.0071503194 -0.07935235
0003f0 cd a4 a7 3d 13 d2 12 3d 93 09 32 bd 1c 9e ad bd
       0.0818573 0.035844874 -0.043466162 -0.084774226

fc2.bias f4 [128]
000000 70 f9 c4 3d ec da a6 b9 8f 7f a9 3d 47 ab 61 bd
       0.09617889 -0.00031825097 0.08276283 -0.055094983
000010 bb 54 9c bd 21 3d 85 3c e3 99 a3 bd 71 b5 2e 3a
       -0.076333486 0.0162645 -0.07988336 0.000666461
000020 e0 35 54 bd 69 47 99 3d f5 87 53 3d 3d 77 64 3b
       -0.05180919 0.074843235 0.05164333 0.003486111
000030 44 1b 34 3d 1d 98 ca 3d 30 6f 6b bd 77 8c 34 bc
       0.043971315 0.098922946 -0.057479084 -0.011019818
000040 84 91 e5 bc 10 fd 69 3c 9c 4a bc 3d 63 00 37 3c
       -0.028023489 0.014281526 0.09193918 0.011169526
000050 af fc 44 bc 23 f2 82 bd c1 74 cf 3d 06 cf ca 3d
       -0.012023135 -0.0639384 0.10129691 0.09902768
000060 32 f7 c0 3d cd 86 9a bc 03 c3 8c bd 6f 9b 9b bc
       0.09422149 -0.018863106 -0.06873133 -0.018995015
000070 50 9c b8 3d 58 8a 1c 3d de 71 a4 3d 0c 33 24 bd
       0.09014189 0.038217872 0.08029531 -0.040087745
000080 4f 1b e0 ba 2c 54 91 3d ee 52 4c 3d 6f ec 01 3d
       -0.0017097982 0.07096133 0.049883775 0.03171962
000090 9e 1c 29 bd 43 2b d3 3d 16 72 f2 bc 7a 03 99 3d
       -0.041287057 0.10310986 -0.029595416 0.07471366
0000a0 6b a7 30 bd 0b c4 ba bd c8 3f ab 3d c8 a5 37 3d
       -0.043128412 -0.091194235 0.08361775 0.044835836
0000b0 ff 80 a2 bd f5 0a 03 3d ed a6 ca bc af 83 de bb
       -0.0793476 0.03199287 -0.0247378 -0.0067906003
0000c0 d8 bc 11 3d 7f 3e a8 bd 11 09 18 bd d7 b0 a5 3c
       0.035580486 -0.08215045 -0.03711802 0.020225925
0000d0 8f 30 7c 3c 7f 09 95 bd 65 d9 2b bd 33 6c 75 3c
       0.015392437 -0.07277202 -0.04195537 0.01497941
0000e0 11 c4 20 3d 5d a2 72 3d 10 a1 a9 3d eb 78 6e bd
       0.039249483 0.059236873 0.08282673 -0.058220785
0000f0 ec 89 98 bc 76 40 47 bc 73 24 d7 bc 3e 57 37 bb
       -0.018620454 -0.012161365 -0.026262498 -0.0027975584
000100 06 de 35 bc 30 88 ba bd 40 c1 50 bd 81 6f 1e bd
       -0.011100298 -0.09108007 -0.050965548 -0.038680557
000110 b6 98 76 3d e3 93 bb 3c 5f f1 a4 3c c3 16 a1 bd
       0.06020423 0.022897666 0.020134626 -0.078656696
000120 44 f3 35 3c 10 c5 71 bb 69 82 c2 3d e5 73 ad 3d
       0.011105362 -0.003689114 0.0949753 0.08469371
000130 c6 cd b4 3b 98 1d aa b9 2e 39 6b 3d cb 23 09 3d
       0.005517694 -0.00032446976 0.057427578 0.0334814
000140 55 18 2b 3c ec 99 6f 3d a3 8d 7b bd af 8e a1 bd
       0.010442813 0.0584964 -0.061414372 -0.07888543
000150 ca 64 8e bd 94 07 76 3d b9 65 81 ba f6 51 27 bd
       -0.06952818 0.06006582 -0.0009872235 -0.04084965
000160 b3 c0 4f bd 4b f8 f1 3c 44 f7 12 3d 32 0c 0f 3d
       -0.05072088 0.02953734 0.035880342 0.03492374
000170 51 25 66 3d c4 d6 bc 3c 20 cf fd bc 11 72 be bb
       0.05618793 0.023051627 -0.030982554 -0.0058119376
000180 47 c6 ba bd ec 92 56 3d 31 e9 83 bd 97 4a c8 3d
       -0.0911985 0.05238621 -0.06440962 0.09779852
000190 48 74 9b 3d 80 42 a4 bc a2 d6 c0 bd ac f6 61 3c
       0.07590538 -0.02005124 -0.09415938 0.013791721
0001a0 c8 d2 81 3d 4b ae b1 bd 06 d3 bd bc ed a2 15 bc
       0.063390315 -0.08675822 -0.023171913 -0.009133083
0001b0 b8 fe b3 bc 8b 3a a5 3c 9a 53 0b bc 92 ee 9f 3d
       -0.021972045 0.020169517 -0.008503819 0.078091756
0001c0 d6 c2 42 bc 4d 67 9d bd 25 3b 28 bd ac 62 ef bc
       -0.011887273 -0.07685719 -0.04107203 -0.029221855
0001d0 c2 e7 45 3c 03 f0 c3 3d bb 67 98 bd 1f c1 99 3d
       0.012079181 0.09567263 -0.0744166 0.07507538
0001e0 07 ce a6 bd 3b 51 45 3c ad 9e ab bd 5b d6 9a 3d
       -0.08144765 0.012043293 -0.083798744 0.07560416
0001f0 e5 1d 54 bd 22 75 55 3c 47 f9 f0 3b 5f 4d 61 bd
       -0.051786322 0.013028415 0.007353935 -0.055005427

fc3.weight f4 [2, 128]
000000 59 b9 d8 3c c0 7a b4 3c d3 66 8c 3d 9c 13 2d bd
       0.026455568 0.022031188 0.0685555 -0.04225503
000010 a8 fa 1d bc bd 2c 71 bd 86 ef 9b bd 85 16 85 bd
       -0.009642281 -0.058880556 -0.07614045 -0.06498436
000020 43 82 68 3d 38 cb 85 3d d1 00 9b bd 3a 8c 90 3d
       0.056764852 0.065329015 -0.07568515 0.07057996
000030 80 91 d3 bb 36 fc a3 3d 94 f7 58 3d a6 44 83 bd
       -0.006456554 0.0800709 0.052970484 -0.06409578
000040 12 91 9f bd 97 3a 86 3d e6 13 a6 3c 82 c7 79 bc
       -0.07791342 0.06554144 0.02027316 -0.01524532
000050 34 90 89 bd 6c ed 72 bd 9c 7c 60 3c 80 9f e7 bc
       -0.06716958 -0.059308454 0.013701584 -0.028274298
000060 ba bc 21 3d ed ea 8c ba 3f 7b 89 bd d8 ca 0b 3c
       0.039486624 -0.0010751166 -0.067129605 0.008532248
000070 d4 7c a1 3d 07 87 5e bd ec 72 58 39 c1 bb 9e bd
       0.07885137 -0.05432799 0.00020642177 -0.07750655
000080 76 a2 5d 3d 77 14 ad 3d 5d 24 70 3d 5e 32 72 3a
       0.054110013 0.08451169 0.05862843 0.00092390727
000090 97 5c 8a bc f9 ca 22 3d 17 2d dc 3c a8 67 23 bd
       -0.016889853 0.03974435 0.02687697 -0.039893776
0000a0 2a 3d 4d 3d 70 ee 79 bc b6 1f ca 3d 87 f6 7c bd
       0.05010716 -0.015254602 0.0986933 -0.061758544
0000b0 30 cb ca 3c c3 70 82 3d b2 42 3a 3d 9c 67 10 bd
       0.02475509 0.06369164 0.04547376 -0.03525506
0000c0 83 0e 42 3d f8 5d 91 bc 78 f5 76 bd c7 5c 4b bc
       0.04737712 -0.017745003 -0.06029269 -0.012412257
0000d0 e1 e0 51 3d 01 2b e5 bb 30 3e a1 3d 8a 2b 30 bd
       0.05123985 -0.006993652 0.078731894 -0.043010272
0000e0 6c 41 41 3d cc b2 3e 3d fb 94 11 bd 45 c9 d7 3c
       0.04718153 0.046557233 -0.03554247 0.02634109
0000f0 d4 ad b1 bc 76 74 b9 bd a4 02 26 bd a9 71 56 bd
       -0.021689333 -0.09055416 -0.040529862 -0.05235449
000100 b4 73 23 3d 69 8c 87 bb 15 19 a2 bd 82 d9 eb 3b
       0.039905265 -0.0041366112 -0.0791494 0.00719756
000110 e1 f6 0d 3d 95 8f bd 3d 97 5c 99 bd b9 ae 30 bc
       0.03465927 0.09255902 -0.07488363 -0.010783845
000120 aa fd 51 bc 07 87 70 3d c5 2a 90 bc 72 ae 39 3d
       -0.012816826 0.058722522 -0.01759852 0.04533238
000130 ac 80 27 bc 8d b4 1c 3c b5 17 b0 3d 14 b3 65 bd
       -0.010223549 0.009564531 0.08598272 -0.056078985
000140 de 7b f8 bc f1 67 aa bd 51 c0 8c 3d 9b 00 8b 39
       -0.030332502 -0.083206065 0.06872619 0.00026512597
000150 38 11 06 3d d9 f2 bc 3b cb fd eb 3c 80 1c 5c 3b
       0.032731265 0.0057662544 0.028807541 0.0033586323
000160 63 a9 6c 3d c2 3b ca 3d 7e 87 12 3d d4 12 4f 3d
       0.057778727 0.09874679 0.035773747 0.050555065
000170 ef ba 5e 3c 93 13 95 bc 9f 89 bb bc 98 6d 6e bc
       0.013594373 -0.01819781 -0.022892771 -0.014552496
000180 7a a7 85 3a e3 27 7d bd 50 e0 8d bd b2 3e 80 3d
       0.0010197007 -0.061805617 -0.0692755 0.06261958
000190 22 ae ba 3c 7d 1d 86 3d 0f 34 1a bd a4 18 60 3d
       0.022788111 0.06548593 -0.037647303 0.054711
0001a0 08 4f 99 bd 02 16 8d bd d6 d5 48 3c 42 f2 d3 3c
       -0.07485777 -0.06888963 0.012258014 0.025872353
0001b0 9a e8 51 3c ee 7c 59 3c 0f 26 43 3d 0d 9b 4e bd
       0.012811804 0.013274414 0.047643717 -0.050440837
0001c0 b2 8d b8 3d c7 3c 28 bd c9 bd 47 bd 36 3f 6d 3d
       0.09011401 -0.041073587 -0.048764978 0.05792161
0001d0 38 f4 a9 bc 16 f6 88 bd 7b 8f 95 3d a0 eb bf 3d
       -0.020746335 -0.06687562 0.07302757 0.09371114
0001e0 bb ee 9f bd c5 20 6b 3d 9e a2 34 3d 1d 98 c6 3d
       -0.07809206 0.0574043 0.044100396 0.09696982
0001f0 a0 34 9f bc ea 6d c2 3d c8 05 15 bd e6 bc 8b bd
       -0.019434273 0.09493621 -0.036382467 -0.06823139
000200 36 33 62 bd e0 56 33 bd 7b 9f ed 3d 78 ef 78 bd
       -0.05522462 -0.043784022 0.11602684 -0.06077525
000210 a5 94 8c 3d c8 3a 7a bc 1a 1a 4a 3d 0c 9e eb bc
       0.06864289 -0.015272804 0.0493413 -0.028761886
000220 9b 9f a7 3d 50 89 88 3d f7 e0 80 bd e2 52 25 bd
       0.08184739 0.06666815 -0.06292909 -0.040362246
000230 a2 69 15 3d b6 5c f7 3d 9f dc 86 3d 57 d9 3c 3c
       0.036477692 0.1207823 0.06585049 0.011526427
000240 fb 42 f8 bc 0e 39 91 3d 89 df d5 bb 00 32 ac 3c
       -0.030305376 0.070909604 -0.0065268916 0.021019936
000250 08 42 d8 bc 92 94 3a 3d f4 1b 49 bd 47 ed 4a 3d
       -0.026398674 0.045551844 -0.049098924 0.04954269
000260 ef fd 0d bc fd d3 97 3d 14 d3 93 bc 81 15 a2 3d
       -0.0086664995 0.074134804 -0.018044986 0.07914258
000270 e8 11 df 3c 7b 40 93 3d 22 1d b9 3c 19 88 04 3d
       0.027230218 0.07190033 0.0225969 0.032356355
000280 3e 60 9c bd 7a c8 f7 3d 06 ea d6 bc f8 53 a5 3d
       -0.07635544 0.12098785 -0.026234638 0.080726564
000290 33 e3 9b bd 59 1d ef 3c 6e 1e 3a 3d c8 72 dc bc
       -0.07611694 0.029188799 0.045439176 -0.0269102
0002a0 54 a1 cb 3c e2 cd 68 3c 1e ac e7 3d b1 27 d0 3d
       0.0248572 0.014209243 0.113121256 0.101638205
0002b0 b8 42 68 bd ed 34 72 bc dc d6 f3 3c 36 4d 15 bd
       -0.056704253 -0.014783126 0.029765539 -0.036450587
0002c0 b8 24 e4 bc e1 3a 87 3d ac d4 83 bd 98 b8 a2 3b
       -0.02784954 0.06603027 -0.06437048 0.004965853
0002d0 a0 85 9b bd 90 1b f4 bc e9 29 a4 3d 57 4e 5b 3d
       -0.07593846 -0.0297983 0.08015806 0.053541508
0002e0 c9 84 c9 3d a1 ca 8d bb 97 e9 c2 3c 00 ce 95 bd
       0.0983978 -0.0043271338 0.023793025 -0.07314682
0002f0 80 76 89 3b 3a 3f bb 3d 02 17 17 3d 44 f3 ac bc
       0.0041950345 0.09142919 0.036887176 -0.021112092
000300 36 35 52 bd fd bb 64 bd a0 fa 6d 3c 3a 70 a7 bc
       -0.051320277 -0.055843342 0.014525086 -0.020439256
000310 11 40 86 3d 1b 94 97 bd a2 53 36 3d fd 68 45 bd
       0.065551884 -0.07401296 0.044513352 -0.048195828
000320 40 b2 3a 3b 39 55 af bd 87 04 90 3d 25 90 1c bd
       0.0028487593 -0.08561177 0.070321135 -0.038223404
000330 17 d9 a9 bc 2b 91 a7 bd 3d 9b bf 3c 3b 21 9b bd
       -0.0207334 -0.081819855 0.023389453 -0.075746976
000340 65 58 ff bc ac 0e 39 3d 98 d2 86 bd 88 0c ae bd
       -0.03117008 0.045180008 -0.06583136 -0.08498484
000350 1b e7 d9 3c 2b 7a ac 3c 67 27 ad 3d 1c 2e 84 bc
       0.026599457 0.021054348 0.08454781 -0.016135268
000360 67 42 95 3d fb f1 a8 3d 49 bc 87 3d 15 81 b6 3a
       0.07288056 0.08249279 0.066277094 0.0013923967
000370 35 c3 9f 3c 19 ce 93 3d 50 81 a0 bc 20 83 49 bb
       0.019502262 0.072170444 -0.019592911 -0.0030748323
000380 00 15 35 bb 68 cc 2a 3d a2 d8 04 bd ac 8c 91 3d
       -0.0027630925 0.041698843 -0.03243316 0.07106909
000390 11 1d bd 3c 16 a9 74 bd 60 1d 68 bc 60 55 2a 3d
       0.023085149 -0.059731565 -0.01416716 0.041585326
0003a0 20 4a bf 3d b0 bd 3f 3c f5 1f 97 bd 1b a7 43 bb
       0.0934031 0.01170294 -0.07379142 -0.0029854241
0003b0 d6 c6 be 3d d3 1b 40 bc 3d 55 c5 3d 00 dd 33 3c
       0.09315269 -0.011725384 0.096353985 0.0109779835
0003c0 1b bb c0 bc 98 11 91 3b 96 f2 55 3d 02 46 a5 bd
       -0.023526719 0.004427146 0.0522333 -0.080699936
0003d0 31 92 8d 3d 2c 9e 53 3d cb f0 86 3d 1d 97 24 3d
       0.069126494 0.051664516 0.06588896 0.040183175
0003e0 9d 93 97 3d 1a 36 8f bd ea 3d 98 bd 80 8e bf bc
       0.07401202 -0.06992741 -0.07433684 -0.023383379
0003f0 d8 2b 43 bc 2b fa 3e 3c 34 95 49 bc 79 aa e1 bc
       -0.011912309 0.011656324 -0.012303639 -0.027547108

fc3.bias f4 [2]
000000 14 92 99 3d bf c1 93 3d
       0.07498565 0.072146885
