checkpoint-episode-0.pth.tar (torch_old, 174859 bytes, 6 tensors)

fc1.weight f4 [128, 207]
00000000: 8cc6 6cbc 56ce 31bd 2bbd a2bc 2002 eb3c
00000010: f2ae 3d3d c707 27bd e87a 78bd 27ce 863b
00000020: 513f cb3c b325 bbbc 0287 31bd 0d6d fcbc
00000030: 503d a93c eea4 28bd 88ac 8d3d 9c00 353c
00000040: 71b7 bebc 0ea2 123b 119b fdbc a398 2fbd
00000050: 7130 de3c 679c 8b3b 427f 623d c242 2f3d
00000060: c76a b83b bd72 ee3c 8f81 49bd 503f 743d
00000070: 4449 2f3d d05a 643d 1937 b33c bcfd 7e3c
00000080: cdd6 f93c 2088 c63b 7521 8a3c ef37 1dbd
00000090: 3d95 59bd 80ca 693b 1aaf 61bd 947b 60bd
000000a0: 4026 dc3b de58 4abd 08df 0d3d add5 d5bc
000000b0: fd3c f53c 7b0c 0fbd 743f 653c 3c83 5dbc
000000c0: 1422 283c 4105 953c 112f 81bc c4f2 743d
000000d0: 2e98 463d 2841 6b3d 9126 da3c 4382 27bd
000000e0: 5c85 a03a 404c 0b3c a8ae 40bc 9d32 e43c
000000f0: aed7 183d 2592 7abd 25b8 e93c 14c2 75bd
00000100: 1ca1 9c3c 9567 fb3c d17d bcbc 50c9 8dbd
00000110: ec27 503d dfe2 efbc 8cc9 6e3d 782f 5ebc
00000120: bcf7 683d a08a 67bd cf49 d3bc 95be 7ebd
00000130: 12fa 813d 9820 213d 0230 86bd b86b 613d
00000140: 2092 4c3d 063f 833d a106 3fbd 4cb3 0a3c
00000150: 41c9 78bd 5d81 cc3c 1b11 febc dd81 8e3c
00000160: f4d2 393c 4dbc 81bc ec06 37bd 804e 10bc
00000170: 4289 603d 5a3e 553d 43d2 a8bc 71cf 8b3c
00000180: a7d5 b73b 2758 14bd 086a 3a3d 2457 033c
00000190: 3684 233a a493 1ebc 2a11 0f3d 02bd 22bd
000001a0: 7266 3a3d 78b5 8d3d b783 abbc 7894 50bc
000001b0: aaab 833d 4ea1 6d3b 240e 393c cfea 4abd
000001c0: 14e8 14bc 99df 38bd d058 bb3c d67a 5b3d
000001d0: 1410 543d 9005 58bc a024 06bd b7cc d2bc
000001e0: 8539 933c 356c a73c 78cf 21bd 88a1 22bd
000001f0: f939 e13c 2053 8a3d c122 a0bc f5f8 cc3c
00000200: ccc3 ccbc 5626 21bd 4a31 493d 6a55 1b3d
00000210: 013b 8dbd d4e8 0a3c 78a2 13bd ee60 4fbd
00000220: 67e1 cb3b bda8 09bd 6263 57bd 42b9 1dbd
00000230: 1a09 40bd 03cf 6dbd 2a04 4c3d f9eb 9bbc
00000240: 9954 cdbb bbee 3cbd 91ec 7bbd 142e 303d
00000250: 1d01 aebc 6d4c 8039 6e1a 50bd bb44 7ebd
00000260: 4306 6fbd 99a9 943c 8ad7 473d c3c7 8ebc
00000270: 080f 0cbc c46b 1dbd 4f3e aebc f106 abbc
00000280: f223 18bd 2a42 0b3d 850b ae3c 26f7 80bd
00000290: 6291 60bd e9d8 83bd 7911 86bb c1d1 933c
000002a0: a4e6 2d3c 3c05 553d 944a 143d e492 e6ba
000002b0: 8c00 393c 2c2c 153c be60 593d a9de ccbb
000002c0: 00b1 633d fc90 36bd b9c2 62bd e871 4fbd
000002d0: 904d 3b3d 1100 f03c fd57 e03c 5981 9ebb
000002e0: 1471 e7bc c82c 433d b89a 6c3d bdaa 5dbd
000002f0: 8106 e5bb 1e4a 333d 03b8 e3bc 6ad6 24bd
00000300: 9545 d93c 56e7 7dbd 8a1c 35bd da6c 183d
00000310: d115 943c 4892 81bd d05a 933c 95a9 24bd
00000320: 4cbf 16bc 30e7 80bd 58e6 0bbd 1993 84bb
00000330: d4f3 4f3c f40d 503c ff91 1cbd 5719 19bd
00000340: ae3e 5abd 8c94 763c bf27 c5bc 81e2 6ebd
00000350: 99ab 8c3d fb32 f1bc 741a 563d 8ea4 873d
00000360: 1398 48bc bf45 f03c 1745 363d 537f fb3c
00000370: 1334 0f3c 3450 843c 96c9 613c 27c0 fbbc
00000380: 6a80 4abd d084 103d 8dc8 c63c ad4c 673d
00000390: 4d42 96bc b59c 0abd dc6e 56bd 8096 f93c
000003a0: 013e 8e3d 087f 393d 3f16 beba b97c e3bc
000003b0: 3b9f 3fbc bb6f b3bc 4773 89bc 82a2 693b
000003c0: 82bd 59bd e7f0 c93b 762c a3bc e960 7bbd
000003d0: d7ba 05bd f3b5 f53c a613 813d c047 ac3c
000003e0: 7c7b 41ba 752c 793c 0599 b4bc f878 253d
000003f0: 586f 8a3d ce2d c9bb 1bae 8cbd 7423 653d
-0.014451634 -0.043409668 -0.019865593 0.028687537 0.04630942 -0.0407789 -0.060664088 0.0041139307
0.024810465 -0.022845125 -0.043341644 -0.030813718 0.020659119 -0.041172914 0.06917673 0.011047509
-0.023280831 0.0022374424 -0.03095773 -0.042870175 0.027122708 0.004260588 0.055297144 0.042788275
0.005627963 0.029107446 -0.049195822 0.059630692 0.04279448 0.055750668 0.021876859 0.015563425
0.030497933 0.006058708 0.016861657 -0.03838342 -0.05312084 0.0035673678 -0.05509863 -0.054805353
0.006718427 -0.049401157 0.034636527 -0.026102865 0.029936308 -0.03492401 0.013992179 -0.013520058
0.010262031 0.018190982 -0.015769513 0.05980183 0.048484974 0.057435185 0.026629718 -0.04089571
0.0012246775 0.008502066 -0.011760391 0.027856166 0.037315063 -0.06117453 0.02853019 -0.05999954
0.019119792 0.03068904 -0.023009213 -0.06923163 0.050819322 -0.029282985 0.05829768 -0.013561122
0.056876883 -0.056528687 -0.02579203 -0.062193472 0.06346525 0.039337724 -0.065521255 0.05503437
0.049944043 0.06408505 -0.04663718 0.008465599 -0.060738806 0.024964029 -0.031014016 0.017395908
0.011341799 -0.01583686 -0.044684336 -0.008807778 0.0548184 0.052061416 -0.020608073 0.01706669
0.005610186 -0.03621688 0.045511276 0.008016381 0.00062376575 -0.009678755 0.03492848 -0.039731033
0.045507856 0.06919378 -0.02093683 -0.01273071 0.06429227 0.0036259475 0.011294875 -0.049540337
-0.009088535 -0.045135114 0.022869498 0.053583942 0.051773146 -0.01318492 -0.032749772 -0.025732381
0.017971763 0.02043734 -0.0395045 -0.03970483 0.027493464 0.06754136 -0.019547822 0.025021056
-0.024995707 -0.0393432 0.04911927 0.037923254 -0.0689602 0.008478362 -0.036043614 -0.05062955
0.0062219384 -0.033608187 -0.052585013 -0.038506754 -0.04688368 -0.05805875 0.04980866 -0.019033419
-0.0062661883 -0.04612611 -0.061504904 0.043012694 -0.021240765 0.00024471004 -0.050806455 -0.062077265
-0.05835558 0.018147277 0.04878954 -0.017429238 -0.008548506 -0.03843285 -0.021269945 -0.020877333
-0.037143655 0.033998646 0.021245727 -0.0629714 -0.054826148 -0.06437857 -0.0040914384 0.018044354
0.010614071 0.052006945 0.036203936 -0.0017591384 0.011291634 0.00910477 0.053070776 -0.006252129
0.055588722 -0.04457186 -0.055361483 -0.05064574 0.045728266 0.029296907 0.027385706 -0.004837197
-0.028252162 0.04765013 0.05776474 -0.054117907 -0.0069893007 0.043771856 -0.027797705 -0.040243544
0.026522437 -0.061988197 -0.04421667 0.037213184 0.01807681 -0.06326729 0.017987639 -0.04020079
-0.009200882 -0.062940955 -0.03415522 -0.0040458557 0.0126924105 0.012698639 -0.03822517 -0.03737768
-0.053282432 0.015050065 -0.024066804 -0.05832148 0.06868667 -0.029443255 0.05227132 0.06623183
-0.012243289 0.029330133 0.044499483 0.030700361 0.008740443 0.016151525 0.013780972 -0.030731274
-0.04943887 0.03528291 0.024265552 0.056469608 -0.018342162 -0.033840854 -0.052351817 0.030467272
0.0694542 0.045287162 -0.001450248 -0.027769433 -0.011695678 -0.021903863 -0.016778601 0.003564984
-0.053159244 0.006162751 -0.019918662 -0.061371718 -0.032648887 0.029993987 0.06302576 0.021030307
-0.00073807663 0.015208353 -0.022045622 0.040398568 0.067595184 -0.0061394935 -0.068691455 0.055942014

fc1.bias f4 [128]
00000000: 3d84 26bc bc95 e33c d25d 223a 3d75 d03c
00000010: 6a9b 11bc eae7 b3bc 9bfa 4a3d bc0f e33b
00000020: 4bb5 193d e42f 80bd 96ca 743d b733 68bd
00000030: 8042 09bc b94b 84bd b19e 0a3d 870b 153d
00000040: 14aa 40bd 7df7 11ba a0fd 81bc 5042 d7bb
00000050: 34fc cdbc 11b4 923c ec4a 8bbb 3b62 263d
00000060: 542e 583d c429 40bd 58e7 5e3d 8c33 90bc
00000070: 7a4f cbbc 5edc a6bc e30c 873d 77cb 953c
00000080: 4ed0 8b3c 33eb 1abd 7080 9e3c f961 f13c
00000090: c4f8 8dbd b98d 7e3c 549d 273d 2392 533d
000000a0: 57b5 5f3d 496e 713d e22f 4a3d 7748 843d
000000b0: ca35 48bd 88c0 eb3c 0678 e0ba ba8f 01bd
000000c0: e3c9 483d d825 44bd 7b3d 70bc 6033 843d
000000d0: 200a a43c 4677 6b3c 9a58 5bbc 08f5 693d
000000e0: 04e5 d7bb 103c 4bbc 169d 723d 90b1 843d
000000f0: f7fb 083c b646 39bd 974d 753d 5e1c 4e3d
00000100: e3c1 0e3d 75bc 833d 457a 8b3d c6fc 12bd
00000110: e4d4 3dbb c7d1 02bd 80b7 45bd 26b1 75bd
00000120: 4cd8 393d a3df 00bd ec16 ee3a 5df0 653d
00000130: a57b e9ba ecdb 7e3b 8070 c7bb 50a6 87bb
00000140: 78f9 20bd b254 40bc f88f 80bc aa3b f8ba
00000150: 0d6a 383d c0b5 783d 478c e33c c5c1 20bd
00000160: e021 4a3c ecc4 2fbd 4a6c 2f3d 8e18 ccbc
00000170: 80f4 603d 1cba 7c3d 22d9 19bd 214d 8f3c
00000180: d8a3 49bd 8465 463d 86ca 87bd 0e40 53bd
00000190: aed8 14bd 7200 8fbb 5939 d83b 14e5 f03c
000001a0: e137 cf3c cf29 383d 1a25 dbba 3ada 99bc
000001b0: a45c fabc e03f c7bc b9ef 8bbd 2489 5b3d
000001c0: 9339 703d 2a92 f6bc 62a1 003d ff9f 993c
000001d0: 271f e73c 8c55 80bc 6075 1b3d afba 693d
000001e0: e5a7 14bd 62dc 453d a676 0ebd 7d83 60bb
000001f0: 1042 4ebd 94d2 78bc d08a 58bc 3a5d 4dbd
-0.010163364 0.02778136 0.000619379 0.025446529 -0.008887151 -0.021961171 0.049555402 0.006929366
0.03752641 -0.062591344 0.059763514 -0.056689944 -0.008377671 -0.064597555 0.033842746 0.036387946
-0.0470372 -0.00055681897 -0.015868008 -0.0065691844 -0.025144674 0.017908128 -0.0042508747 0.040621024
0.052778557 -0.04691483 0.054419845 -0.017602704 -0.02481817 -0.020368751 0.06594255 0.018285496
0.0170671 -0.03782196 0.019348353 0.029465662 -0.06932214 0.015536719 0.040921524 0.05165304
0.0546163 0.058943067 0.04936207 0.06459134 -0.048879422 0.02877833 -0.0017125614 -0.03163121
0.04902066 -0.047887653 -0.014663096 0.064551115 0.02002436 0.014371699 -0.0133878235 0.057118446
-0.00658858 -0.012404457 0.05923184 0.0647918 0.008360854 -0.04523345 0.05988845 0.05032002
0.034852874 0.0643243 0.068104304 -0.035885595 -0.0028966004 -0.03193834 -0.048270702 -0.059983395
0.045372292 -0.031463277 0.001816479 0.05613743 -0.0017813338 0.0038888408 -0.006086409 -0.004139699
-0.039300412 -0.011738943 -0.01569365 -0.001893868 0.045023013 0.060720205 0.02777685 -0.039247293
0.012337178 -0.04291241 0.042827882 -0.024914052 0.054920673 0.061700925 -0.03756059 0.017492833
-0.04922852 0.048436657 -0.06630425 -0.05157476 -0.036339454 -0.0043640668 0.0065986332 0.029406108
0.0252952 0.044961747 -0.0016719431 -0.018780816 -0.030561753 -0.02432245 -0.06832833 0.053597584
0.058648657 -0.030098993 0.031403907 0.01875305 0.028213097 -0.015665792 0.037953734 0.0570628
-0.03629293 0.048305877 -0.03478112 -0.003425806 -0.05035597 -0.0151869245 -0.013216689 -0.050137736

fc2.weight f4 [128, 128]
00000000: 5616 f13c 79c7 3b3c 9653 343d 39cb 7fbd
00000010: fdb7 00bc de7b 613c 3677 333d 2274 bfbc
00000020: 6ad6 65bd 0618 c03c c8fa 8c3d fef1 acbd
00000030: 9f00 4f3a 072b 473c 80b2 843c 3573 a83d
00000040: dbb7 c63c 5c7c 05bc cf5c 993d 45eb 7e3d
00000050: 8108 9f3d 8aba 4fbd 1eb5 8cbd 467c 073d
00000060: 8bd6 82bd 6442 46bd cc70 fc3c 4eab 28bd
00000070: cc53 6abd 8903 743d 15ed a23d 29b4 183b
00000080: edb5 02bb ca86 bebb 1ccd b33c 269e fc3c
00000090: 8690 4a3d 32f9 87bc e598 493c 5ff6 8a3d
000000a0: a6f6 883d 4ac3 863c 86da c63a ad82 51bd
000000b0: 36ec 223d 5027 9bbd 8f71 44bc c4fe c93c
000000c0: 923d 0dbc 209e 663c 1ddc a1bd af1e 1fbd
000000d0: 277d 363b c59d 43bd 77c9 26bd 0a8e 823d
000000e0: b35c 1f3d 5922 953a 4065 0e3d a324 da3c
000000f0: 98c9 553d c34d 5abd 945f 97bd 71fb 3d3b
00000100: b06a 6c3d a69e 21bd 3e12 a73b c634 92bb
00000110: 75e2 c3bc 2b32 54bd b4f1 283d 96cc 3a3d
00000120: 98f8 3c3d dca0 9cbd 84d8 823d 0f9c 173c
00000130: 2ce1 e6bc 443b 973d 9c67 8cbd 410d 6b3d
00000140: b8d6 1b3d 5a34 9e3d 74bf 973c 087f b2bd
00000150: 80d1 333d bdd2 68bd 21d4 823d 3cea 8cbd
00000160: 1434 25bd 27e1 97bd 05b5 50bd 4aca 0d3d
00000170: e0da a03d 3b0a 3d3d 77d0 39bd b807 6fbc
00000180: 9875 96bc 053d b63b 002d eab9 9a48 7e3d
00000190: b076 193d 86ee 4abd 3d52 8b3c 14a6 45bd
000001a0: 43dd f33c f5c0 a6bd 9310 58ba b3b4 5d3d
000001b0: 628f 6e3d 733e 463d 0391 b5bd 26dd f9bc
000001c0: 3cf2 983c 67ee 8e3d 9bf8 033d be48 15bd
000001d0: 3bfc 953c bb04 8e3c fb79 a23d 095c 5abc
000001e0: dd40 8c3d 63cb 7e3d 8049 4a3b ae7c 6ebd
000001f0: 6812 f53c b9f0 9abd bc71 143d 0935 24bd
00000200: c84f 6abc d1e0 8a3d c063 62bb 1b5b 803d
00000210: 801a a53b 7a9b 783d c085 973c 807e 213a
00000220: 5c5f a4bd c8ef 91bc d46d 90bd d9bd 8ebd
00000230: 86d7 1f3d f3b9 913d 05bb 993d 0c52 95bd
00000240: 82e2 313d 58fe f73c 63e0 b43d 50a5 82bc
00000250: e525 883d 17f0 993d cf10 9dbd 2912 05bd
00000260: 7227 683d 92d3 2f3d 3e81 283d 14d6 8e3c
00000270: e053 463b d4c6 d73c 257e aabd c8cb 3b3c
00000280: c023 283c 51cb 993d c53c 823d c0ba 78bc
00000290: f0ea 7ebd 60f1 c33c f4a1 58bd 6291 82bd
000002a0: ee0d 1f3d b171 43bd e87e 833c ba4b e8bc
000002b0: 0495 9a3c d8d1 a5bd b82c b7bc 4413 87bc
000002c0: 2aec 0fbd 15f1 9f3d 29ce 30bd a3b5 9bbd
000002d0: f902 8c3d 1bf5 a23d 0aca 92bd a0f2 383c
000002e0: 1e70 7b3d 4e5d 3d3d f15c adbd e8a4 943c
000002f0: 2db4 9f3d 9e33 98bd 34b8 f33c 4c5e 20bd
00000300: 2af0 08bd 8df3 a33d c22b fbbc aa3c 51bd
00000310: 13e9 8fbd a401 c03c c2fd f1bc 68ef 34bd
00000320: 9723 94bd c0ca 783c 92ad 40bd 6c57 0a3d
00000330: 82b2 073d 4dc2 24bd 4070 443b a7cc 31bd
00000340: bff1 32bd 54d0 993c 4347 973d 99ab 5abd
00000350: 425f 263d 962c 7c3d 2b2f afbd bb2e 9d3d
00000360: b821 70bd b84f afbd cf6d b3bd 466b 123d
00000370: c3b0 ab3d 7c9b fb3c 73c7 a03d 4c66 e73c
00000380: 8953 9abd e81c 7cbd 10a4 403c 563e 353d
00000390: 314b 4fbd 7512 62bd 3772 8f3d 11bd 15bd
000003a0: cf1f 1ebd 58ff 73bc 7187 9abd c236 743d
000003b0: fd11 9f3d e36d 68bd e889 7fbc 06de 4d3d
000003c0: a0d8 b03c bfd8 a8bd 3329 b1bd a569 9cbd
000003d0: 40bf 48bb 459a 0dbd ec69 6cbd 8ed1 83bd
000003e0: 2eb5 3e3d 2888 b7bc 6842 073c b391 9cbd
000003f0: cdb8 a53d 4858 f03c d725 31bd 853b a5bd
0.029429596 0.011461132 0.044025026 -0.062449668 -0.007856366 0.013762442 0.04381486 -0.023370806
-0.056112684 0.023448955 0.0688377 -0.08444594 0.0007896516 0.012156255 0.016198397 0.08225099
0.024257591 -0.008147325 0.07488405 0.06223609 0.07765294 -0.050715007 -0.06870483 0.0330775
-0.06388577 -0.04840316 0.030815504 -0.041178994 -0.05720882 0.059573684 0.07955376 0.0023300743
-0.0019944862 -0.005814408 0.02194839 0.03083713 0.049454235 -0.016598318 0.012304519 0.06785273
0.066876695 0.016450543 0.0015171326 -0.051150013 0.03977605 -0.07575858 -0.011989965 0.024657615
-0.008620637 0.014075786 -0.079033114 -0.03884762 0.0027845593 -0.047757883 -0.040719476 0.06374748
0.038906764 0.0011378034 0.03476453 0.026628798 0.052194208 -0.053296816 -0.07391277 0.0028988982
0.057718933 -0.03945794 0.00509861 -0.0044618575 -0.023911694 -0.051805656 0.04124613 0.045605265
0.046135515 -0.07647869 0.06388953 0.009253516 -0.028183542 0.07384351 -0.068556994 0.057385687
0.03804657 0.07724829 0.01852391 -0.087156355 0.043900967 -0.0568416 0.06388117 -0.06880614
-0.04033287 -0.07415991 -0.050953884 0.034616746 0.07854247 0.046152335 -0.045364823 -0.014589243
-0.01836662 0.0055614733 -0.00044665486 0.062080957 0.037466705 -0.04954388 0.017006988 -0.048254088
0.029768592 -0.081422724 -0.0008242216 0.054127406 0.05824221 0.0483994 -0.088655494 -0.03050096
0.018670194 0.069790654 0.03221951 -0.036446325 0.01830875 0.01733624 0.07933422 -0.013327607
0.06848309 0.062205683 0.0030866563 -0.058224373 0.029916003 -0.075654455 0.036241278 -0.04008964
-0.014301248 0.067811616 -0.003454432 0.06267377 0.0050385594 0.06069515 0.018496394 0.00061605126
-0.08026001 -0.017814532 -0.07052198 -0.06969804 0.0390239 0.07115545 0.07506374 -0.0729104
0.043428905 0.030272648 0.08831861 -0.015947968 0.06647853 0.07516497 -0.076692216 -0.032488022
0.056678243 0.04292638 0.04113888 0.017436065 0.0030262396 0.026339926 -0.083248414 0.011462159
0.01026243 0.07509483 0.06359247 -0.015181243 -0.062235773 0.023918808 -0.052888826 -0.06375386
0.038831644 -0.047715846 0.016051725 -0.028356422 0.018869884 -0.08096665 -0.02236019 -0.016488679
-0.035137333 0.078096546 -0.04316536 -0.07603004 0.068365045 0.079569064 -0.07167442 0.011288315
0.06138622 0.04623156 -0.08464993 0.01814504 0.07798038 -0.0743172 0.02975092 -0.03915243
-0.033432163 0.08005438 -0.030660514 -0.051083244 -0.07026877 0.023438282 -0.029539946 -0.044173628
-0.07233351 0.015185058 -0.04704053 0.03377478 0.033129223 -0.040224362 0.0029974133 -0.043408062
-0.04368758 0.018776096 0.07386639 -0.053386305 0.04061819 0.061565958 -0.085539185 0.07674929
-0.058625907 -0.08560127 -0.08761179 0.035746835 0.08383324 0.03071379 0.07850542 0.028247021
-0.07535464 -0.061551005 0.011757866 0.0442489 -0.050608817 -0.055193383 0.07004207 -0.03655726
-0.038604554 -0.014892422 -0.07545365 0.059622534 0.07767103 -0.05674542 -0.015596844 0.050260566
0.02158767 -0.08244466 -0.08650436 -0.076373376 -0.0030631572 -0.03457095 -0.057718202 -0.06436454
0.046559505 -0.022403792 0.008255579 -0.076449774 0.080918886 0.02933897 -0.043248978 -0.08067993

fc2.bias f4 [128]
00000000: 98f6 ad3d 80d8 4f3b 153a 8b3d 49ad 48bd
00000010: b474 99bd 269b a93c 2f33 96bd 28ff 9bbc
00000020: 3287 3abd e9bb 743d 37b9 723d 44f6 01bc
00000030: 94b1 373d 34f1 a93d f24a 45bd 32ad 1bbb
00000040: 2f06 aabc 5f2d c23a 23b2 a23d 3490 753c
00000050: 98b6 05bc 2c35 62bd f60e b33d df62 b23d
00000060: b496 a23d 08b7 44bc 373d 96bd 686d 98bc
00000070: 4103 9d3d a06e 353d fe1c 803d fe51 d8bc
00000080: f0c1 72bc 49a0 633d 0d77 1b3d 0294 003d
00000090: f956 2bbd ca0a ab3d dcc7 15bd 53a9 a43d
000000a0: 84dd 2abd cd62 aebd a25a 903d 1a85 603d
000000b0: baca 96bd 4a49 a13c 34ba c4bc dd04 afbb
000000c0: 7275 ac3c 4cfa a1bd a7dc 06bd cdc9 9e3c
000000d0: 0fef d73b 89c0 8bbd aac0 31bd 2dbb 273c
000000e0: 26de ae3c be1a 463d 5193 b63d b501 64bd
000000f0: 685f 77bc 62f8 d4bb 80db 0fbd 200c 8d3c
00000100: 8c14 89bc acd5 acbd 73a8 28bd 3a25 02bd
00000110: 39ab 273d 36df 663c 2d73 2dbb 85cb 8cbd
00000120: 807a 5cbc 53a5 91bc 9ef5 9b3d 00d1 933d
00000130: b691 5f3c 00a0 6abb f20d 343d 643c 243d
00000140: b9ba 053c 238d 8a3d 2838 77bd 92bb adbd
00000150: c615 79bd 868c 3a3d b596 2fbb 6ab5 29bd
00000160: 1d74 43bd 073d 823c 90ea eb3c 7dc3 ab3c
00000170: 2c0b 243d 2a20 e13c 0290 0dbd e898 c7bc
00000180: b015 afbd b065 423d 2a2d 80bd 499a a83d
00000190: d113 763d a05b b9bb 53ec aebd 40aa ecb6
000001a0: 72ab 953d 089c 9fbd 8cde f3bc e150 76bc
000001b0: f37d 23bd 21ca 1b3b f61c d0bc 87c2 b23d
000001c0: 6183 cbbc c6b2 95bd f2eb 02bd a298 2bbd
000001d0: cc3f 813b f691 ad3d 48fa 7dbd b11c 803d
000001e0: 9d8a b1bd 6357 863b 7637 9ebd e103 843d
000001f0: d814 66bd 3ba1 f5ba fbd4 6f3c c07d 60bd
0.084943 0.0031714737 0.06798188 -0.048993383 -0.074929625 0.020703863 -0.07333981 -0.019042566
-0.04553909 0.059749518 0.059258666 -0.007932249 0.044847086 0.08297959 -0.048167177 -0.0023754355
-0.020754902 0.0014814547 0.07944133 0.014987994 -0.0081612095 -0.05522649 0.08743088 0.087102644
0.079389006 -0.012006529 -0.073358946 -0.018606856 0.07666636 0.044294953 0.0625553 -0.026406284
-0.014816746 0.05557278 0.037955333 0.03139115 -0.04183099 0.08351667 -0.036567554 0.080401085
-0.04171516 -0.085149385 0.07048537 0.054814436 -0.07362886 0.019688267 -0.02401457 -0.005341156
0.021052096 -0.079090685 -0.032925274 0.019383335 0.0065897773 -0.068238325 -0.04339663 0.010237497
0.021346163 0.048365347 0.08914817 -0.05566569 -0.01509843 -0.006499336 -0.03512144 0.017217696
-0.01673343 -0.08439192 -0.04117627 -0.031773783 0.040934775 0.014091304 -0.0026466355 -0.06874756
-0.013456941 -0.017779028 0.07615207 0.07217598 0.01364558 -0.0035800934 0.04395861 0.040096655
0.008162194 0.06765201 -0.06035629 -0.08483042 -0.06081178 0.04554417 -0.002679271 -0.041432776
-0.047718156 0.01589824 0.028798372 0.02096724 0.040049717 0.027481157 -0.034561165 -0.024364904
-0.085490584 0.047460258 -0.06258614 0.082325526 0.060077492 -0.0056566745 -0.08541169 -7.053168e-06
0.07308091 -0.077934325 -0.029769205 -0.0150339315 -0.039915036 0.0023771601 -0.025404435 0.087285094
-0.02484292 -0.07309489 -0.031963296 -0.04189361 0.0039443728 0.084751055 -0.062006265 0.062554725
-0.086690165 0.004099773 -0.07725422 0.06446052 -0.056172222 -0.0018740067 0.014638181 -0.054807425

fc3.weight f4 [2, 128]
00000000: 2352 703c 4800 4d3c a065 5b3d 9c13 2dbd
00000010: a8fa 1dbc 075e 7fbd 02fd 9bbd dfc5 81bd
00000020: 32d2 743d befb 473d 92e5 abbd 31d2 613d
00000030: ef85 b6bc 873f 883d b690 7e3d 2354 8dbd
00000040: 1e2a adbd f90e 883d 9fbd d63b 7876 85bc
00000050: bccd 74bd 6ced 72bd be6f 07ba 26a7 27bd
00000060: a554 d83c 00f0 8abc 3f7b 89bd d8ca 0b3c
00000070: 07cb 853d ebdf 77bd 1856 6dbc 5c04 89bd
00000080: 76a2 5d3d 0b29 8d3d cbd1 2f3d 0445 bcbb
00000090: 082f 74bc 3a20 cd3c 40d6 f43c 73e6 3dbd
000000a0: 2a3d 4d3d 10d1 a0bc b0e2 ad3d bba7 8dbd
000000b0: 30cb ca3c bc5a 473d b242 3a3d e654 51bd
000000c0: a85f 043d f85d 91bc 78f5 76bd cf24 a7bc
000000d0: 16ab 513d 6029 8ebb 7b85 a03d 2e69 4bbd
000000e0: ad52 033d de41 003d 149e 32bd 6c17 fd3c
000000f0: c04b dfbc 6cec b1bd a402 26bd a971 56bd
00000100: b6bc 283d 701a d9bb 7175 a8bd 9002 303c
00000110: 6708 9d3c 16f3 ae3d 9bfb 98bd 70b5 febb
00000120: e824 0ebc d66a 6d3d c1d9 fabc 80e9 123d
00000130: 3260 98bc 7093 0c3c e3be 933d 54e6 7abd
00000140: 4f16 03bd 988c b6bd d958 853d e02c ca3b
00000150: 9281 323d a14a 0cbc 9e33 053d 801c 5c3b
00000160: 099e 833d 5b63 a43d 5ba6 b23c 3ce2 0b3d
00000170: b74a a9ba 6606 b4bc 1061 d4bc 986d 6ebc
00000180: 80c1 b43a bb2f 9bbd 50e0 8dbd 7a24 483d
00000190: df32 133c 7d1d 863d 5468 14bd 2b72 133d
000001a0: eaef a5bd 0216 8dbd e4cd a63c 7449 f33c
000001b0: 40c7 2e3b cc72 9b3c 3cb4 f23c 4a83 67bd
000001c0: 2243 933d c95f 25bd c9bd 47bd 1def 813d
000001d0: dcf8 9abc 74ef a1bd 8b06 a33d b797 a13d
000001e0: d818 aabd cf69 843d eed9 423d deab a93d
000001f0: a034 9fbc 5c54 9c3d eca4 2bbd 706e 90bd
00000200: 8def afbd e056 33bd 217c a53d 78ef 78bd
00000210: a594 8c3d f3c6 0fbd 1a1a 4a3d f4e1 ffbc
00000220: 9b9f a73d 7ee9 e93c 60f6 97bd 2071 9cbd
00000230: 2fa8 633c 2aab b33d 9fdc 863d 96c5 0b3b
00000240: 5752 2ebd 41f9 823d 6b78 23bd e838 923c
00000250: a1f8 04bd 9294 3a3d d2c9 a9bd 70dc 8d3c
00000260: 7c1d 27bd 76b0 433d 14d3 93bc 8115 a23d
00000270: 855c c6bb 9cf3 823d c730 47bc 880b ca3c
00000280: 3e60 9cbd 1b79 ac3d 7e45 7ebd 2a50 923d
00000290: 33e3 9bbd 7d25 b7bb 6e1e 3a3d ea2c 1bbd
000002a0: 54a1 cb3c 3065 b9bb 3c79 a23d df97 b03d
000002b0: b842 68bd dc16 4dbd dcd6 f33c 66ef 93bd
000002c0: c2fd 80bd e13a 873d acd4 83bd d3f1 84bb
000002d0: a085 9bbd b95a 19bd e929 a43d 93c3 d13c
000002e0: 28e2 7d3d ecd6 24bd 6681 463c 00ce 95bd
000002f0: 8076 893b 83fa b23d 0217 173d 44f3 acbc
00000300: 8c86 64bd 4351 8cbd a0fa 6d3c 3cc3 12bd
00000310: 50d9 eb3c ee33 9cbd 24e5 d53c fd68 45bd
00000320: 40b2 3a3b 3955 afbd caaa 193d d1a2 8cbd
00000330: fbdf 12bd 2b91 a7bd a52d 29bc 0d92 a7bd
00000340: 3f08 0fbd 9c54 0b3d 98d2 86bd 880c aebd
00000350: e068 c03c 5c63 5ebc 6727 ad3d 1c2e 84bc
00000360: 6742 953d aed1 253d e83c 013d 5da4 13bd
00000370: e40f 80bc 8ec2 853d 5081 a0bc 2083 49bb
00000380: 0015 35bb 63a6 f43b a2d8 04bd 8545 193d
00000390: a31d 31bc 16a9 74bd 601d 68bc c7d7 83ba
000003a0: 7aaa a73d b0bd 3f3c d529 abbd 68e4 77bc
000003b0: 7de1 833d d006 e2bc 1a06 473d 7c5d adb9
000003c0: d1ba 82bd d094 debb 96f2 553d 0246 a5bd
000003d0: 3192 8d3d ec9a a33c cbf0 863d d7c4 a73b
000003e0: 7684 773d 529b 9fbd 32d2 aebd 97db 6abd
000003f0: d82b 43bc 911a f8bc dd0c f2bc 3eb4 1abd
0.01466802 0.012512274 0.053563714 -0.04225503 -0.009642281 -0.06234553 -0.07616617 -0.06336569
0.05977077 0.048824064 -0.083933964 0.055132095 -0.022280661 0.06652742 0.062149726 -0.069008134
-0.08455299 0.06643481 0.0065533663 -0.016291842 -0.059766516 -0.059308454 -0.0005166492 -0.04093089
0.02640755 -0.016960144 -0.067129605 0.008532248 0.06532865 -0.06051628 -0.014485858 -0.066902846
0.054110013 0.06892594 0.042924684 -0.005745532 -0.014903791 0.02503978 0.029887319 -0.04636235
0.05010716 -0.019630939 0.08490503 -0.06916758 0.02475509 0.048670515 0.04547376 -0.051106356
0.032317787 -0.017745003 -0.06029269 -0.020403294 0.05118855 -0.0043384284 0.078379594 -0.049660854
0.032061268 0.031312816 -0.043607786 0.030894957 -0.0272578 -0.08687672 -0.040529862 -0.05235449
0.041195594 -0.006625466 -0.08225525 0.010742798 0.019169046 0.08542459 -0.07469865 -0.007773094
-0.008675791 0.057963215 -0.030621411 0.035867214 -0.018600557 0.008580074 0.07214143 -0.061254814
-0.032003697 -0.08913535 0.06511087 0.0061699003 0.0435806 -0.008562715 0.03251993 0.0033586323
0.06426627 0.08026763 0.02180784 0.0341513 -0.0012915944 -0.021975707 -0.02592519 -0.014552496
0.0013790578 -0.07577463 -0.0692755 0.04886291 0.008984297 0.06548593 -0.036232308 0.03599755
-0.081024006 -0.06888963 0.020361848 0.029698111 0.0026669055 0.018975638 0.029626958 -0.05652169
0.07190539 -0.04037455 -0.048764978 0.06344435 -0.018917494 -0.07907 0.07960232 0.078902654
-0.0830552 0.06465494 0.047571115 0.08284734 -0.019434273 0.07633278 -0.04190533 -0.07052314
-0.085906126 -0.043784022 0.08080316 -0.06077525 0.06864289 -0.035101842 0.0493413 -0.031235673
0.08184739 0.02855372 -0.07420039 -0.076387644 0.013895079 0.08772881 0.06585049 0.0021327487
-0.042558994 0.06395198 -0.03990976 0.0178494 -0.032463674 0.045551844 -0.08290447 0.017317027
-0.040799603 0.04777571 -0.018044986 0.07914258 -0.0060535097 0.06394121 -0.0121576255 0.024663702
-0.07635544 0.084215365 -0.06207799 0.07144196 -0.07611694 -0.0055891857 0.045439176 -0.03788463
0.0248572 -0.0056578144 0.0793328 0.08622717 -0.056704253 -0.05007063 0.029765539 -0.07223396
-0.062984005 0.06603027 -0.06437048 -0.004057148 -0.07593846 -0.037440035 0.08015806 0.025605952
0.061983258 -0.040244028 0.012115812 -0.07314682 0.0041950345 0.087391876 0.036887176 -0.021112092
-0.055792376 -0.06851437 0.014525086 -0.03583072 0.028790146 -0.07627092 0.02611024 -0.048195828
0.0028487593 -0.08561177 0.037516393 -0.06866992 -0.035858136 -0.081819855 -0.010325824 -0.08182154
-0.034919973 0.034016237 -0.06583136 -0.08498484 0.023487508 -0.013573494 0.08454781 -0.016135268
0.07288056 0.04048317 0.031552225 -0.03604542 -0.015632577 0.06531249 -0.019592911 -0.0030748323
-0.0027630925 0.007466124 -0.03243316 0.037419815 -0.010810289 -0.059731565 -0.01416716 -0.0010058813
0.08186813 0.01170294 -0.08357588 -0.01513014 0.06439493 -0.02759114 0.048589803 -0.00033066783
-0.06383289 -0.006792642 0.0522333 -0.080699936 0.069126494 0.019971333 0.06588896 0.0051199007
0.06042906 -0.07793297 -0.08536185 -0.057338323 -0.011912309 -0.030286105 -0.02954715 -0.03776955

fc3.bias f4 [2]
00000000: ebf0 803d e648 353d
0.062959515 0.044258974
