checkpoint-episode-600.pth.tar (torch_old, 568610 bytes, 6 tensors)

fc1.weight f4 [128, 976]
0	0xbd3d28ae	-0.046181373
1	0xbd2aa71d	-0.041663278
2	0x3c9cf6fc	0.01916074
3	0xbcdf34cd	-0.027246857
4	0x3aea2d6d	0.0017866321
5	0xbc3a6da2	-0.011378678
6	0x3c09f108	0.008419283
7	0x3c664742	0.014055075
8	0x3d59d636	0.053182803
9	0xbcd77b73	-0.026303982
10	0x3b231499	0.0024884103
11	0x3cdc9237	0.02692519
12	0xbc0b9f44	-0.008521859
13	0xbc6a4f95	-0.0143012
14	0x3ca4f2a8	0.020135239
15	0x3d00bb94	0.03142889
16	0x3d25ff53	0.0405267
17	0x3c2e5680	0.01064074
18	0xbbdf5224	-0.006815212
19	0x3ab1eec5	0.0013575187
20	0x3c457517	0.012051842
21	0xbbf4579a	-0.007456732
22	0xbc72e8d4	-0.014826018
23	0xb85659c2	-5.110517e-05
24	0xbc283548	-0.0102666095
25	0xbc30d1ed	-0.010792238
26	0x3c39606f	0.0113144955
27	0x3cb06fac	0.021537624
28	0xbcb1cf05	-0.02170516
29	0x3cb27fa7	0.021789385
30	0xbd0e76c3	-0.03478123
31	0x3d811846	0.06303458
32	0x3d435718	0.04769048
33	0xbd0a9824	-0.0338365
34	0xbd8d86e4	-0.06910494
35	0x3b9b676e	0.0047425544
36	0xbcb4e05f	-0.022079645
37	0x3d6f517f	0.05842733
38	0xbb68ed6e	-0.003554191
39	0x3c9f301d	0.019432122
40	0xbd049ca6	-0.032375954
41	0x3d661373	0.056170892
42	0x3d0d8993	0.03455503
43	0xbd4dd75c	-0.05025421
44	0xbb7719e8	-0.003770465
45	0xbc999fdf	-0.01875299
46	0xbccdf150	-0.02513948
47	0xbd2df787	-0.04247239
48	0x3cb49db4	0.022047855
49	0x3cef6258	0.029221699
50	0xbd0f551b	-0.034993272
51	0xbcef47d2	-0.029209051
52	0x3cc914fe	0.024546143
53	0x3d7e8f46	0.062148355
54	0x3c2e6bb1	0.010645793
55	0xbcacd577	-0.021097882
56	0xbc94f07c	-0.018181078
57	0x3c934213	0.017975843
58	0xbbe1aaf3	-0.006886834
59	0x3c6f4513	0.014603871
60	0x3bb342e9	0.005470623
61	0x3c40264f	0.0117278835
62	0x3cfa8880	0.030582666
63	0x3d1811a4	0.0371262
64	0xbca191ec	-0.019722901
65	0x3c698d5c	0.014254894
66	0x3c89db05	0.01682807
67	0xbd0ba48e	-0.03409248
68	0x3cce1c82	0.025160078
69	0x3b89e197	0.0042078006
70	0xbce984da	-0.028505731
71	0xbcf57798	-0.029964253
72	0xbd5798b1	-0.052635852
73	0x3d104e4b	0.035230916
74	0x3d001672	0.031271406
75	0xbd6bb520	-0.05754578
76	0xbc4059d1	-0.011740164
77	0x3ce96110	0.028488666
78	0xbd3fccb5	-0.046826083
79	0x3c87ddaf	0.0165852
80	0xbc8de157	-0.017319364
81	0x3c78ba48	0.015181132
82	0x3d022840	0.031776667
83	0xbaf6df07	-0.0018834778
84	0xbd13d567	-0.03609219
85	0xbc8822c4	-0.01661814
86	0xbc64c232	-0.013962315
87	0xbc094179	-0.008377426
88	0x3cb2c2ad	0.021821344
89	0x3c0ff697	0.008786819
90	0x3d25bd60	0.040463805
91	0x3cfd1ea7	0.030898405
92	0xbb761427	-0.0037548633
93	0xbc627dd3	-0.013823944
94	0x3aa7fb33	0.0012815952
95	0x3cd60548	0.026125565
96	0x3c3e6cd6	0.011622628
97	0xbc94e0ea	-0.018173654
98	0xbccddb96	-0.02512912
99	0x3d20be82	0.039244182
100	0x3d0c30a3	0.03422607
101	0xbb96a119	-0.004596841
102	0x3b189dd5	0.0023287435
103	0x3bbe6797	0.0058106887
104	0xbd243713	-0.040091585
105	0xbcaa6e27	-0.020804478
106	0xb9836ae0	-0.00025065895
107	0xbd44de7d	-0.048063744
108	0x3d0b4ec7	0.034010675
109	0xbc9b89bb	-0.018986573
110	0xbc88d05f	-0.016700922
111	0xbc1e7577	-0.0096715605
112	0xbb80dcc9	-0.0039325696
113	0xbd4a6cec	-0.049420282
114	0xbca29275	-0.019845227
115	0x3c4b8664	0.012422178
116	0xbcb7c19b	-0.022431185
117	0x3c7802f6	0.015137425
118	0xbc3594c6	-0.011082834
119	0x3d195a09	0.03743938
120	0x3cb842f4	0.022492863
121	0x3cbe07e8	0.02319713
122	0x3d2864a0	0.04111159
123	0x3d6bd45a	0.05757556
124	0xbb6279fb	-0.003455757
125	0x3ca4e1dc	0.02012723
126	0xbbe4bbd5	-0.006980399
127	0xbba7a9cf	-0.0051166783
128	0x3d833d55	0.064081825
129	0xba603a8d	-0.00085536466
130	0x3d007d23	0.03136934
131	0x3b0dcf2e	0.0021638381
132	0xbc349b2b	-0.011023323
133	0x3ba33e9c	0.004981829
134	0x3d5d1f09	0.053984676
135	0x3ccc3812	0.02492908
136	0x3cc3605e	0.023849662
137	0x3d09521e	0.03352558
138	0x3d0a8117	0.033814516
139	0xbb084ac7	-0.0020796524
140	0xbcf05f8e	-0.029342439
141	0xbcb8463d	-0.02249443
142	0x3aaf1067	0.0013356329
143	0x3d3e8d80	0.046521664
144	0x3cce9240	0.025216222
145	0x3ba2cc0a	0.004968171
146	0xbd2f6155	-0.042817432
147	0xbd421de9	-0.047391806
148	0x3b301931	0.0026870484
149	0xbc09c067	-0.008407689
150	0x3d1d5367	0.038409617
151	0xbc39194b	-0.011297534
152	0x3b635838	0.0034690034
153	0xbaad63c5	-0.0013228586
154	0x3b515baf	0.0031945517
155	0x3cc36aac	0.023854576
156	0xbc5ffff8	-0.013671868
157	0xbc17fd0c	-0.00927664
158	0xbd2943de	-0.04132449
159	0x3d854a32	0.06508292
160	0x3d3b6e66	0.04575958
161	0xbc2607e5	-0.010133718
162	0x3d47f0fd	0.04881381
163	0xbb964674	-0.0045860354
164	0xbce80042	-0.028320435
165	0x3d27acde	0.040936343
166	0xbadf4ade	-0.0017035862
167	0x3c66f337	0.014096073
168	0xba8ac7c3	-0.0010588098
169	0xbc38f9ab	-0.011289994
170	0xb98e20f8	-0.00027108914
171	0xb96397b5	-0.00021704922
172	0xbcdce880	-0.026966333
173	0xbca09e6b	-0.01960679
174	0x3d25f573	0.04051728
175	0xbcce5d38	-0.025190935
176	0xbb59321e	-0.0033141444
177	0xbca7ac85	-0.020468006
178	0xbc15fe11	-0.009154812
179	0x3c4860b7	0.01223009
180	0xbcbb2067	-0.0228426
181	0x3c79d90d	0.015249503
182	0x3cc9f391	0.024652274
183	0xbbc7dcc5	-0.006099316
184	0xbd4ab672	-0.0494904
185	0xbcb5bc9c	-0.022184663
186	0x3cbfd7c5	0.023418317
187	0xbd21945b	-0.039448123
188	0x3bc09cff	0.0058780904
189	0xbd0c939a	-0.03432045
190	0x3d12c47f	0.035831925
191	0x3d2aaa29	0.041666184
192	0x3cc30045	0.02380384
193	0xbd13bdb4	-0.036069587
194	0x3ce36880	0.02775979
195	0xbcf5354e	-0.029932644
196	0xbc03d5c5	-0.008046572
197	0x3c283de1	0.010268659
198	0x3c389705	0.011266475
199	0xbb1d2647	-0.0023979114
200	0xbcc584c6	-0.024111163
201	0x3c8d1932	0.017223928
202	0xbd1dd989	-0.038537536
203	0xbcb71570	-0.02234909
204	0x3caaaa24	0.020833082
205	0x3c7fdfae	0.015617294
206	0xbc82cc5a	-0.015966583
207	0xbc8e8ea1	-0.017401995
208	0x3c68bdfc	0.014205452
209	0xbb4b4dd4	-0.003102173
210	0x3ca80c73	0.020513749
211	0xbbc90c96	-0.0061355336
212	0xbbb33995	-0.005469511
213	0x3c4a89e2	0.012361975
214	0x3b8340f5	0.004005546
215	0x3c584d38	0.013202004
216	0x3c878676	0.016543608
217	0xbc4dacad	-0.012553376
218	0x3ca48b88	0.020086065
219	0x3cba0ae2	0.022710267
220	0x3c54d11d	0.01298931
221	0xbd20bd86	-0.039243244
222	0x3c93bdf1	0.018034907
223	0x3c19207e	0.009346126
224	0xbc282cf9	-0.010264629
225	0x3d7c262a	0.061559834
226	0x3c1180cc	0.008880805
227	0x3d4d140c	0.050067946
228	0xbbf4ac31	-0.007466816
229	0xbb9c8901	-0.0047770743
230	0x3cb59b9f	0.022168932
231	0xbc8f365c	-0.017481975
232	0x3c831cb0	0.01600489
233	0xbd3f330c	-0.04667954
234	0xbd038eb4	-0.032118514
235	0x3ce280b9	0.02764927
236	0x3b3393de	0.0027401368
237	0x3d063e3a	0.032774188
238	0xbd29657d	-0.041356552
239	0xbd193fec	-0.037414476
240	0x3d10e509	0.035374675
241	0xbc4497af	-0.011999055
242	0xbd07f4be	-0.03319239
243	0x3c653977	0.0139907515
244	0xbca25cff	-0.019819735
245	0x3cc8d402	0.024515156
246	0x3bc8a5fc	0.0061233025
247	0xbb83aff6	-0.004018779
248	0x3ca58dac	0.020209156
249	0x3b7ff174	0.003905383
250	0x3cd6023f	0.026124118
251	0x3cd6a826	0.026203226
252	0x3cf2f68a	0.029658575
253	0xbd5a4e61	-0.053297404
254	0xbbe5955d	-0.007006331
255	0x3ca398f9	0.019970404

fc1.bias f4 [128]
0	0xbcf3c70c	-0.029757999
1	0x3c9a6068	0.018844798
2	0xbc1d1e03	-0.009589675
3	0xba5c923d	-0.0008414125
4	0xbc026c27	-0.007960356
5	0xb77334b0	-1.4496196e-05
6	0xbc835ca2	-0.016035382
7	0xbc909ec4	-0.01765383
8	0x3c692cfe	0.014231918
9	0xba39714e	-0.00070740737
10	0xbbcc9deb	-0.006244411
11	0x3c0e045a	0.00866803
12	0x3ce38976	0.027775507
13	0x3aae4cec	0.0013298071
14	0xbb9b6c48	-0.0047431327
15	0xbc0c25fa	-0.008553976
16	0x3a9ad8cc	0.0011813878
17	0x3ce592a0	0.028024018
18	0x3b62b805	0.0034594547
19	0xbca13a3c	-0.019681089
20	0x3c672ca5	0.014109765
21	0xbcf702b7	-0.030152662
22	0x3996841f	0.00028708667
23	0xbbc6a638	-0.0060622953
24	0xbc421f04	-0.011848215
25	0x3d1704c6	0.036869787
26	0x3cbd735d	0.023126299
27	0xbc178b51	-0.009249524
28	0x3b375530	0.002797436
29	0x3d04fcf2	0.03246779
30	0x3ae97027	0.0017809913
31	0x3ca34f13	0.019935166
32	0xbc511973	-0.012762415
33	0x3cb414f4	0.021982647
34	0x3c15bfff	0.009140014
35	0xbb001814	-0.0019545602
36	0x3bf30955	0.007416884
37	0x3c69ebfd	0.014277455
38	0x3c2da22d	0.010597748
39	0x3c80cb73	0.015722012
40	0x3c2388fc	0.00998139
41	0xbc726db0	-0.014796659
42	0xbcaab383	-0.020837551
43	0xbbdc792e	-0.006728313
44	0x3c0dbccd	0.008650971
45	0xbca80710	-0.02051118
46	0x3c9018f3	0.017590022
47	0x3ce22237	0.027604206
48	0xbcfd6213	-0.030930554
49	0x3bd56a00	0.0065128803
50	0x3c9ec983	0.019383198
51	0x3b126979	0.0022340699
52	0xbcb2f949	-0.021847384
53	0x3c0f47c3	0.008745137
54	0xbb222ea9	-0.002474705
55	0xbcbebf63	-0.02328462
56	0x3ae2ca49	0.0017302717
57	0x3c733e52	0.014846401
58	0xbcf4a2dc	-0.029862814
59	0xbd47daee	-0.048792772
60	0x3b4848b1	0.0030560906
61	0x3b4cb675	0.0031236683
62	0x3b3c1a1e	0.002870209
63	0x3c31b87a	0.010847205
64	0x3bcd4f01	0.0062655215
65	0xbbf56f8a	-0.007490103
66	0x3a964099	0.0011463343
67	0x3b8e4c44	0.0043425877
68	0x3cc581d1	0.024109753
69	0xbbcae5cd	-0.006191945
70	0x3b81d2c2	0.003961892
71	0x3d1777b3	0.03697939
72	0xbcb11f57	-0.02162139
73	0xbc59fb9e	-0.013304619
74	0xbc0565ad	-0.008141917
75	0xbb78780c	-0.003791335
76	0xbb25c7c3	-0.002529607
77	0xbb13fddf	-0.002258174
78	0x3bcfda7e	0.006343185
79	0x3c54050f	0.012940659
80	0x3d13db6f	0.03609794
81	0x3b74baa4	0.0037342692
82	0xbcfd950b	-0.030954858
83	0x3bc4fa56	0.0060112877
84	0xbba86e47	-0.005140099
85	0xbc208812	-0.009798067
86	0xbbd445f5	-0.006478066
87	0xbb5d1356	-0.003373345
88	0xbc3361e2	-0.01094863
89	0xbcdbae90	-0.026816636
90	0xbc46e71f	-0.0121400645
91	0x3c58b208	0.01322604
92	0xbb1e31f5	-0.0024138663
93	0x3b74d48b	0.003735813
94	0x39c8b7f3	0.00038284026
95	0x3ca8f2ce	0.02062359
96	0x3ad4ed7e	0.0016245095
97	0x3a387f64	0.00070380257
98	0x3cea98af	0.028637258
99	0x3bc31f97	0.0059546935
100	0xbc8665ba	-0.016405929
101	0x3c46e17d	0.0121387215
102	0xbb219a90	-0.0024658777
103	0x3c9de927	0.019276215
104	0xba8b31f9	-0.0010619751
105	0x3bc2bc09	0.0059428257
106	0x3d2aad24	0.041669026
107	0xbbb0c0e8	-0.00539409
108	0xbcc3e4a3	-0.023912733
109	0xbb798358	-0.0038072672
110	0x3c6ccf3c	0.014453705
111	0xbc810f9f	-0.015754519
112	0x3c2011cf	0.009769871
113	0x3bbdbcfb	0.0057903505
114	0x3c12c4ce	0.008958055
115	0x3cff9641	0.031199576
116	0x3b53ebb0	0.0032336526
117	0xba8debe0	-0.0010827743
118	0x3c686370	0.014183864
119	0x3c277a9c	0.010222103
120	0xbab45d3f	-0.00137607
121	0x3cfa1d70	0.030531615
122	0xbb58b64a	-0.0033067637
123	0x3b32ecec	0.002730186
124	0x3b8a22cf	0.0042155753
125	0x3c307426	0.010769879
126	0x3c83bf1b	0.016082337
127	0xbcec89b7	-0.028874261

fc2.weight f4 [128, 128]
0	0x3db4e346	0.088324115
1	0x3cbf2fae	0.023338165
2	0x3e0079e0	0.12546492
3	0x3d526718	0.05136785
4	0x3d0812be	0.033221
5	0x3d9a0d1e	0.07522033
6	0xbd39af31	-0.04533309
7	0x3db53a3c	0.08848998
8	0xbd89836f	-0.06714522
9	0x3d852199	0.06500549
10	0x3d825a30	0.06364858
11	0x3d7a7423	0.061145913
12	0x3e05efba	0.1307973
13	0x3dba9c8d	0.09111891
14	0x3d188a10	0.03724104
15	0xbd7d497d	-0.061837662
16	0x3c97f646	0.01855005
17	0xbd3a7e9e	-0.045530908
18	0x3cfc7673	0.0308182
19	0xbb34361e	-0.0027498077
20	0x3d555e45	0.052091856
21	0xbd82262e	-0.063549384
22	0xbd9e819a	-0.07739563
23	0x3cd3e92d	0.025868023
24	0xbd250632	-0.04028911
25	0x3dd180b4	0.10229626
26	0x3d929b36	0.071585104
27	0xbcf49382	-0.029855493
28	0x3da618b0	0.081101775
29	0x3d14e438	0.03635046
30	0x3d7b3caa	0.06133715
31	0xbd9b2cc1	-0.075768955
32	0x3b809e23	0.0039251014
33	0x3df35d4d	0.1188303
34	0x3c15d4fa	0.009145016
35	0x3c97ea46	0.018544327
36	0xbd3d2497	-0.046177473
37	0x3d889cd8	0.066705406
38	0xbd46cc15	-0.04853447
39	0x3d14efe0	0.036361575
40	0x3ca76e03	0.0204382
41	0xbcdbf012	-0.026847873
42	0x3b8aae82	0.0042322287
43	0xb93296f4	-0.00017031637
44	0x3b53745d	0.0032265403
45	0xbd991fff	-0.07476806
46	0xbaafd7f8	-0.0013415804
47	0xbcc74eb7	-0.024329526
48	0xbda7af70	-0.08187759
49	0x3dc194dc	0.09452221
50	0x3b7ee98e	0.0038896534
51	0xbbd93784	-0.0066289324
52	0xbd8a41bf	-0.06750821
53	0x3d5cda5f	0.053919192
54	0x3cc4c05c	0.024017505
55	0x3cabe2e9	0.020982223
56	0x3cb3ced4	0.02194921
57	0x3d5a0d44	0.053235307
58	0xbb9382b2	-0.004501664
59	0x3c87bf13	0.016570603
60	0x3d3b63ad	0.045749355
61	0x3c44b860	0.012006849
62	0x3c3e263f	0.011605798
63	0x3db119fc	0.08647534
64	0x3d3166c0	0.04331088
65	0xbd313739	-0.043265555
66	0xbd52f01d	-0.05149852
67	0x3dab83a8	0.08374721
68	0x3dd6184f	0.10453855
69	0x3d3d6710	0.046240866
70	0x3d8d90e2	0.069124
71	0x3dc9364f	0.09824812
72	0x3ca0ce2f	0.019629566
73	0x3de127af	0.10993897
74	0xbc99dbbd	-0.018781537
75	0xbd4269e5	-0.04746427
76	0x3d118d8d	0.035535384
77	0xbd94617c	-0.07245156
78	0x3d89ec4d	0.06734524
79	0xbcbe636e	-0.023240771
80	0x3d2db438	0.042408198
81	0x3cca01a0	0.024658978
82	0x3c912fb4	0.017722942
83	0x3cc60fcf	0.02417746
84	0x3de8d47c	0.11368653
85	0x3e011560	0.1260581
86	0x3de71232	0.11282767
87	0xbce1f8ca	-0.027584452
88	0xbd99115a	-0.07474013
89	0x3dacd4c8	0.08439022
90	0x3d6756da	0.056479312
91	0x3d9b8838	0.07594341
92	0xbd40daf4	-0.04708381
93	0xbcf2e7fc	-0.029651634
94	0xbc81dc56	-0.015852135
95	0xbd854ea8	-0.06509143
96	0xbd2661a6	-0.04062047
97	0x3c737860	0.014860243
98	0xbc15dc2d	-0.009146732
99	0xbc8b65d1	-0.017016323
100	0xbd1a0bd2	-0.03760893
101	0x3c035857	0.008016667
102	0x3c1b6ffa	0.0094871465
103	0x3d820577	0.063486986
104	0x3dc274a7	0.09494906
105	0x3c9c1bdf	0.019056259
106	0xbd4680c5	-0.048462648
107	0x3d96ee5f	0.073696844
108	0x3cf99e8c	0.030471109
109	0x3dbfd1f8	0.0936622
110	0x3c7807a6	0.015138542
111	0x3bb743d5	0.005592803
112	0xbc130b12	-0.008974807
113	0xbd29dcad	-0.04147022
114	0xbcad2936	-0.021137815
115	0x3b11ea6f	0.0022264977
116	0x3cf5c2ee	0.030000176
117	0x3d16d707	0.03682616
118	0x3c82a24f	0.015946535
119	0x3cdf071b	0.027225068
120	0xbb646133	-0.0034847974
121	0x3d4e10dd	0.05030905
122	0xbd989121	-0.07449556
123	0x3c34ab8d	0.011027229
124	0x3ba47481	0.005018771
125	0xbc32bf86	-0.010909921
126	0x3cb6621e	0.022263583
127	0xbda1426e	-0.078739986
128	0xbd329c5d	-0.04360615
129	0xbcf0529b	-0.029336264
130	0xbda0510d	-0.07827959
131	0x3d58aaa2	0.052897103
132	0x3cf31497	0.029672904
133	0x3dac6d98	0.08419341
134	0xbdc26a7d	-0.09492967
135	0x3d2f9625	0.0428678
136	0xbd5194ec	-0.051167414
137	0x3d144d35	0.036206443
138	0x3ca213dd	0.019784862
139	0x3beec706	0.007286909
140	0xbd7084fd	-0.058720578
141	0xbca06663	-0.019580072
142	0xbd942b1a	-0.072347835
143	0xbd9d5ebe	-0.07684086
144	0xbc10eaff	-0.00884509
145	0x3c9dd5f3	0.019267058
146	0x3daf9863	0.08573987
147	0xbd9349de	-0.071918234
148	0xbc588206	-0.013214594
149	0xbdc87f2b	-0.0978988
150	0xbc3f63f2	-0.011681544
151	0xbd1f28ad	-0.03885715
152	0x3d812b7c	0.06307122
153	0x3c962f03	0.018332964
154	0xbcae3113	-0.021263635
155	0x3c8d9fb7	0.017288072
156	0xbd2c521f	-0.042070504
157	0xbcb0bb57	-0.021573706
158	0xbc0fb262	-0.008770557
159	0xbc01f358	-0.007931553
160	0x3bbef780	0.005827844
161	0x3d743119	0.059617136
162	0x3bb8c7da	0.0056390585
163	0xbc3e1fd7	-0.011604271
164	0x3c617dbd	0.0137628885
165	0x3d4bd959	0.049767826
166	0x3d7b9dd8	0.06142983
167	0xbbbd7b92	-0.005782553
168	0x3d29f06a	0.041489042
169	0xbcf26fe2	-0.029594366
170	0xb87e7a27	-6.0672082e-05
171	0xbd9fc3f5	-0.07801048
172	0x3d227962	0.03966654
173	0xbc82ebb5	-0.015981534
174	0xbd70655f	-0.058690425
175	0xbd4b8492	-0.049686976
176	0xbd658ee2	-0.056044467
177	0x3d0e915b	0.03480659
178	0xbcd2d92e	-0.025738325
179	0x3d33d31f	0.043902513
180	0x3d46f044	0.04856898
181	0xbd95c9ed	-0.07313905
182	0xbd34b023	-0.04411329
183	0x3cf9d9f8	0.030499443
184	0xbd456df3	-0.04820056
185	0xbd3c9a60	-0.04604566
186	0xbcc11a81	-0.023572208
187	0x3aef4a4c	0.0018256395
188	0x3d2ab5ce	0.04167729
189	0x3c2dc64c	0.01060636
190	0xbc418279	-0.011810892
191	0x3d9ddc80	0.07708073
192	0xbd89f919	-0.06736965
193	0xbd71f006	-0.059066795
194	0x3d8b1738	0.06791538
195	0x3d347a26	0.044061802
196	0xbd36ab9f	-0.044597264
197	0xbc129bf9	-0.00894832
198	0xbd47abd6	-0.04874786
199	0x3db47205	0.0881081
200	0xbd0c14a8	-0.034199387
201	0x3d820ab3	0.06349697
202	0x3c76cd38	0.015063576
203	0xbdb7a6f7	-0.08967393
204	0xbc0d556d	-0.008626324
205	0xbb97f105	-0.004636886
206	0xbd985950	-0.0743891
207	0xbd30571d	-0.043051828
208	0x3ba54598	0.0050436966
209	0xbd0bd5dd	-0.034139503
210	0x3c47f92d	0.012205404
211	0x3cf93f29	0.030425625
212	0x3d1bde69	0.038053904
213	0xbd8f254f	-0.06989538
214	0x3da5cfaa	0.080962494
215	0xbd83d7ce	-0.06437646
216	0x3d36a937	0.04459497
217	0xbd31aa27	-0.04337516
218	0xbd95dbcc	-0.073173136
219	0x3d21277d	0.0393443
220	0xbd81b006	-0.06332402
221	0x3d4fb932	0.050713725
222	0xbbd7cf68	-0.006586004
223	0x3c7639b4	0.015028406
224	0x3d962ec6	0.0733314
225	0x3b601743	0.0034193553
226	0x3d6f6c98	0.058453172
227	0xbd2b429b	-0.041811567
228	0x3cb940f1	0.022613974
229	0x3cf3a5ec	0.029742204
230	0xbc8f3fc1	-0.017486455
231	0xbdcacd7e	-0.09902476
232	0xbdc1f3a8	-0.09470302
233	0x3cb34635	0.021884063
234	0x3da423e6	0.080146596
235	0xbd9c5be1	-0.07634712
236	0xbc312f46	-0.0108144935
237	0xbd3539b7	-0.044244494
238	0xbd4b07db	-0.04956804
239	0x3d40f4cd	0.04710846
240	0x3c2cfb2f	0.010557934
241	0x3d5e31ea	0.05424682
242	0x3c3284aa	0.010895887
243	0xbc7bd076	-0.015369525
244	0xbda1ead9	-0.07906122
245	0x3d9bd330	0.0760864
246	0xbd5d1112	-0.053971358
247	0xbdb9c0f1	-0.09070004
248	0x3d9fdc47	0.078056864
249	0x3d5c066b	0.05371706
250	0xbd0acaea	-0.03388492
251	0xbcb24eeb	-0.021766147
252	0x3d0ae4ed	0.033909727
253	0xbc86d20e	-0.016457584
254	0xbd9246d9	-0.07142419
255	0xbd345a79	-0.044031594

fc2.bias f4 [128]
0	0xbd30a779	-0.043128464
1	0xbd4cf5a2	-0.05003894
2	0xbd35aa28	-0.044351727
3	0x3cc20793	0.023685252
4	0xbcefe3b3	-0.02928338
5	0xbc16e6ad	-0.009210271
6	0x3d7c42c9	0.06158713
7	0xbdb84f52	-0.08999504
8	0x3d908003	0.07055666
9	0xbad041fc	-0.0015888806
10	0x381a0c62	3.6727994e-05
11	0xbc2ed7eb	-0.010671596
12	0xbd3dc4de	-0.046330325
13	0xbd365c86	-0.04452183
14	0x3c167bb5	0.0091847675
15	0x3d0c8ca5	0.034313817
16	0xbb5553af	-0.00325511
17	0xbd19a36b	-0.037509363
18	0xbd6fe11a	-0.058564283
19	0x3d3832fd	0.0449705
20	0x3d9deb44	0.07710889
21	0xbcd9f8a9	-0.026607828
22	0x3d6657cb	0.05623607
23	0x3cbb621f	0.022873936
24	0xbccebdc6	-0.025236975
25	0xbd30e767	-0.043189432
26	0xbcfbcafd	-0.03073644
27	0x3cca9e5a	0.024733711
28	0x3d24692b	0.04013936
29	0xbd6080d4	-0.05481036
30	0x3cafde2f	0.02146825
31	0x3bf9739e	0.0076126596
32	0x3b4e4641	0.003147498
33	0x3c31f519	0.0108616585
34	0x3d413380	0.047168255
35	0xbd0b08a3	-0.033943783
36	0x3da70cc3	0.08156731
37	0xbd647905	-0.055779476
38	0xbd8eb9e6	-0.06969051
39	0x3cc62a06	0.02418996
40	0x3c475cb8	0.012168102
41	0x3ca998dd	0.020702774
42	0xbda19d7b	-0.07891365
43	0x3c81d8ab	0.015850386
44	0x3d381458	0.044941276
45	0x3dcc5d46	0.09978728
46	0xbce15fa1	-0.02751142
47	0x3ba879c8	0.0051414706
48	0x3cef5f80	0.029220343
49	0xbce62f85	-0.028098831
50	0x3c0a1059	0.008426749
51	0xbb848c3e	-0.0040450385
52	0x3c0bae26	0.008525407
53	0xbd6e059d	-0.058110822
54	0xbd8b6c31	-0.06807745
55	0xbd4c78bf	-0.04991984
56	0x3d431a82	0.0476327
57	0xbd517131	-0.05113334
58	0x3d377b7b	0.044795495
59	0x3d6d0d6b	0.057874124
60	0xbdc274c6	-0.09494929
61	0xbc9fb501	-0.01949549
62	0x3c55d4b1	0.013051198
63	0x3bf48573	0.0074621974
64	0xbdb98fe9	-0.09060652
65	0x3d7072d9	0.058703277
66	0x3c1c6c35	0.009547283
67	0x3c109988	0.008825667
68	0xbc5f31e4	-0.013622735
69	0xbda32661	-0.079663046
70	0xbd66536f	-0.056231912
71	0xbcc1fa69	-0.023678975
72	0x3d8c2a7c	0.06844041
73	0x3c3c947a	0.011510009
74	0xbc5af154	-0.013363201
75	0x3c54c3a0	0.012986094
76	0xbd80599e	-0.06267093
77	0x3d253592	0.04033429
78	0x3c84a803	0.016193395
79	0x3d231d3f	0.039822813
80	0xbddeff8d	-0.10888586
81	0x3da342a6	0.079716966
82	0x3dad23aa	0.08454068
83	0xbcb8ebc2	-0.022573356
84	0x3d03019e	0.031983964
85	0x3cd3dcab	0.025862059
86	0x3d123fff	0.035705563
87	0x3b8e427c	0.0043414216
88	0x3d9e4bb5	0.07729284
89	0xbdbc216a	-0.09186061
90	0x3b80bbc7	0.003928635
91	0xbdb25dfc	-0.08709332
92	0xbd64130d	-0.05568223
93	0xbd9570f9	-0.072969384
94	0x3c6d12ee	0.014469845
95	0x3d0c5985	0.03426506
96	0x3d80c47d	0.06287477
97	0xbd09ab60	-0.0336107
98	0xbd1ae41f	-0.03781521
99	0xbd3483a7	-0.044070866
100	0xbd2c897f	-0.042123314
101	0xbdab6a5e	-0.08369897
102	0x3d9121d1	0.07086528
103	0x3c85bd50	0.016325623
104	0xbbdf34e9	-0.0068117273
105	0xbd019605	-0.03163721
106	0xbcba26f6	-0.022723656
107	0xbc85ab01	-0.016316893
108	0x3d4d6f83	0.050155174
109	0xbc532f77	-0.0128897345
110	0x3c3a871d	0.011384753
111	0x3c516e3f	0.012782632
112	0xbd3aa733	-0.04556961
113	0xbd46d36a	-0.048541464
114	0xbd84b928	-0.06480628
115	0x3c9f445b	0.019441774
116	0xbc0d0f3f	-0.008609592
117	0xbce5343c	-0.027979009
118	0x3d29aaaf	0.041422542
119	0x3b96fb93	0.0046076267
120	0x3d426625	0.047460694
121	0xbda4f564	-0.08054617
122	0x3c6c91f5	0.014439096
123	0xbd48c52e	-0.04901617
124	0xbd5dc1f4	-0.054140046
125	0xbc6c4e0d	-0.014422906
126	0xbd835a92	-0.06413759
127	0x3c8421d5	0.016129414

fc3.weight f4 [2, 128]
0	0xbd2d9341	-0.04237676
1	0x3cd71010	0.026252776
2	0x3c9a7f69	0.018859582
3	0xbd00f49f	-0.03148329
4	0x3d386a62	0.04502333
5	0x3c72aa41	0.0148110995
6	0x3beb547a	0.0071817013
7	0xbdae9a0f	-0.08525478
8	0x3d78ed4e	0.060773186
9	0xbdd9d355	-0.106360115
10	0xbd911738	-0.07084507
11	0xbc9d7c16	-0.019224208
12	0xbd6032d1	-0.054735962
13	0xbd617bca	-0.055049695
14	0xbcb4a092	-0.022049222
15	0xbdcf5e13	-0.10125365
16	0x3b508d18	0.003182238
17	0x3daafa78	0.083485544
18	0xbdb44e31	-0.08803976
19	0x3d96a837	0.07356303
20	0x3db89deb	0.090144955
21	0x3d84e273	0.06488504
22	0xbdae4b66	-0.08510475
23	0x3d633145	0.05546691
24	0x3d33d8ff	0.043908115
25	0x3d9e9387	0.07742982
26	0xbd8e18e8	-0.06938344
27	0xbd82da10	-0.06389248
28	0xbd7aa929	-0.06119648
29	0x3be8ef30	0.0071085915
30	0xbdcd2062	-0.10015942
31	0x3d30c776	0.04315897
32	0xbdcc7979	-0.099841066
33	0x3d819801	0.063278206
34	0xbc2e2624	-0.010629211
35	0x3b9d8bac	0.00480791
36	0xbd3935f3	-0.045217466
37	0xbd10f176	-0.035386525
38	0x3ca89181	0.020577194
39	0x3b15c607	0.002285363
40	0x3d2f1e06	0.042753242
41	0xbccc9f34	-0.024978258
42	0xbd816a69	-0.06319124
43	0xbbd4317d	-0.006475626
44	0xbcd370a7	-0.025810553
45	0xbcf073ce	-0.029352095
46	0x3d1d1e17	0.038358774
47	0x3cfade8f	0.030623702
48	0xbd950a08	-0.07277304
49	0xbda48d2b	-0.08034738
50	0x3d0adc09	0.033901248
51	0xbbf3a71c	-0.0074356925
52	0x3ce214c8	0.0275978
53	0x3dab8c91	0.0837642
54	0xbda0b744	-0.07847455
55	0xbbd08b2e	-0.0063642478
56	0x3d116fb2	0.03550691
57	0xbd2f796b	-0.042840403
58	0xbc0c2b06	-0.008555179
59	0x3d80b482	0.06284429
60	0xbd846452	-0.06464447
61	0x3cf84620	0.030306876
62	0xbd29b2a8	-0.041430146
63	0xbbcd6310	-0.0062679127
64	0x3d649f67	0.05581608
65	0x3d4b9ac4	0.049708143
66	0xbccc580e	-0.024944331
67	0xbda5c8a2	-0.08094908
68	0xbd07f15a	-0.033189155
69	0xbd3b8364	-0.0457796
70	0xbbe76ada	-0.0070622982
71	0x3db3cdc5	0.08779482
72	0xbd9203b0	-0.071296096
73	0xbdcdaf24	-0.10043171
74	0xbbc50887	-0.0060129794
75	0xbd4272ed	-0.047472883
76	0xbd0f1f46	-0.034941934
77	0xbd929440	-0.07157183
78	0x3d0729c3	0.03299881
79	0xbd5b44ef	-0.053532537
80	0xbd80a9b9	-0.06282372
81	0xbd742880	-0.059608936
82	0x3dae18c9	0.08500821
83	0xbd68ead9	-0.056864593
84	0xbcbb075f	-0.022830663
85	0x3d57c787	0.05268052
86	0xbdc6dfa3	-0.09710624
87	0x3d19be6c	0.037535116
88	0xbdba82ba	-0.09106965
89	0xbd440c9a	-0.04786358
90	0x3d64dd44	0.055875078
91	0xbbcb73d0	-0.0062088743
92	0xbcd93694	-0.026515283
93	0x3b70b220	0.0036727265
94	0x3d006ce7	0.031353857
95	0x3d8963fc	0.06708524
96	0xbdbb0145	-0.091311015
97	0xbcb5693c	-0.022144906
98	0xbdd020b4	-0.101624876
99	0x3d1431f6	0.03618046
100	0xba1943f8	-0.0005846615
101	0x3d31a15c	0.043366775
102	0xbd1a1231	-0.037615005
103	0xbdb841bc	-0.08996913
104	0xbd52e79d	-0.051490415
105	0x3d8eedd6	0.06978957
106	0x3b16afd5	0.0022992988
107	0x3d58372a	0.052786984
108	0xbdb1ce9a	-0.08681984
109	0xbda17379	-0.07883353
110	0xbd902fbc	-0.070403546
111	0xbdddd0c4	-0.108308345
112	0x3dfcf74c	0.12351856
113	0x3d94ff1d	0.072752215
114	0x3c93653c	0.017992608
115	0x3c1574f7	0.009122125
116	0x3d074746	0.033026956
117	0xbdaa0c88	-0.083031714
118	0xbdb565fa	-0.08857341
119	0x3d5b3397	0.053515997
120	0xbdc42b27	-0.09578543
121	0x3da36f0b	0.07980164
122	0x3d27b492	0.04094369
123	0x3b9f868f	0.0048683356
124	0xbc283130	-0.010265633
125	0x3b22acee	0.0024822312
126	0xbba60401	-0.0050663953
127	0x3d76ae1c	0.060224637
128	0xbd2efb1d	-0.04271995
129	0xbda4e768	-0.0805195
130	0x3d78e313	0.06076343
131	0x3cd993d3	0.026559746
132	0x3d1464c4	0.03622891
133	0xbd98dafc	-0.07463643
134	0xbcfe416c	-0.031037055
135	0xbd56feea	-0.0524892
136	0xbdaa2e0f	-0.08309566
137	0xbde2bbdc	-0.110709876
138	0xbc5f9100	-0.013645411
139	0x3c429312	0.011875885
140	0xbd7efac0	-0.062250853
141	0xbd4a9604	-0.049459472
142	0xbde2243d	-0.11042068
143	0x3d76c362	0.060244925
144	0xbd5ecf22	-0.054396756
145	0xbd8a8eb0	-0.06765497
146	0xbcf289ce	-0.029606726
147	0xbbc9dd3d	-0.006160407
148	0x3d8135d5	0.06309096
149	0x3dfe2a43	0.124104045
150	0x3c57fac8	0.0131823495
151	0x3d20f13c	0.03929256
152	0xbdc728e3	-0.097245954
153	0x3abd694a	0.0014450934
154	0xbd9f34ae	-0.0777372
155	0xb98fd49a	-0.00027433486
156	0xbcd25554	-0.025675453
157	0xbd8c4e36	-0.06850855
158	0x3c90484c	0.017612599
159	0x3d12ab7b	0.035808068
160	0xbd58c279	-0.05291984
161	0xbd81b028	-0.06332427
162	0x3d236c87	0.03989842
163	0x3d5a4d73	0.053296518
164	0xbdad3d92	-0.08459009
165	0xbd6292f4	-0.055315927
166	0xbda11a15	-0.07866303
167	0x3c8df562	0.017328922
168	0xbdcb6e0d	-0.099331
169	0x3d7f3820	0.062309384
170	0x3c27008a	0.010193
171	0x3bca6c00	0.0061774254
172	0xbd812c6d	-0.06307302
173	0x3dea8d99	0.11452789
174	0xbdca9980	-0.09892559
175	0x3cc91a20	0.02454859
176	0xbd4b4793	-0.049628805
177	0x3d17f4a0	0.037098527
178	0x3da850d0	0.08218539
179	0xbcb16949	-0.02165665
180	0xbceb4311	-0.028718503
181	0xbd1667c0	-0.036720037
182	0x3c740380	0.014893413
183	0x3b2d90eb	0.0026484083
184	0xbdb08cb2	-0.086205855
185	0x3daf5a52	0.08562149
186	0x3d6fa714	0.058508947
187	0x3d987fb0	0.074462295
188	0xbca76258	-0.020432636
189	0x3ca2edcd	0.019888783
190	0x3d191832	0.03737659
191	0x3cd9dd9f	0.026594935
192	0x3d72b40d	0.05925374
193	0x3c88de96	0.0167077
194	0xbd96a3e9	-0.07355482
195	0xbdad595c	-0.084643096
196	0xbda9d747	-0.08293014
197	0xbd9c59e5	-0.076343335
198	0x3c57fa04	0.013182167
199	0x3d089aae	0.03335064
200	0xbcb8364d	-0.02248683
201	0xbda4923a	-0.08035703
202	0xbd2fae39	-0.04289076
203	0x3c78294d	0.015146566
204	0xbd8dac76	-0.0691766
205	0xbd80a4a7	-0.06281405
206	0x3d05797b	0.032586556
207	0x3da241d1	0.0792271
208	0x3c95f917	0.018307252
209	0xbd490813	-0.049079966
210	0x3dab9bbe	0.08379315
211	0x3d548124	0.05188097
212	0xbcf81512	-0.030283485
213	0x3d0fbbcd	0.03509121
214	0xbd19ab41	-0.037516836
215	0x3d9122ca	0.070867136
216	0xbde473de	-0.111549124
217	0xbce809d7	-0.028325005
218	0x3d168f39	0.03675768
219	0x3d5673e2	0.05235661
220	0x3cab7420	0.020929396
221	0x3da64e58	0.08120412
222	0x3d0de055	0.034637768
223	0xbc6682b9	-0.014069253
224	0xbd62cf3f	-0.055373427
225	0xbd9114d0	-0.07084048
226	0xbd903371	-0.07041062
227	0x3cd24257	0.025666399
228	0x3d6aef28	0.057356983
229	0xbd694bb8	-0.056956977
230	0xbd96187e	-0.0732889
231	0xbd01e47a	-0.031712033
232	0x3d529cf1	0.051419202
233	0x3c40cdbe	0.011767803
234	0x3db42336	0.087957785
235	0x3d3c7f46	0.046019815
236	0x3ca80ec4	0.020514853
237	0xbdbc499b	-0.09193727
238	0xbdbbe010	-0.09173596
239	0xbdc077c4	-0.093978435
240	0xbccdcdf7	-0.025122626
241	0xbd8053d3	-0.06265988
242	0xbd3b75e1	-0.045766715
243	0x3d1d0e25	0.038343567
244	0x3cb8e49a	0.022569943
245	0x3da077eb	0.078353725
246	0xbde07556	-0.1095988
247	0xb80103ea	-3.0759642e-05
248	0xbc11972e	-0.008886142
249	0xbd9ef118	-0.07760829
250	0x3cb41325	0.021981785
251	0xbba94702	-0.0051659355
252	0xbc12834f	-0.008942439
253	0xbda13b54	-0.07872644
254	0x3dbc02cf	0.09180223
255	0xbcca37b5	-0.024684766

fc3.bias f4 [2]
0	0xbcc34ebf	-0.02384126
1	0xbda558e4	-0.08073595
