checkpoint-episode-1000.pth.tar (torch_old, 568610 bytes, 6 tensors)

fc1.weight f4 [128, 976]
00000000: cfc8 2ebd 483f d9bc 153d 9b3c bd8d 35bd
00000010: 1d43 60bc d1f7 06bd 925a 8c3c 2a22 ea3c
00000020: e484 533d a50e e5bb 96a4 aebb c9b9 bf3c
00000030: 0d44 4abc e363 2639 150f db3c 26d2 583d
00000040: 1729 253d 500a 22ba 9ea8 38bb e832 0bbd
00000050: 19c3 b83c e0df 0c3c e77f 05bc b51e 2dbc
00000060: 990c d9bb 3ecb 3dbc db30 b03b ec61 0b3d
00000070: cb85 e5b8 fee2 4e3c 24fb 1abd b665 783d
00000080: 20c8 553d 63f9 2cbd 7980 71bd dd26 803b
00000090: 197f 87bc 66fc b43d 8b7c a8ba 23ba 893c
000000a0: 168d 16bd f2a1 6a3d 698a 023d c397 37bd
000000b0: bb11 98bc 5bde c5bc 642d 35bd 5929 6fbd
000000c0: 62e4 283d 10de 083d 718b c6bc 8295 d8bc
000000d0: 0029 e03c eb01 713d 82ee 853c 14a4 a4bb
000000e0: 389f 4fbc 4fa5 e93c d5d5 78bc e488 a13c
000000f0: 4231 323c 13b7 c03c 361f a23c e30e d43c
00000100: 566b bebc b007 023d e81f aa3c c47a adbc
00000110: 31b5 6c3c c9c6 22ba f0a5 1cbd a7f7 31bd
00000120: b937 6bbd 23c0 4b3d 339c 3d3d ad7d 4ebd
00000130: 8330 5abc dec8 af3c 9276 2ebd 12b6 2e3a
00000140: cd4c 10bc fe59 a83c 57c8 2e3d 9c17 403b
00000150: 3b33 12bd 2c12 aebc 86f7 36bc d63d e53b
00000160: 095f 123d d927 413a d9c5 043d c9f5 913c
00000170: 3c79 17bc 6eaa 81bc 5b87 8c3c ae17 1e3d
00000180: 7bfb 553c c60b 81bc f43a dfbc 742b 2a3d
00000190: 30a7 763c e354 79bb a386 c33b cecd 6db7
000001a0: 1bc1 26bd 9cb9 b2bc 1ba7 3abc a71c 7abd
000001b0: 76cb b33c a329 cdbc e5a5 c13a 12f2 9abc
000001c0: 3ae4 47bb 5ea3 84bd 477c 89bc f46d 5a3c
000001d0: 387d 21bc fd90 f63c 4909 faba 4613 043d
000001e0: 20ec 263c c57c 4b3c 1f4e 5c3d ecfa 4c3d
000001f0: d7a1 31bc 4e9e 8a3c 1f8c 52bc 273e 1cbc
00000200: fd57 803d 2b19 1fbc 1e68 a43c e551 123c
00000210: 7d29 443a 0aba 3f3c c31a 683d ee9c af3c
00000220: 6b17 793c 73ae 063d b8f6 c03c 25fe 19bb
00000230: 879d 6cbd 3ffc 02bd a586 743b d3f2 4b3d
00000240: 7b07 fe3c 80b2 03bc 2e45 27bd 098a 3fbd
00000250: dd4b 92bb 2425 40bc 2128 143c fc53 37bc
00000260: f227 c23a cf72 cb3a 079e a2bc 4fd9 aa3c
00000270: de4c e3bc fcf3 7abc d3a3 1bbd 8810 623d
00000280: 1340 6b3d 2a4a 64bc 08ef 5a3d 591e 25bb
00000290: 5b54 88bc 15f3 d63c 5007 62b9 9188 8c3c
000002a0: ca42 06bc 8b77 f0bb 874d 7abb b72d 87bc
000002b0: 7e1b 39bd 4fbe 7bbc 7c44 283d 5180 04bd
000002c0: eb15 51bc 3aad eebc e827 253c 910c 6a3c
000002d0: 7b77 bdbc 6bde 183d e83f 043d 7b79 76bc
000002e0: d7ae 26bd 7c4d 55bc fc75 fb3c b8d2 38bd
000002f0: 4956 593c 4e58 1ebd 2392 083d 0059 103d
00000300: ff1e 903c 74c6 f8bc 7d56 e93c 4e9f c0bc
00000310: 326b c1bc e38d 033c 8a94 9e3c b0c2 96bb
00000320: 39a1 13bd 140a 043c 5580 51bd 7488 e9bc
00000330: d96e 033d f209 173d bd73 5239 91d6 41bc
00000340: 5ab1 333c 1937 6f3c 41a0 563c a699 e03b
00000350: e851 bdbb 6a0b a03c 33a8 873b 5b7a 173c
00000360: 0fba f63b 7086 c1bc 6be2 273c 76be 7d3c
00000370: 4160 b73c 4127 45bd 02c4 3e3c 6361 563c
00000380: 7005 46bc 697a 563d e801 ad3c 34b4 3e3d
00000390: 226f 5abc 39d9 65bc 1096 f63c 4b05 1dbc
000003a0: dba6 653c ab4d 2fbd 271e c2bc 620f 883c
000003b0: bc29 763b 634e 253d 3ade 38bd c411 2fbd
000003c0: 4d5c 153d 004f a7bc 6533 0cbd 7ddf 533c
000003d0: 1007 5abc d0f3 073d 2d87 83bc caed b1bc
000003e0: 1950 ef3c 0c20 cb3b 36ab 0f3d 20e3 7f3c
000003f0: fdef 313d 4436 55bd 3d7a f93b 4f31 693c
-0.042671975 -0.026519433 0.018950025 -0.044324625 -0.013687876 -0.03295118 0.017133031 0.028580744
0.051640406 -0.006990271 -0.0053296788 0.023404019 -0.012345326 0.00015868204 0.02674059 0.05293479
0.04032239 -0.0006181346 -0.0028176676 -0.033984095 0.022553967 0.008598298 -0.00814817 -0.010566403
-0.006623816 -0.011584101 0.005376918 0.034028932 -0.00010944492 0.012627361 -0.037837163 0.060643874
0.052192807 -0.04223002 -0.05896041 0.003910883 -0.016540097 0.08837204 -0.00128545 0.01681239
-0.036755644 0.05728335 0.03187028 -0.044822466 -0.018563142 -0.024153879 -0.04423274 -0.05838904
0.041233428 0.0334149 -0.024236413 -0.026438478 0.0273633 0.05883972 0.016349081 -0.0050244424
-0.012672238 0.028521208 -0.0151877 0.019718595 0.010876002 0.023524797 0.019790273 0.025886005
-0.023244541 0.031745613 0.020767167 -0.021176703 0.014447496 -0.0006209431 -0.038244188 -0.04344907
-0.05742619 0.049743783 0.04629154 -0.050412823 -0.01331723 0.021458086 -0.042593546 0.0006664704
-0.008807373 0.020550724 0.042671528 0.0029310947 -0.03569339 -0.0212489 -0.011167413 0.006995897
0.035735164 0.00073683035 0.032415245 0.017817395 -0.009245213 -0.015828338 0.017154386 0.0385968
0.013060446 -0.015752684 -0.02724979 0.041545346 0.015054509 -0.0038044981 0.0059669777 -1.4174218e-05
-0.040711503 -0.021817021 -0.01139238 -0.06106248 0.021947604 -0.025044268 0.0014774172 -0.018914256
-0.0030501024 -0.06476472 -0.016782893 0.013331879 -0.009856515 0.030098433 -0.0019076254 0.032244943
0.0101881325 0.012419884 0.05378544 0.050043985 -0.010841808 0.016921189 -0.01285079 -0.009536303
0.062667824 -0.00971059 0.020069178 0.008930658 0.0007482989 0.01170207 0.056666147 0.021437135
0.015203337 0.03288121 0.023555145 -0.002349743 -0.057767417 -0.031978842 0.00373117 0.049792122
0.031009426 -0.008038163 -0.04083746 -0.0467625 -0.00446461 -0.011727605 0.009042771 -0.011189457
0.001481293 0.0015521887 -0.019850744 0.020855574 -0.027746614 -0.0153169595 -0.03799803 0.055191547
0.057434153 -0.013933698 0.053450614 -0.002519509 -0.016641786 0.026238957 -0.00021555764 0.017154964
-0.008194635 -0.0073384694 -0.0038193183 -0.01650129 -0.045192234 -0.015365197 0.041080937 -0.032348935
-0.012761573 -0.029135335 0.010080315 0.014285223 -0.023128262 0.03732149 0.03228751 -0.015043612
-0.040694084 -0.013018962 0.030695908 -0.045122832 0.013265201 -0.038658433 0.03334249 0.035241127
0.017592905 -0.030368067 0.028483624 -0.023513462 -0.023610685 0.008029434 0.019357938 -0.0046008453
-0.036042426 0.008059043 -0.051147778 -0.028507449 0.032088134 0.03687472 0.00020070277 -0.011830942
0.010967577 0.014600539 0.013099731 0.006854254 -0.0057775863 0.019536693 0.004139924 0.00924548
0.007529504 -0.023623675 0.010246853 0.015487304 0.022384765 -0.04813314 0.011643412 0.013084742
-0.012086257 0.052362833 0.021119073 0.046558574 -0.01333216 -0.014028841 0.030100852 -0.0095837815
0.014016832 -0.04279868 -0.023696018 0.016608898 0.0037561497 0.04035796 -0.045133807 -0.042741552
0.036464978 -0.020423412 -0.0342287 0.012931702 -0.013307348 0.033191502 -0.016055668 -0.021719832
0.029212998 0.0061988886 0.03507539 0.015618116 0.04344176 -0.052053705 0.007613449 0.0142329475

fc1.bias f4 [128]
00000000: 2502 0cbd 70cb b23c f402 98bc 071e f4bb
00000010: b573 4f3c 05fa b5ba ce69 8abb d641 adbc
00000020: 7c44 343c ca8d 8d3a 25dc 17bb 81b3 a93b
00000030: 0a28 d23c a402 57bb 1dda c4bb b836 00bc
00000040: 7261 e13a c6ed c23c f9ba 033b cf38 fabc
00000050: cc9d 523c 401b c7bc d24c 083a 48e1 08bb
00000060: 051f 81bc f144 163d 7ab7 9d3c 7d28 10bb
00000070: 7cfe 973a 61ae 043d 0b48 f33a f729 7f3c
00000080: 83a8 06bc 772f 9b3c 4eeb 2a3c 0845 02bc
00000090: 9214 d73b c60e 543c e121 c1ba 4e7e 9f3c
000000a0: 23da d03b 0411 58bc 411e 86bc 8ced 35bc
000000b0: 38bb f43b 217c 99bc 4adc b33c 7eec e43c
000000c0: cc39 4fbc 7ee8 293c 1bc1 883c f460 d9b8
000000d0: 636f 05bd 48a8 afbb f8b2 323a 9bd5 ccbc
000000e0: e433 25ba f0b5 9b3c b10a 04bd f7e0 e2bc
000000f0: b802 b93b 96aa 9a3b f4d9 9b3b 7fc2 2e3c
00000100: 442d 073c 09a1 8cbc 0c4e 4d3b 92bf aa3b
00000110: 067c a73c a5b1 373b f63f 34bc f478 053d
00000120: 6196 4dbc 33b2 55bc ebc3 38ba 2859 343a
00000130: 9966 8337 07cb 3cbb 6037 933b e033 0a3c
00000140: cc2d 013d ee44 cc3a e6bd 0bbd db63 813c
00000150: a2e1 af3b 45bd 2ebc 1aae 01bc 4753 f839
00000160: f498 d8bb 22ea 8ebc 6714 dcbb 1a43 5a3c
00000170: b9b5 97bc a71a 533b 22f0 4d3b 4b4b c33b
00000180: 5922 6d3a 6e80 44bb a346 e13c f1a4 483b
00000190: b557 bdbc 9514 923c 7cd5 26ba 3596 863c
000001a0: 9b72 d1ba 00c5 903b a0b8 223d eee4 f4ba
000001b0: 47b3 8ebc e038 09ba 36ab 513c 5a6b a1bc
000001c0: b090 77bb a73a aa3b ab8a b83b e829 0c3d
000001d0: 54bd cc3a 3620 153b 6d4f 923c dfca 4f3c
000001e0: 3b21 77bb 75cd 033d 811b acba c0fa 163a
000001f0: d255 ec3a d6fb c23b 6f9f be3c ffe7 05bd
-0.034181733 0.021825522 -0.018556096 -0.0074498686 0.012661864 -0.0013883716 -0.0042240387 -0.021149557
0.011002656 0.0010799703 -0.0023171988 0.0051788692 0.025653858 -0.003280797 -0.0060074464 -0.007825546
0.0017195179 0.02379502 0.0020100458 -0.030544667 0.0128550045 -0.024304986 0.00051994354 -0.0020886231
-0.015761862 0.03668684 0.019252528 -0.002199679 0.0011596228 0.032392863 0.0018560899 0.01557397
-0.008218887 0.018943531 0.010432078 -0.007951029 0.0065637315 0.012942975 -0.0014734828 0.019469406
0.00637366 -0.013187651 -0.016371848 -0.011103999 0.0074686073 -0.018735947 0.021955628 0.0279448
-0.012648057 0.010370372 0.016693642 -0.00010365425 -0.03257693 -0.005360637 0.00068168296 -0.025004199
-0.0006301983 0.019007653 -0.03223676 -0.027695162 0.005646076 0.0047200425 0.0047562066 0.010666489
0.008250538 -0.017166631 0.0031327037 0.0052108252 0.020444881 0.0028029468 -0.011001578 0.032586053
-0.01254806 -0.013042974 -0.0007048237 0.00068797404 1.5664193e-05 -0.0028807537 0.004492685 0.0084352195
0.031537816 0.0015584507 -0.03411665 0.015794685 0.0053674737 -0.010665243 -0.007915044 0.00047364293
-0.0066100303 -0.017445628 -0.0067162993 0.013321662 -0.01851927 0.003221193 0.0031423648 0.0059599034
0.0009045951 -0.0029983777 0.027499503 0.003061589 -0.023113111 0.01783208 -0.0006364209 0.016429046
-0.001597959 0.0044180155 0.039726853 -0.0018683949 -0.01741947 -0.000523461 0.0127971675 -0.01970451
-0.003777545 0.00519498 0.005631765 0.034219652 0.0015620389 0.0022754795 0.017860139 0.012682646
-0.0037709016 0.03217836 -0.0013130755 0.00057594106 0.0018030948 0.0059504313 0.023269383 -0.03269195

fc2.weight f4 [128, 128]
00000000: 8d7f a93d 5c99 c53c 8304 0e3e de57 6e3d
00000010: b20e f83c e0bc b83d 578f 35bd 5a7e be3d
00000020: 2d77 63bd d316 843d 6d5e 863d f3b8 823d
00000030: 2636 003e ab1b ad3d 67cb 2f3d 1ff2 79bd
00000040: efcd be3c 5982 51bd 81b4 4abc 6cb2 ecba
00000050: 42d4 6e3d 15ba 99bd 9512 98bd 4c35 123d
00000060: 6787 21bd 8de2 d13d 149f a13d cab1 d7bc
00000070: 05b9 ab3d a0e6 ff3c c6d2 813d 8d08 90bd
00000080: 4b27 003c 55f1 f13d 245d 85ba a9c9 8d3c
00000090: 9a55 3abd a2ce 863d 2eab 50bd a9f8 283d
000000a0: af5d 1e3d 98f9 c3bc 7dce ec39 0c91 a838
000000b0: ab51 cc3b 39f9 85bd 449a 203b e9e6 d2bc
000000c0: bc53 9ebd 9b15 bd3d 7f8c ab39 64a7 55bb
000000d0: 95ef 85bd 5f35 4d3d 82dd 5f3c 169b 843c
000000e0: 3a6a cf3c 0dfe 3b3d f5c6 653b 8dad 853c
000000f0: 58c1 6b3d 3374 2c3c 7942 5b3c c61d bd3d
00000100: 5269 303d a0ea 08bd 7561 56bd a0ed af3d
00000110: 320e ce3d 7d3e 793d 9e5d 8c3d 374d b93d
00000120: 10e3 b53c 69d9 ec3d 7928 90bc 9685 3fbd
00000130: 1f78 fd3b bf45 88bd d246 843d 3ae5 e9bc
00000140: 3a1a 4e3d fae3 cd3c 70f7 b03c 03d7 193d
00000150: d070 fc3d 3bc2 013e c989 f33d eb82 8bbc
00000160: 8630 98bd f5be a93d 6191 8d3d cbca 983d
00000170: db00 74bd 4c04 e6bc 09df 72bc f8f7 77bd
00000180: 027f 18bd 86b5 4a3c 5751 e6bb 0f30 a4bc
00000190: a317 98bc 14f0 de3b 1874 2a3c e9e8 903d
000001a0: cc9d c93d 3d82 9a3c f091 4ebd fe0c aa3d
000001b0: 665b 133d 6ba1 c43d e77e 9f3c d0d4 3f3c
000001c0: 0eb3 2abc 8e9e 1bbd 6e31 0cbd a7c0 173c
000001d0: 87c6 043d de2c 103c c8ae b23c e77d c63c
000001e0: 8af1 823b 29eb 463d ebd5 93bd e597 c1bc
000001f0: 3660 6a3c c6d8 75bc bf1e b73c d17b 87bd
00000200: e049 61bd 93b6 99bc b8f7 a0bd 5059 553d
00000210: 1b19 033d 2138 c23d 1453 b9bd 0071 4c3d
00000220: 07d4 38bd b664 1a3d f02c c53c 6ff9 383c
00000230: 2b1c 4dbd bfeb 93bc fe64 92bd eaad b7bd
00000240: 92e6 b4bb 8f6d 013d 4475 b43d ece3 86bd
00000250: 5a6e f9bb 21fe c1bd 9a34 02bc 7cad 09bd
00000260: 26cb 573d 8069 e03c d09b a5bc 05be 8a3c
00000270: 4e59 f9bc 04ec 4cbc 80e5 4b3b 7aee 3c3b
00000280: 340c 2dbc 0fcf 883d 1e91 1b3c 22e4 88bb
00000290: 6879 8e3c cc1f 6a3d 2744 843d 7d89 00bb
000002a0: e0da cd3c e89a 0ebd 3021 e63b e53d 95bd
000002b0: 54cb 303d 69ee 0abc 3d2f 35bd 5e1d 1fbd
000002c0: cdfb 4abd 9fbd 293d dcf5 30bc 4a41 243d
000002d0: e779 6d3d cd46 97bd 82f4 1dbd c803 203d
000002e0: 1c5e 62bd c971 42bd 5006 c6bc eeed ef3b
000002f0: d0b3 363d 8af4 c43b 1647 07bc 03c3 a43d
00000300: 3212 76bd fb9a 59bd a693 9d3d 7b92 3f3d
00000310: f310 08bd 7f05 68bb d311 4bbd 1d86 c43d
00000320: c918 59bd 21c1 883d 24d9 b73c 4444 b2bd
00000330: 59cd babb e62e c93a 915d 86bd fd54 15bd
00000340: 83dd ae3b 46b6 f8bc 2a92 a43c c7ff 093d
00000350: 6eb6 283d 13bd b4bd ed97 b53d 89e6 8cbd
00000360: e63d 513d 6344 2dbd d190 c3bd f3d7 593d
00000370: dbed 68bd dde3 5f3d c4ed bc3a e129 7e3c
00000380: 6d8b 853d 3db8 123c 4d14 883d c6cc 1dbd
00000390: 68fa db3c 4a5a 0d3d 1055 09bc c637 cbbd
000003a0: 9db5 efbd 9ce5 e83c 218a b83d e9cd 94bd
000003b0: 7d3a 9bbc 4311 2bbd 1d70 16bd c534 533d
000003c0: aeaf 843c 3601 863d 79ae 8a3c ad21 54bc
000003d0: a710 a6bd fe83 ac3d 7275 4abd b7e1 b9bd
000003e0: d9df a83d 51fc 803d b0da e8bc f26c 25bd
000003f0: 9cd7 373d 609a 0fbc de08 8fbd 3f55 66bd
0.082762815 0.024120979 0.13868909 0.058189265 0.030280445 0.090204 -0.044326153 0.093014434
-0.055533577 0.06449666 0.06560979 0.063829325 0.12520656 0.08452543 0.04291859 -0.06102192
0.023291556 -0.0511497 -0.012372137 -0.0018058545 0.058307894 -0.075061955 -0.07425419 0.03569536
-0.03943577 0.10248289 0.0789167 -0.026329894 0.08384899 0.0312379 0.0633903 -0.07032881
0.007821868 0.118136086 -0.0010174853 0.017308073 -0.045491792 0.06582381 -0.0509445 0.041252766
0.038663562 -0.023922727 0.00045167273 8.037881e-05 0.0062353215 -0.06541676 0.0024506012 -0.025744872
-0.07730815 0.092326365 0.0003272034 -0.0032600993 -0.06539837 0.050099727 0.013663651 0.016187232
0.025319207 0.04589658 0.0035061215 0.016318107 0.057557434 0.010525751 0.013382548 0.092341945
0.04306919 -0.03342688 -0.052339036 0.08590245 0.10061301 0.06085061 0.068537936 0.09047931
0.022202998 0.11564905 -0.017597424 -0.046758257 0.007735267 -0.06653928 0.064588204 -0.028551687
0.05031798 0.025133122 0.021602362 0.037558567 0.12326205 0.1267175 0.11891515 -0.0170302
-0.0743113 0.08288375 0.069124945 0.07460555 -0.05957113 -0.02807822 -0.014823684 -0.060539216
-0.0372305 0.01237238 -0.0070287394 -0.020042447 -0.018565958 0.006803522 0.0104036555 0.07075674
0.098445505 0.01886093 -0.050432146 0.08303259 0.035975836 0.096011005 0.019469691 0.011708453
-0.0104186665 -0.037993006 -0.034226827 0.0092622405 0.032415893 0.00879976 0.021811858 0.024229957
0.003996079 0.04856411 -0.07218536 -0.023632 0.014305165 -0.015005296 0.022353528 -0.06615413
-0.055002093 -0.018763816 -0.078597486 0.05208713 0.032006364 0.09483362 -0.09049049 0.049912453
-0.04512408 0.0376937 0.02406928 0.011289938 -0.05007569 -0.018056748 -0.07148169 -0.08968718
-0.00552065 0.031598624 0.08811429 -0.065864414 -0.007612032 -0.09472299 -0.0079471115 -0.033612713
0.05268397 0.027394056 -0.020215899 0.016936311 -0.030438092 -0.012507442 0.0031112134 0.0028828667
-0.0105619915 0.06680118 0.009495048 -0.004177586 0.017391875 0.05715923 0.064583115 -0.00196132
0.025128782 -0.0348157 0.007022999 -0.07287196 0.04316266 -0.008479693 -0.044234503 -0.038846366
-0.049556542 0.041440602 -0.010800805 0.040101327 0.057977583 -0.07386551 -0.03856326 0.039066106
-0.05526553 -0.047471795 -0.024172932 0.0073220646 0.044605076 0.0060105966 -0.008256694 0.08045008
-0.060075946 -0.053126317 0.07694177 0.046770554 -0.03321929 -0.0035403667 -0.049577545 0.095958926
-0.053002153 0.066774614 0.022442408 -0.08704427 -0.005700749 0.001534906 -0.06560815 -0.036458004
0.005336465 -0.030360352 0.020089228 0.033691194 0.041189604 -0.088251255 0.08866868 -0.068799086
0.05108442 -0.042301547 -0.09549106 0.05318446 -0.05686746 0.054660667 0.0014414121 0.015512914
0.06520734 0.008955059 0.06644497 -0.038525365 0.026852801 0.034509934 -0.008382097 -0.09922747
-0.11704562 0.028429799 0.09010721 -0.07265837 -0.018948788 -0.04176451 -0.036728013 0.051563997
0.016197052 0.065432 0.016928898 -0.012947482 -0.08108645 0.08423613 -0.04942841 -0.09076255
0.082458206 0.062981255 -0.02842459 -0.0403871 0.044883355 -0.008764833 -0.06984113 -0.05623364

fc2.bias f4 [128]
00000000: 25d2 28bd a457 1dbd 0783 1dbd 6bc7 eb3c
00000010: d885 9dbc 9fa8 17bc cd46 903d f43c b3bd
00000020: 65d0 ab3d 67e6 df38 0309 ca3a a827 93bb
00000030: 2306 4abd 30f8 18bd 1989 133c 175c 163d
00000040: 4ad5 3dbb 40a4 e8bc 9fc8 7cbd c4c1 453d
00000050: 73c2 ac3d 44bf d6bc da7f 6f3d cbf0 bf3c
00000060: 5abf a0bc c7b0 25bd d8f9 cebc ae94 e13c
00000070: 6a77 723d 2eac 67bd 2cad c63c b33f 8b3b
00000080: 53d5 9f3b f05b 6a3c 7b7f 4e3d db57 36bc
00000090: d37e a73d 5276 57bd 8d97 8cbd 27dd dd3c
000000a0: cb2f 583c a6a9 a93c 274c 98bd 5303 8f3c
000000b0: 9573 473d f5e8 d13d b9ba ccbc 756a 153c
000000c0: abe2 0d3d 2fd7 adbc 4d2f c93b 13a0 8bbb
000000d0: ee98 d13c 297a 63bd 10db 7cbd 922a 43bd
000000e0: eab8 4e3d 8b0f 39bd 8bd8 343d 7335 7c3d
000000f0: 106b c8bd c2fd 50bc 150b 7e3c 1515 233c
00000100: ee8d aabd b677 7c3d aac9 3c3c 7cfb 323c
00000110: fedb 85bc 1223 acbd d501 63bd 64cf e1bc
00000120: 0f34 8e3d 2cbd 813c 57ce 29bc 745d 8d3c
00000130: 9e59 80bd 771d 2d3d b134 973c fffa 0f3d
00000140: d7eb e0bd 5dd8 a43d 7142 ac3d e4fb 9ebc
00000150: aa67 073d c93e f23c 788b 203d d336 263c
00000160: 41b5 a53d eed5 b3bd 8534 0a3c db76 8dbd
00000170: 7b15 46bd ea2a 9abd 8f3e 9d3c 3493 403d
00000180: 5aee 833d 60ab 09bd 173a 1fbd 554a 15bd
00000190: bda7 29bd 61eb a4bd 1d99 883d 10ca a23c
000001a0: 4e77 39bb ebb8 e1bc bf16 08bd 8bff a03a
000001b0: cc83 6d3d b0ff 4ebc 78ce 353c 6c9f 913c
000001c0: c244 34bd d8b5 4ebd 28b9 84bd e516 b43c
000001d0: 4911 d8bb 3c34 e5bc 532e 1c3d 5f82 f83b
000001e0: b04d 8b3d 7269 b4bd 4d7d 883c fa44 ddbc
000001f0: e10d 7ebd d7f6 933b 4595 78bd 56bc b73c
-0.041216034 -0.03841366 -0.038455036 0.028781613 -0.01922886 -0.009256511 0.07044754 -0.0875186
0.083893575 0.000106763844 0.0015414063 -0.0044908114 -0.04932226 -0.037346065 0.009004855 0.036708917
-0.0028966242 -0.028398633 -0.061714765 0.048280492 0.08435526 -0.02621425 0.058471538 0.023430249
-0.019622494 -0.04045179 -0.02526562 0.027536716 0.059195913 -0.056560688 0.024252497 0.004249537
0.004877725 0.014304146 0.050414544 -0.011129345 0.08178487 -0.052603073 -0.068648435 0.027082993
0.0131949885 0.020710777 -0.074364 0.01745764 0.048694212 0.10249511 -0.02499138 0.00911962
0.034639996 -0.021220772 0.006139672 -0.0042610257 0.025585618 -0.055536423 -0.06173235 -0.04764802
0.050469317 -0.04518084 0.044151824 0.06157441 -0.097860456 -0.012755813 0.015505572 0.009953757
-0.08327852 0.061637603 0.01152269 0.010924216 -0.016340252 -0.08405127 -0.05542167 -0.027564712
0.06943523 0.015837274 -0.010364137 0.017256476 -0.06267093 0.042264428 0.018457742 0.035151478
-0.10982483 0.080490805 0.0841111 -0.01940722 0.033057846 0.029570954 0.039195508 0.010144907
0.08091212 -0.08781038 0.008435373 -0.069074355 -0.04836033 -0.075277165 0.01919487 0.047015384
0.06441946 -0.0336107 -0.03887376 -0.03644784 -0.041419733 -0.080527075 0.06669829 0.019871742
-0.002829987 -0.027553996 -0.033224817 0.0012283189 0.05798702 -0.012634203 0.011096589 0.017776214
-0.044010885 -0.05046639 -0.06480628 0.021983573 -0.0065938574 -0.027979009 0.038130116 0.007583901
0.06801927 -0.088091746 0.01666131 -0.02701043 -0.062024955 0.0045155096 -0.06068923 0.022428673

fc3.weight f4 [2, 128]
00000000: cd0c 36bd 1010 d73c ad50 ae3c 53b3 dcbc
00000010: 0a9e 2c3d 4021 bd3b 56de 023d 0f9a aebd
00000020: 0159 013e 3e30 ddbd 506c 94bd fae1 44bc
00000030: d132 60bd ca7b 61bd 0d6e cabc 57c1 cbbd
00000040: b0a6 5439 78fa aa3d 314e b4bd 0b89 223e
00000050: 4995 2f3e 9e8f 6a3d 4265 aebd 192c 783d
00000060: d7cf 333d 8793 9e3d 46cc 8abd 6b6c 6ebd
00000070: b54f 83bd 30ef e83b 1355 cbbd a864 413d
00000080: 9bb4 c5bd 57b0 8c3d 1a42 43bb 5bd5 c43d
00000090: b1c8 4fbd 76f1 10bd dd41 983c 3057 693b
000000a0: 1501 413d be21 a2bc 6e7b 82bd 165c a6bb
000000b0: 7064 d4bc c236 343d 47e5 1a3d f32a ef3c
000000c0: f4d8 9fbd 0ce2 99bd 09dc 0a3d ca37 0fbc
000000d0: ab01 ec3d c9fa a73d 44b7 a0bd 208b 3bbc
000000e0: 68cd 163d 6b36 3ebd d12f 9b3d c809 173e
000000f0: 5264 84bd c9b6 0c3d 99c2 1bbd 89b3 00bc
00000100: 679f 643d b03b 093e 805f 00bd 2d7a a5bd
00000110: 5af1 07bd 6483 3bbd a85b 01bc c5cd b33d
00000120: 3893 90bd 2b98 cfbd fd8e 86bb be9e 3bbd
00000130: 461f 0fbd 4c23 99bd 8593 113d ef44 5bbd
00000140: b9a9 80bd e623 83bd a413 2b3e 6495 53bd
00000150: 0dc1 bfbc 3509 5f3d 9155 c6bd 7975 103d
00000160: 3dea bfbd 40a8 49bd 0dc5 5c3d d073 cbbb
00000170: e46f d5bc 20b2 703b 6692 0a3d 08e3 203e
00000180: c3d1 bebd 3c69 b5bc a65e dabd 33f7 073d
00000190: 2390 a2bb 5ca1 313d cb44 30bd b6a4 acbd
000001a0: 0898 73bd 6d51 8e3d d5af 163b 6436 6f3d
000001b0: 7310 b6bd 8805 a4bd 3576 94bd 780f e1bd
000001c0: 610e f73d c2ef 8d3d 3c65 933c 78f7 6d3c
000001d0: bb76 f83c 880c aabd b052 b5bd c6de 5e3d
000001e0: 8d74 c6bd 0b6f a33d 92ec 1f3d 8f86 9f3b
000001f0: 3031 28bc 2df3 a13d ff62 2bbc 3b0b 183e
00000200: 8278 29bd 68e7 a4bd bcb8 743d 031d e13c
00000210: f4e2 013d ef0b 59bd bb2a d1bc eafe 56bd
00000220: 3daf 6dbd c061 dfbd bed0 43bc e2b3 1f3c
00000230: c0fa 7ebd 16c4 40bd 26ae dbbd 6e4d 663d
00000240: c90d 8cbd b08e 8abd ce89 f2bc 5368 4c3c
00000250: 3d93 ca3d 822e 033e 4181 513c 2409 1d3d
00000260: 3a66 c6bd 4a69 bd3a d4f1 9dbd 91c0 3dbb
00000270: 69dc aebc 364e 8cbd d47f 923c eb75 a43c
00000280: 922b 54bd 395f 35bd a847 053d e3ac a63d
00000290: 9ac2 a2bd f492 62bd 99f2 9cbd 0c05 333c
000002a0: e38a bebd 88d5 1d3d a9a1 e53b 4861 97bb
000002b0: c9b6 75bd d919 173e 04cd bdbd 75b8 cc3c
000002c0: 0d2f 36bd f4ec 0c3d d050 a83d 49f5 9dbc
000002d0: cdf7 53bc 4c2e 16bd 8003 743c 98b2 eb3a
000002e0: 1e1f abbd 264c af3d 4698 9d3d 700f bf3d
000002f0: 5862 a7bc 25b8 8c3c f32a 1b3d ee29 ca3c
00000300: 0db4 723d d710 103d 68b4 98bd a7ed a9bd
00000310: 47d7 a9bd e559 9cbd 8a38 813c ae9a 083d
00000320: 5c69 91bc e458 9dbd ed58 28bd 44f3 993c
00000330: 76ac 8dbd 5779 6fbd eabb 1f3d d141 a23d
00000340: 17f9 953c dfae 3abd f80d d03d ac72 513d
00000350: 532d e5bc bf22 033d 0c91 14bd 1c44 923d
00000360: 4f46 dfbd 0c17 d9bc eb2f 123d dc81 4a3d
00000370: cc6f 933c 584e a63d bf2a 083d a87a e23c
00000380: 3583 4fbd d014 91bd c3c9 8bbd b1ca d33c
00000390: 9465 7e3d b84b 69bd b2cb 8ebd dba5 0cbd
000003a0: 9304 723d 8a95 7e3c 3623 b43d cab2 723d
000003b0: 1b99 b63c 0bab b8bd 1197 b1bd 905a bbbd
000003c0: 4260 c5bc a32d 6abd e175 3bbd 29b7 153d
000003d0: 1adb c33c eb77 a03d 90e4 dbbd 1905 10bb
000003e0: ec8b 85bb 18f1 9ebd 3587 d63c 1126 11bb
000003f0: 4f83 12bc 798d 89bd b8ea b93d 9287 a6bb
-0.0444458 0.026252776 0.021278704 -0.026940977 0.042142905 0.005771786 0.031950317 -0.08525478
0.12631609 -0.10800217 -0.072472215 -0.012016768 -0.054735962 -0.055049695 -0.02471068 -0.09948986
0.00020279991 0.083485544 -0.08803976 0.1587259 0.17146792 0.05726587 -0.08515407 0.06058893
0.043899383 0.07742982 -0.06777243 -0.058208864 -0.06411687 0.0071085915 -0.09928336 0.047215134
-0.096535884 0.06869572 -0.0029794038 0.09611007 -0.050728504 -0.035386525 0.018586094 0.0035604946
0.047120173 -0.01979148 -0.063711986 -0.0050768955 -0.025926799 0.043997534 0.037816312 0.029195284
-0.078050524 -0.07513818 0.033901248 -0.0087413285 0.11523756 0.0820213 -0.07847455 -0.011446744
0.036816984 -0.046438616 0.0757748 0.14749825 -0.06464447 0.034354005 -0.03802738 -0.0078553045
0.05581608 0.13401675 -0.031341076 -0.08079944 -0.033189155 -0.0457796 -0.007895388 0.08779482
-0.0705933 -0.101364456 -0.004106401 -0.045805685 -0.034941934 -0.074774355 0.035541076 -0.053532537
-0.06282372 -0.064033315 0.16706711 -0.051656142 -0.023407483 0.05445214 -0.09684289 0.03526828
-0.09370849 -0.04923272 0.05389886 -0.0062088743 -0.02605433 0.0036727265 0.033831023 0.15711606
-0.093173526 -0.022144906 -0.10662584 0.033194732 -0.00496103 0.043366775 -0.043034356 -0.084298536
-0.05947116 0.069491245 0.0022992988 0.05840148 -0.08889856 -0.080088675 -0.07249109 -0.109892786
0.120632894 0.06930496 0.017992608 0.014524333 0.030330053 -0.083031714 -0.08853662 0.054411672
-0.09690199 0.07980164 0.03904397 0.0048683356 -0.010265633 0.0790771 -0.010460614 0.14848034
-0.04137469 -0.0805195 0.05974649 0.027479654 0.03171058 -0.052989896 -0.02553307 -0.0524892
-0.05802845 -0.10907316 -0.0119516235 0.009747477 -0.062250853 -0.047062002 -0.107265756 0.056226186
-0.06838567 -0.06765497 -0.029606726 0.012476045 0.09891365 0.1281071 0.012787164 0.038338795
-0.09687467 0.0014450934 -0.07712141 -0.002895389 -0.021345334 -0.06850855 0.017883219 0.020075759
-0.051799364 -0.044280265 0.03253904 0.08138444 -0.079472736 -0.055315927 -0.07663459 0.010926496
-0.09303834 0.038533717 0.007007797 -0.004619751 -0.05998877 0.14755954 -0.09267619 0.0249903
-0.044478465 0.034405664 0.08218539 -0.019282 -0.012937498 -0.036665246 0.014893413 0.0017982302
-0.083555445 0.08559446 0.076950595 0.09329116 -0.020432636 0.01717765 0.037882756 0.024678197
0.05925374 0.03517231 -0.07456285 -0.08297282 -0.08293014 -0.076343335 0.01577403 0.03335064
-0.017750435 -0.0768297 -0.04110043 0.018792756 -0.0691766 -0.058465328 0.03899757 0.0792271
0.018307252 -0.045576926 0.10158914 0.05113475 -0.027975714 0.03201556 -0.03627114 0.07141897
-0.10902082 -0.026500247 0.03569023 0.04944025 0.017997645 0.08120412 0.03324389 0.027646378
-0.05066224 -0.07084048 -0.06825592 0.025853487 0.06210859 -0.056956977 -0.069724455 -0.03433786
0.059086394 0.015538583 0.087957785 0.059252538 0.022289803 -0.09016999 -0.08671392 -0.09148133
-0.02409375 -0.05717243 -0.045766715 0.03655163 0.023908187 0.078353725 -0.10736954 -0.0021975695
-0.004075518 -0.07760829 0.026187519 -0.0022147933 -0.008942439 -0.06716437 0.09077972 -0.005082079

fc3.bias f4 [2]
00000000: f527 ea3c 13f7 86bd
0.028583506 -0.065900944
