modelSimulation/checkpoint-episode-200.pth.tar (torch_old, 568609 bytes, 6 tensors)

fc1.weight f4 [128, 976]
-0.050960008 -0.028811539 0.018352024 -0.028026091 0.002482771 -0.01725547 0.015273589 0.017271489
0.047434058 -0.019356297 -0.008943535 0.029611394 -0.016824175 -0.006206969 0.017879626 0.03823569
0.040751778 0.0147659145 -0.017534323 0.008258593 -0.003745279 -0.003968129 -0.02462883 -0.0002446165
0.0058355676 -0.018387944 0.00068859657 0.01630152 -0.019295527 0.026250804 -0.029242486 0.05883615
0.05017323 -0.019081598 -0.056423478 -0.010533996 -0.0061960374 0.046318628 0.006159089 0.013730211
-0.023139058 0.05338066 0.02439255 -0.03246189 0.010218264 -0.019192468 -0.020242842 -0.043811873
0.025654897 0.03295934 -0.035756476 -0.024115779 0.032045297 0.05262062 0.01388442 -0.027869057
-0.024345139 0.02114888 -0.010403497 0.0044924445 0.0012951528 0.014464264 0.034711543 0.03796168
-0.010635633 0.013789171 0.02434713 -0.046665605 0.03681396 0.012367106 -0.023563169 -0.023473294
-0.050979614 0.04227065 0.024281083 -0.04761579 0.00019788503 0.028161686 -0.039572034 0.015170487
-0.022356516 0.021136694 0.02526689 -0.006159558 -0.042863764 -0.011899298 -0.0130992625 0.0012717992
0.022615213 -0.003923485 0.03651103 0.03898159 -0.0016038925 0.0019024258 0.005071639 0.013814449
0.010820433 -0.0072912285 -0.024910035 0.034304418 0.027781622 2.8116672e-05 0.011367144 6.634175e-05
-0.03461993 -0.018002111 0.0009835768 -0.04747825 0.022748152 -0.013846224 -0.0098821325 -0.00856913
0.0030962348 -0.049011793 -0.027544893 0.010107906 -0.019184647 0.012331218 0.0025286267 0.035249036
0.027300864 0.019996325 0.038788054 0.050175015 -8.493219e-05 0.019465499 -0.005074943 -0.0052455305
0.05339243 0.0135352025 0.03804482 0.0018237075 -0.016188782 0.006762402 0.04631402 0.018368158
0.019626843 0.026824413 0.04693519 -0.0046051857 -0.028958324 -0.013724138 0.011509327 0.040502608
0.03708686 -0.0039663874 -0.03826131 -0.04683532 0.004130137 0.003875464 0.03509801 -0.011845632
0.0055406964 -0.00033089792 -0.002920198 0.02051559 -0.007972593 -0.019347798 -0.035464197 0.055313565
0.0358698 -0.014831234 0.041589793 -0.005821058 -0.026121913 0.04103408 0.0010272071 0.028132308
-0.00037495058 -0.0165084 -0.0049102893 2.3027105e-05 -0.026751352 -0.021082928 0.035635695 -0.01387745
-0.0010384544 -0.016131662 -0.000957618 0.022049664 -0.025173284 0.013460612 0.030283052 -0.006690186
-0.04459538 -0.020760661 0.02567757 -0.031037247 0.010882938 -0.031892296 0.02710744 0.052961845
0.013317294 -0.029268263 0.033315305 -0.03216027 -0.008853442 0.009545229 0.016210504 0.00061870343
-0.013237546 0.004951124 -0.03940548 -0.03270262 0.008268601 0.013371495 -0.020506635 -0.028012775
0.023365775 -0.005052056 0.013181225 -0.014631941 -0.0025999092 0.011657268 -0.003801074 0.013413025
0.015446547 -0.0045429817 0.014787013 0.03659564 0.01085215 -0.021995075 0.015755903 0.01419013
0.00021776455 0.05742261 0.01676308 0.050387297 -0.0075847167 -0.0003293712 0.029866207 -0.0048701735
0.020605542 -0.03472357 -0.030023951 0.025372637 -0.009900639 0.022135934 -0.033581052 -0.03167994
0.03370518 -0.010321589 -0.035444383 0.015630817 -0.010873989 0.025571913 0.0011607156 -0.012962448
0.023433454 -0.00026889678 0.018499095 0.030369086 0.020656072 -0.055999354 0.00931939 0.021280235
00000000: 71bb 50bd 2d06 ecbc fc56 963c f996 e5bc
00000010: fcb5 223b 585b 8dbc 133e 7a3c f07c 8d3c
00000020: 374a 423d 1991 9ebc e887 12bc 9893 f23c
00000030: dad2 89bc d463 cbbb 4b78 923c 079d 1c3d
00000040: 56eb 263d bcec 713c 24a4 8fbc 0d4f 073c
00000050: 5b73 75bb 1407 82bb 66c2 c9bc df3f 80b9
00000060: 4a38 bf3b 50a2 96bc ef82 343a c48a 853c
00000070: a711 9ebc ed0b d73c f08d efbc 2dfe 703d
00000080: 7282 4d3d 0351 9cbc 4e1c 67bd c896 2cbc
00000090: 2108 cbbb 9ab8 3d3d 2fd2 c93b aef4 603c
000000a0: 1f8e bdbc aea5 5a3d e3d2 c73c c2f6 04bd
000000b0: 816a 273c 8639 9dbc 51d4 a5bc 1474 33bd
000000c0: 382a d23c 5f00 073d 6275 12bd 748e c5bc
000000d0: ee41 033d b888 573d 7a7b 633c a64d e4bc
000000e0: 756f c7bc 6a40 ad3c 6e73 2abc 5b35 933b
000000f0: 1ec2 a93a 85fb 6c3c b12d 0e3d b57d 1b3d
00000100: 1441 2ebc faeb 613c a273 c73c 6f24 3fbd
00000110: 3cca 163d 679f 4a3c 8c07 c1bc 114b c0bc
00000120: 00d0 50bd fd23 2d3d 1fe9 c63c c608 43bd
00000130: 5c7f 4f39 56b3 e63c 4916 22bd a28d 783c
00000140: 0325 b7bc dc26 ad3c 82fc ce3c 1ed6 c9bb
00000150: ea91 2fbd 46f5 42bc 4a9e 56bc 80b2 a63a
00000160: 8a43 b93c 9490 80bb 978c 153d 29ab 1f3d
00000170: b439 d2ba d15a f93a fe2f a63b 0056 623c
00000180: 2f48 313c 42eb eebb 2110 ccbc ca82 0c3d
00000190: 4996 e33c 18dc eb37 423d 3a3c f520 8b38
000001a0: a1cd 0dbd 2a79 93bc 5ceb 803a 8e78 42bd
000001b0: 555a ba3c 46db 62bc abe8 21bc 8965 0cbc
000001c0: 33ea 4a3b 97c0 48bd d4a5 e1bc a19b 253c
000001d0: 1f29 9dbc e108 4a3c 51b7 253b 4b61 103d
000001e0: 10a6 df3c 55cf a33c 39e0 1e3d 5184 4d3d
000001f0: 9f1d b2b8 1c76 9f3c b54b a6bb b3e2 abbb
00000200: 05b2 5a3d c1c2 5d3c e3d4 1b3d 7809 ef3a
00000210: 569e 84bc 2497 dd3b c5b3 3d3d d278 963c
00000220: 79c8 a03c dfbe db3c 1d3f 403d 19e7 96bb
00000230: 023a edbc 35db 60bc 9e91 3c3c 10e6 253d
00000240: 64e8 173d 78f8 81bb e4b7 1cbd 64d6 3fbd
00000250: 1a56 873b 7ffb 7d3b eec2 0f3d 2f14 42bc
00000260: bb8e b53b 5e7c adb9 cb60 3fbb 5010 a83c
00000270: 7b9f 02bc 467f 9ebc e842 11bd 7a90 623d
00000280: 36ec 123d b4fe 72bc 0f5a 2a3d 93be bebb
00000290: 9ffd d5bc 5a13 283d 5aa3 863a ba75 e63c
000002a0: 0495 c4b9 a03c 87bc 7ee6 a0bb 552a c137
000002b0: a725 dbbc 1bb6 acbc bcf6 113d 3e5e 63bc
000002c0: bf1c 88ba 8c26 84bc a808 7bba 7fa1 b43c
000002d0: 3438 cebc e689 5c3c 2a14 f83c 5939 dbbb
000002e0: a5a9 36bd 4312 aabc c459 d23c d341 febc
000002f0: 5a4e 323c 7fa1 02bd 6c10 de3c 85ee 583d
00000300: c830 5a3c ffc3 efbc a175 083d 7dba 03bd
00000310: 070e 11bc 9863 1c3c e4cb 843c 7c30 223a
00000320: 4be2 58bc 0a3d a23b a467 21bd 2ff3 05bd
00000330: 0779 073c 1d14 5b3c 88fd a7bc 0c7b e5bc
00000340: 9569 bf3c b88b a5bb 11f6 573c cfba 6fbc
00000350: 3d63 2abb 20fe 3e3c 711b 79bb 4ec2 5b3c
00000360: 8413 7d3c 4bdd 94bb 3a45 723c 4fe5 153d
00000370: 37cd 313c 042f b4bc 8612 813c b87d 683c
00000380: ba57 6439 f933 6b3d ba52 893c e962 4e3d
00000390: 3789 f8bb 74af acb9 faa9 f43c fa95 9fbb
000003a0: f4cc a83c 4d3a 0ebd caf4 f5bc 47da cf3c
000003b0: 4a36 22bc 6b56 b53c 498c 09bd d3c2 01bd
000003c0: 710e 0a3d e21b 29bc 212e 11bd 330c 803c
000003d0: d128 32bc 307c d13c 2723 983a 7360 54bc
000003e0: 84f7 bf3c b7fa 8cb9 6a8b 973c 97c8 f83c
000003f0: ec36 a93c 945f 65bd 5bb0 183c e353 ae3c

fc1.bias f4 [128]
-0.027010245 0.025979599 -0.005308904 0.0066505927 -0.027995251 0.0059417477 0.00815955 -0.0011738915
0.022530168 0.005071089 0.007279562 0.024979213 0.028151127 0.0077474047 0.0009990894 0.007067002
0.008684353 0.034129534 0.014084958 -0.026259452 0.02129686 -0.030997306 -0.0069473227 -0.0034721708
-0.0070160567 0.039316256 0.03325431 -0.00046389987 0.009050087 0.032198947 0.0113187805 0.02469454
0.000118737575 0.033802103 0.01730918 0.0038663964 0.017716317 0.01523295 0.015320511 0.01935947
0.021559764 -0.01229073 -0.02194419 -0.0067787217 0.013613718 -0.01913868 0.015226487 0.03716308
-0.034911044 0.010968598 0.019238893 0.0060944343 -0.026539722 0.009349233 0.005673924 -0.015586276
0.0057814475 0.024192506 -0.034173116 -0.038963243 0.0046554054 -0.01549823 0.0044277743 0.015440834
0.008926226 -0.012717652 0.0067416346 -0.00010445404 0.026171528 -0.0026112972 0.012271418 0.0403314
-0.016257243 -0.0023311304 0.0054556206 0.013521538 0.0011230304 0.00557411 0.02016585 0.02760055
0.03986714 0.012222053 -0.029514851 0.018439185 -0.00047421033 -0.005633481 -0.0022146935 -0.031342097
0.009736207 -0.020584619 -0.0054562655 0.014245932 0.010072262 0.014772187 0.0045883395 0.027020471
0.015640855 0.008310865 0.03027615 0.0055540195 -0.016289612 0.0132852495 0.018157817 0.02491786
0.006176958 0.009099918 0.041421246 0.0036478143 -0.013383769 0.00948736 0.021195013 -0.005267602
0.010953405 0.012132167 0.019344157 0.034528054 0.0038156433 0.0001794737 0.019461432 0.012225409
0.000852931 0.026551826 -0.0012944471 0.008572973 0.004538379 0.0113511225 0.015403041 -0.021572892
00000000: 9744 ddbc 2bd3 d43c 51f6 adbb 37ed d93b
00000010: 4c56 e5bc feb2 c23b a2af 053c 43dd 99ba
00000020: 3091 b83c 612b a63b 6489 ee3b 35a1 cc3c
00000030: 319d e63c f1dd fd3b e1f3 823a 4f92 e73b
00000040: d148 0e3c 69cb 0b3d 98c4 663c 101e d7bc
00000050: c176 ae3c 10ee fdbc 5ea6 e3bb 5c8d 63bb
00000060: f3e6 e5bb 150a 213d ac35 083d 9637 f3b9
00000070: d146 143c 0be3 033d 6872 393c 344c ca3c
00000080: c002 f938 1374 0a3d fbcb 8d3c 5e63 7d3b
00000090: cf21 913c a093 793c e102 7b3c c097 9e3c
000000a0: 1a9e b03c 0f5f 49bc 4dc4 b3bc 0a20 debb
000000b0: 120c 5f3c b9c8 9cbc 8478 793c 5038 183d
000000c0: e2fe 0ebd a2b5 333c e29a 9d3c d2b3 c73b
000000d0: d569 d9bc 862d 193c 53ec b93b 945d 7fbc
000000e0: 4c72 bd3b 5d2f c63c 1cf9 0bbd ec97 1fbd
000000f0: 5f8c 983b 4aec 7dbc dd16 913b 8dfb 7c3c
00000100: 4e3f 123c b35d 50bc eee8 dc3b 560e dbb8
00000110: ac65 d63c 4c22 2bbb 0f0e 493c 8a32 253d
00000120: e92d 85bc e1c5 18bb 10c5 b23b 7189 5d3c
00000130: a632 933a 06a7 b63b da32 a53c 8c1a e23c
00000140: ba4b 233d 013f 483c 21c9 f1bc c60d 973c
00000150: 6f9f f8b9 1099 b8bb 6424 11bb 9260 00bd
00000160: 9d84 1f3c 13a1 a8bc 79ca b2bb c567 693c
00000170: 2106 253c 0b07 723c c859 963b 095a dd3c
00000180: 4021 803c 4b2a 083c b005 f83c 7efe b53b
00000190: cb71 85bc 60aa 593c b4bf 943c 8a20 cc3c
000001a0: 1468 ca3b d317 153c 53a9 293d 2b10 6f3b
000001b0: 9947 5bbc df70 1b3c 2aa1 ad3c d99b acbb
000001c0: e975 333c ffc5 463c a377 9e3c 4a6d 0d3d
000001d0: df0f 7a3b 1b31 3c39 956d 9f3c 154d 483c
000001e0: 3b97 5f3a 3783 d93c 70aa a9ba a875 0c3c
000001f0: afb6 943b 0ffa 393c 095d 7c3c a2b9 b0bc

fc2.weight f4 [128, 128]
0.09519395 0.021756794 0.10086409 0.03033088 0.031137371 0.028563986 -0.06146087 0.07909654
-0.07540728 0.06122156 0.058938183 0.031951472 0.12134613 0.08386629 0.026532799 -0.06858068
0.0028582625 -0.058021154 0.030196408 -0.0066812923 0.012712834 -0.053189196 -0.08186996 0.00087882194
-0.045270853 0.09076889 0.062541746 -0.041914754 0.06519573 0.02577288 0.05239672 -0.06668256
-0.009321226 0.10245375 0.0011136621 0.00935198 -0.048666835 0.054115064 -0.04431354 0.023488836
0.01279712 -0.04543248 0.0110711185 -0.017477417 -0.0012810762 -0.04968254 -0.011520412 -0.041444253
-0.090307236 0.07255122 -0.0022795983 -0.00813143 -0.06447341 0.05628106 0.03227272 0.028365044
0.016973894 0.05182169 0.019175738 0.019200256 0.03476636 0.014005827 0.008715697 0.06382457
0.025719363 -0.052263886 -0.056415725 0.07900403 0.09676706 0.02579224 0.0723665 0.089280106
0.004529102 0.09671332 -0.02321438 -0.058699347 0.04427928 -0.07879329 0.031461444 -0.027741008
0.033528887 0.023420954 0.04697171 0.00088523893 0.07752177 0.11292758 0.07338032 -0.040978592
-0.08482686 0.08548564 0.03824044 0.062045485 -0.05744535 -0.045475557 -0.045015138 -0.074575536
-0.042600125 -0.0062372955 -0.010247578 -0.012637715 -0.02827109 -0.0001994481 0.0065422263 0.053268917
0.10163762 0.030216293 -0.061764527 0.0750921 0.022346351 0.089286655 0.0013094584 -0.007088119
-0.003810025 -0.05683747 -0.039297387 -0.0059117274 0.025718916 0.05240997 0.0013588899 0.030260827
-0.024552753 0.038246334 -0.088123225 -0.0005567037 -0.00048743864 -0.016672125 0.026574433 -0.06485956
-0.037527118 -0.033258226 -0.07250671 0.0571861 0.032820307 0.07857079 -0.094141506 0.04726961
-0.050881162 0.04031493 0.02218427 0.004208153 -0.061879836 -0.014189109 -0.06744394 -0.07321027
-0.005089473 0.017495852 0.08706872 -0.06874549 -0.01726005 -0.0978988 -0.0062016826 -0.038249426
0.06931117 0.016540626 -0.020760683 0.01848887 -0.042945083 -0.023791093 -0.014261259 -0.0042173355
0.011811429 0.055022217 0.0016463738 -0.008458752 0.016898798 0.047398794 0.06827404 -0.0015830135
0.04724544 -0.037538193 0.0030998467 -0.07125722 0.046333894 -0.014422952 -0.058052447 -0.055245474
-0.056044467 0.037820045 -0.03044739 0.044396296 0.05459603 -0.06994384 -0.037970424 0.03203572
-0.05337276 -0.05080265 -0.02226438 -0.0003514109 0.044771083 0.0117398985 -0.008801257 0.08003022
-0.063844875 -0.058941558 0.07059048 0.04340464 -0.05014118 -0.013423621 -0.05078539 0.085962534
-0.030144185 0.05920791 0.021251729 -0.094589636 -0.0015021373 -0.0027770763 -0.07672305 -0.045343503
0.0055339932 -0.03167176 0.017903775 0.033834677 0.03792719 -0.06678973 0.0755973 -0.06123648
0.04900388 -0.04024291 -0.0702595 0.03905041 -0.06360043 0.046032798 -0.0077505796 0.018827282
0.07664188 0.0011630595 0.055356693 -0.040849663 0.030508911 0.02996913 -0.014936309 -0.0918247
-0.0908862 0.02339323 0.08051404 -0.074479 -0.007715641 -0.049101297 -0.04833281 0.048598386
0.0101471925 0.048733246 0.008406606 -0.008384665 -0.07470178 0.0768219 -0.058901165 -0.084645554
0.07318037 0.049471777 -0.03194923 -0.014430678 0.027463682 -0.01932439 -0.068019316 -0.039716966
00000000: 0cf5 c23d 4e3b b23c d591 ce3d 7778 f83c
00000010: cd13 ff3c 05ff e93c 65be 7bbd 5efd a13d
00000020: 226f 9abd 75c3 7a3d 2a69 713d 8cdf 023d
00000030: 5284 f83d 17c2 ab3d 505b d93c 0774 8cbd
00000040: b051 3b3b 97a7 6dbd 755e f73c beee dabb
00000050: 7e49 503c eadc 59bd 70ab a7bd be60 663a
00000060: ee6d 39bd 0ae5 b93d e315 803d ceae 2bbd
00000070: 5785 853d a621 d33c f19d 563d de90 88bd
00000080: 0eb8 18bc 46d3 d13d 4df8 913a 0c39 193c
00000090: e056 47bd c2a7 5d3d 1d82 35bd a96b c03c
000000a0: 03ab 513c 6817 3abd a363 353c cd2c 8fbc
000000b0: c9e9 a7ba eb7f 4bbd 1cc0 3cbc 73c1 29bd
000000c0: 00f3 b8bd bc95 943d 5065 15bb b039 05bc
000000d0: a30a 84bd f886 663d 6630 043d cf5d e83c
000000e0: d60c 8b3c fb42 543d 7016 9d3c db49 9d3c
000000f0: 2c67 0e3d b278 653c 48cc 0e3c 75b6 823d
00000100: 6ab1 d23c a812 56bd 2d14 67bd ddcc a13d
00000110: cf2d c63d 3f4a d33c e334 943d 7dd8 b63d
00000120: dc68 943b a211 c63d 152c bebc ba6e 70bd
00000130: 315e 353d 605e a1bd b7dd 003d 1c41 e3bc
00000140: 9655 093d 4ddd bf3c 6865 403d 610f 683a
00000150: bcc3 9e3d 9346 e73d 6c48 963d 2bd9 27bd
00000160: b4b9 adbd 1813 af3d 02a2 1c3d 6823 7e3d
00000170: d14b 6bbd 9444 3abd cb61 38bd 0fbb 98bd
00000180: 787d 2ebd 3a62 ccbb 75e5 27bc 6b0e 4fbc
00000190: c698 e7bc f122 51b9 2c60 d63b 8230 5a3d
000001a0: 6227 d03d 2988 f73c cdfc 7cbd e3c9 993d
000001b0: b20f b73c ecdb b63d 22a2 ab3a 7443 e8bb
000001c0: 9db1 79bb 68ce 68bd 4cf6 20bd 2ab7 c1bb
000001d0: 7ab0 d23c d6ab 563d c71c b23a 8ee5 f73c
000001e0: db22 c9bc 30a8 1c3d f379 b4bd c1ef 11ba
000001f0: e88e ffb9 fb93 88bc a0b2 d93c 17d5 84bd
00000200: 09b6 19bd c739 08bd 667e 94bd f93b 6a3d
00000210: 966e 063d b9e9 a03d 43cd c0bd c79d 413d
00000220: c468 50bd 4521 253d c9bb b53c 8ce4 893b
00000230: b675 7dbd 7079 68bc 0c20 8abd 44ef 95bd
00000240: 98c5 a6bb 7653 8f3c 1651 b23d 6fca 8cbd
00000250: f364 8dbc 2b7f c8bd 7c37 cbbb 6eab 1cbd
00000260: 04f3 8d3d 3580 873c 4f12 aabc f875 973c
00000270: 2fe7 2fbd 8ae5 c2bc 0ea8 69bc 9331 8abb
00000280: b984 413c fa5e 613d 23cb d73a 9496 0abc
00000290: 596f 8a3c 3d25 423d 43d3 8b3d 1e7d cfba
000002a0: 6f84 413d a6c1 19bd cc26 4b3b 4eef 91bd
000002b0: 9cc8 3d3d 3f4e 6cbc 67c8 6dbd 1449 62bd
000002c0: e28e 65bd 31e9 1a3d ce6c f9bc e4d8 353d
000002d0: 16a0 5f3d b73e 8fbd e086 1bbd e337 033d
000002e0: 659d 5abd 7116 50bd ca63 b6bc 933d b8b9
000002f0: e261 373d b458 403c 2633 10bc e2e6 a33d
00000300: 1ac1 82bd b46c 71bd be91 903d 10c9 313d
00000310: d760 4dbd bfee 5bbc 5704 50bd 200d b03d
00000320: f0f0 f6bc fe83 723d 1b18 ae3c 36b8 c1bd
00000330: 5de3 c4ba 9cff 35bb f920 9dbd 1cba 39bd
00000340: 8056 b53b 3fba 01bd f0aa 923c 3b96 0a3d
00000350: 8b59 1b3d 0ec9 88bd c2d2 9a3d 1ad3 7abd
00000360: 4bb8 483d c0d5 24bd 36e4 8fbd 53f3 1f3d
00000370: f140 82bd e38c 3c3d 93f8 fdbb ac3b 9a3c
00000380: 6bf6 9c3d cd71 983a b3bd 623d fa51 27bd
00000390: d3ed f93c d281 f53c 6cb7 74bc 970e bcbd
000003a0: 8b22 babd 29a3 bf3c 8ce4 a43d 7288 98bd
000003b0: 7dd3 fcbb 711e 49bd a0f8 45bd 1a0f 473d
000003c0: 6940 263c 839c 473d dcbb 093c d55f 09bc
000003d0: 3ffd 98bd cd54 9d3d 5942 71bd a65a adbd
000003e0: 97df 953d eba2 4a3d 32dd 02bd a76e 6cbc
000003f0: 84fb e03c 2f4e 9ebc b64d 8bbd 42ae 22bd

fc2.bias f4 [128]
-0.043085027 -0.051195998 -0.05250046 0.0220311 -0.026789617 -0.0072954106 0.06347452 -0.08859693
0.07791932 -0.0009085798 0.00542411 -0.008901658 -0.042462103 -0.0478924 0.012278209 0.04290747
-0.000934721 -0.027575308 -0.055455793 0.044255745 0.07246711 -0.02454693 0.060967915 0.019686207
-0.028272899 -0.03689649 -0.03237735 0.02277538 0.050690826 -0.04874511 0.028060915 0.0052287267
0.0043648086 0.012399327 0.04139131 -0.06606193 0.085637406 -0.051235225 -0.07460761 0.020040372
0.010948585 0.01682626 -0.08442333 0.012612202 0.046486557 0.10176671 -0.028439105 -0.0039014723
0.03455772 -0.03928594 0.014170182 -1.3160472e-05 0.007967247 -0.05926316 -0.07396064 -0.05052094
0.05150881 -0.06922415 0.050417334 0.059460063 -0.092276916 -0.02616755 0.016147614 0.0017101449
-0.090365574 0.056431964 0.0037257196 0.01109461 -0.00062817655 -0.0764913 -0.062254317 -0.021981126
0.070368186 0.01507918 -0.012233255 0.012862111 -0.06442672 0.048859626 0.008526322 0.059905943
-0.100487 0.082682535 0.08563284 -0.029726079 0.02762998 0.021216597 0.04036586 -0.00174259
0.08129718 -0.10360786 -0.0014795201 -0.079617165 -0.047761153 -0.063121706 0.0070632985 0.04036851
0.062911995 -0.036779087 -0.034601577 -0.038661085 -0.046176784 -0.0772387 0.07727104 0.017175613
-0.037077904 -0.059949324 -0.017494699 -0.023986707 0.05402205 -0.0062685614 0.0125424815 0.01615145
-0.045846917 -0.055074077 -0.06480628 0.018348288 -0.009760157 -0.023823844 0.047514252 0.0017955583
0.052836187 -0.09038353 0.010539622 -0.046524867 -0.05869912 -0.03415276 -0.06942715 0.01691027
00000000: ed79 30bd e5b2 51bd b90a 57bd 917a b43c
00000010: e675 dbbc 570e efbb eefe 813d 4f72 b5bd
00000020: 2a94 9f3d c22d 6eba bcbc b13b 42d8 11bc
00000030: beec 2dbd d22a 44bd 8b2a 493c bebf 2f3d
00000040: 1108 75ba 9de5 e1bc 9d25 63bd 8345 353d
00000050: a369 943d a516 c9bc 7eb9 793d f844 a13c
00000060: 919c e7bc c620 17bd 1d9e 04bd 6f93 ba3c
00000070: 2fa1 4f3d f4a8 47bd 01e0 e53c bd55 ab3b
00000080: ab06 8f3b 8c26 4b3c ef89 293d 7a4b 87bd
00000090: aa62 af3d 07dc 51bd e0cb 98bd b52b a43c
000000a0: b261 333c 3ad7 893c 24e6 acbd 69a3 4e3c
000000b0: b068 3e3d 116b d03d 20f9 e8bc d8af 7fbb
000000c0: 658c 0d3d 4bea 20bd 0d2a 683c cccb 5cb7
000000d0: 0e89 023c edbd 72bd ad78 97bd 0cef 4ebd
000000e0: e7fa 523d 64c5 8dbd 6882 4e3d 658c 733d
000000f0: aefb bcbd 545d d6bc 0048 843c f126 e03a
00000100: 9611 b9bd 3425 673d 342b 743b 2bc6 353c
00000110: 37ac 24ba 78a7 9cbd 62fe 7ebd c311 b4bc
00000120: 321d 903d aa0e 773c fe6d 48bc 9bbb 523c
00000130: 28f2 83bd 0821 483d fdb1 0b3c ef5f 753d
00000140: 21cc cdbd 7655 a93d 4560 af3d 1b84 f3bc
00000150: 4558 e23c 6ece ad3c ac56 253d 9e67 e4ba
00000160: 237f a63d 5c30 d4bd 75ec c1ba 530e a3bd
00000170: 33a1 43bd f445 81bd 3e73 e73b 7359 253d
00000180: 01d8 803d aba5 16bd 62ba 0dbd 165b 1ebd
00000190: de23 3dbd 532f 9ebd 4740 9e3d dfb3 8c3c
000001a0: 00df 17bd 6c8d 75bd 0b51 8fbc c57f c4bc
000001b0: 3a46 5d3d 8168 cdbb fb7e 4d3c 0c50 843c
000001c0: fac9 3bbd 5b95 61bd 28b9 84bd 264f 963c
000001d0: 11e9 1fbc 392a c3bc 4e9e 423d f058 eb3a
000001e0: c26a 583d 001b b9bd 61ae 2c3c dc90 3ebd
000001f0: 7d6e 70bd c4e3 0bbd d22f 8ebd 6887 8a3c

fc3.weight f4 [2, 128]
-0.0475522 0.026252776 0.03418355 -0.011854689 0.039108418 0.035649233 0.013051717 -0.08525478
0.055908702 -0.093021624 -0.05780509 -0.0043473644 -0.054735962 -0.054258842 -0.006571229 -0.09491914
0.026719516 0.083485566 -0.08803976 0.037872173 0.043352425 0.05233488 -0.07366401 0.061778806
0.056080516 0.07742982 -0.05733103 -0.04540729 -0.047417834 0.0071085915 -0.08625992 0.049929757
-0.08192144 0.07829005 0.016707102 -0.008189165 -0.036501147 -0.035386525 0.016499791 0.020464772
0.06620576 -0.0045129615 -0.07448374 0.02409555 -0.010083336 -0.06425466 0.055506855 0.061832003
-0.062103134 -0.062260054 0.034048446 0.0065849214 -0.006872693 0.07937328 -0.07847455 -0.005282701
0.05375079 -0.041201845 -0.048681144 0.01269744 -0.06464447 0.0426463 -0.02690252 0.019950172
0.05581608 0.004688797 -0.027369255 -0.06642781 -0.033188555 -0.0457796 -0.008481805 0.08779482
-0.052679047 -0.08690332 0.0075666704 -0.032224655 -0.034941934 -0.060840804 0.06368925 -0.050270915
-0.06282372 -0.045314882 0.031272855 -0.037935194 0.014745777 0.080969825 -0.07908594 0.031322274
-0.079373635 -0.044457067 0.07273397 -0.0062088743 -0.0343109 0.0036727265 0.05573388 0.050700147
-0.07521029 -0.022144906 -0.09768364 0.026863417 -0.011698502 0.04336681 -0.032122143 -0.072475016
-0.061143756 0.056499895 0.002299345 0.052786984 -0.073323086 -0.06605757 -0.055114437 -0.09586494
0.099056624 0.07171202 0.017992608 0.02663405 0.026951766 -0.083031714 -0.07467862 0.07763991
-0.08407335 0.077601634 0.06395677 0.005242557 -0.010265633 -0.005458238 -0.016423302 0.0236565
-0.046950947 -0.0805195 0.07950332 0.039379764 0.042641718 -0.07098477 -0.023679193 -0.0524892
-0.083178475 -0.10422421 -0.0069769616 0.023739569 -0.062250853 -0.049459472 -0.10458768 0.07172414
-0.036866553 -0.06765497 -0.029606726 -0.016096234 0.047937118 0.08375171 0.026810605 0.06284765
-0.09174522 0.0014450934 -0.0702209 0.016522555 -0.019917151 -0.06850855 0.025459724 0.04369162
-0.043513477 -0.04260729 0.056743678 0.05329561 -0.08068446 -0.055315927 -0.07606187 0.03743361
-0.077208966 0.08776084 0.017493103 0.039762713 -0.056430962 0.099147625 -0.09219025 0.04092277
-0.045332544 0.049340375 0.082184985 -0.014749698 -0.038672794 -0.035995115 0.014893413 0.0057371273
-0.07897665 0.09592045 0.045265142 0.05732615 -0.020432636 0.030378222 0.044617373 0.05637399
0.05925374 -0.00075061055 -0.041245002 -0.077319376 -0.08293014 -0.076343335 0.015007833 0.03335064
-0.01097355 -0.073643565 -0.036561046 0.023027034 -0.0691766 -0.057066217 0.058449283 0.07269925
0.018307252 -0.041998133 0.063104264 0.07241504 0.0064822417 0.05676082 -0.026694216 0.077548295
-0.103947565 -0.027421566 0.047052287 0.05235661 0.015268157 0.08120412 0.051448535 -0.0150517775
-0.046634592 -0.07084048 -0.069848605 0.021922557 0.04990813 -0.056956977 -0.06976507 -0.018875232
0.020773519 0.009751844 0.087957785 0.046019815 0.028975576 -0.08534438 -0.085404724 -0.086339645
-0.04205833 -0.06226273 -0.045766715 0.052775044 0.038742915 0.078353725 -0.10165044 0.018550027
-0.0028505865 -0.07528562 0.039888836 -0.0051659355 -0.008942439 -0.07872682 0.096867695 -0.038451903
00000000: 18c6 42bd 1010 d73c 0d04 0c3d 2b3a 42bc
00000010: 2630 203d ee04 123d ded6 553c 0f9a aebd
00000020: 8600 653d 1f82 bebd 08c5 6cbd 5674 8ebb
00000030: d132 60bd 853e 5ebd 7753 d7bb f764 c2bd
00000040: e3e2 da3c 7bfa aa3d 314e b4bd da1f 1b3d
00000050: 5092 313d 195d 563d 28dd 96bd c60b 7d3d
00000060: afb4 653d 8793 9e3d f1d3 6abd fffc 39bd
00000070: 3439 42bd 30ef e83b 0aa9 b0bd 2583 4c3d
00000080: 6ec6 a7bd 8956 a03d 55dd 883c d92b 06bc
00000090: 3a82 15bd 76f1 10bd 922a 873c bda5 a73c
000000a0: e396 873d 77e1 93bb ee8a 98bd 0864 c53c
000000b0: 9434 25bc f297 83bd 285b 633d 8e43 7d3d
000000c0: db5f 7ebd 6604 7fbd 6276 0b3d 53c6 d73b
000000d0: 5434 e1bb 758e a23d 44b7 a0bd 821a adbb
000000e0: ca29 5c3d 44c3 28bd e165 47bd ec08 503c
000000f0: 5264 84bd e3ad 2e3d ac62 dcbc 8b6e a33c
00000100: 679f 643d 7ba4 993b 7d35 e0bc 4e0b 88bd
00000110: b9f0 07bd 6483 3bbd 45f7 0abc c5cd b33d
00000120: fcc5 57bd 5efa b1bd d5f1 f73b 00fe 03bd
00000130: 461f 0fbd 3534 79bd 826f 823d e0e8 4dbd
00000140: b9a9 80bd 199c 39bd f717 003d ef61 1bbd
00000150: 4598 713c 82d3 a53d cff7 a1bd c94b 003d
00000160: a58e a2bd 9d18 36bd 8cf5 943d d073 cbbb
00000170: 9689 0cbd 20b2 703b 3549 643d f5aa 4f3d
00000180: da07 9abd 3c69 b5bc 5c0e c8bd ab10 dc3c
00000190: 13ab 3fbc 65a1 313d 8292 03bd c86d 94bd
000001a0: e071 7abd 6f6c 673d 9cb0 163b 2a37 583d
000001b0: 6a2a 96bd 3149 87bd adbf 61bd d654 c4bd
000001c0: 33de ca3d c0dd 923d 3c65 933c a72f da3c
000001d0: f3c9 dc3c 880c aabd 1bf1 98bd ac01 9f3d
000001e0: a62e acbd 9bed 9e3d c4fb 823d c1c9 ab3b
000001f0: 3031 28bc 05db b2bb 298a 86bc 47cb c13c
00000200: a34f 40bd 68e7 a4bd a3d2 a23d ad4c 213d
00000210: 15a9 2e3d 7760 91bd defa c1bc eafe 56bd
00000220: 7a59 aabd 8173 d5bd ff9e e4bb 7c79 c23c
00000230: c0fa 7ebd 0496 4abd 1132 d6bd 1be4 923d
00000240: 6201 17bd b08e 8abd ce89 f2bc 40dc 83bc
00000250: b659 443d 0486 ab3d eaa1 db3c 45b6 803d
00000260: ebe4 bbbd 4a69 bd3a facf 8fbd 4f5a 873c
00000270: 4b29 a3bc 364e 8cbd e990 d03c fcf5 323d
00000280: 303b 32bd fb84 2ebd 0f6c 683d 7f4c 5a3d
00000290: e53d a5bd f492 62bd 53c6 9bbd fc53 193d
000002a0: bc1f 9ebd f5bb b33d b24d 8f3c 3ade 223d
000002b0: 2724 67bd e90d cb3d 3ece bcbd a29e 273d
000002c0: 9eae 39bd 2219 4a3d 9a50 a83d b8a8 71bc
000002d0: 5d67 1ebd 9d6f 13bd 8003 743c 83fe bb3b
000002e0: 83be a1bd f171 c43d f167 393d d3ce 6a3d
000002f0: 5862 a7bc c0db f83c b5c0 363d 6ae8 663d
00000300: 0db4 723d 9fc4 44ba 85f0 28bd 9f59 9ebd
00000310: 47d7 a9bd e559 9cbd 6ae3 753c ae9a 083d
00000320: 68ca 33bc 70d2 96bd 09c1 15bd 31a3 bc3c
00000330: 76ac 8dbd 44be 69bd 8468 6f3d 58e3 943d
00000340: 17f9 953c 3c06 2cbd cf3c 813d 564e 943d
00000350: fc68 d43b 097e 683d d4ad dabc a4d1 9e3d
00000360: 76e2 d4bd 31a3 e0bc e6b9 403d e273 563d
00000370: 4b27 7a3c 584e a63d b3bb 523d bb9b 76bc
00000380: ea03 3fbd d014 91bd c90c 8fbd ef96 b33c
00000390: 786c 4c3d b84b 69bd fde0 8ebd 3ba0 9abc
000003a0: 3a2d aa3c 33c6 1f3c 3623 b43d 467f 3c3d
000003b0: 305e ed3c 09c9 aebd ace8 aebd d7d2 b0bd
000003c0: 5b45 2cbd 3407 7fbd e175 3bbd a52a 583d
000003d0: e4b0 1e3d eb77 a03d 1b2e d0bd 3af6 973c
000003e0: e8d0 3abb 592f 9abd 7a62 233d 0247 a9bb
000003f0: 4f83 12bc 873b a1bd 9262 c63d be7f 1dbd

fc3.bias f4 [2]
-0.039269425 -0.08307981
00000000: fad8 20bd bf25 aabd
