modelSimulation/checkpoint-episode-400.tar (torch_old, 568633 bytes, 6 tensors)

fc1.weight f4 [128, 976]
0	0xbc20ad0f	-0.009806885
1	0xbc9a8477	-0.018861992
2	0xbcb110b6	-0.021614414
3	0x3bc055be	0.0058695963
4	0xbc9dd1df	-0.019265113
5	0xbca2c97a	-0.019871462
6	0xbbce8dc1	-0.0063035195
7	0x3b3704c8	0.0027926434
8	0x3c4b13aa	0.012394825
9	0x3c720ab6	0.0147730615
10	0x3cf1bf93	0.029510295
11	0x3b34c4f1	0.0027583207
12	0xbc4e897f	-0.012606024
13	0xbc6ef043	-0.01458365
14	0xbc5df576	-0.013547292
15	0x3c0b40c2	0.008499326
16	0x3ce9553c	0.028483026
17	0x3cdbe313	0.026841676
18	0x3cea726e	0.028619017
19	0xbcca83b0	-0.024720997
20	0x3a74eed9	0.00093434524
21	0x3cfc52c2	0.03080118
22	0x3bae468e	0.0053184694
23	0xbc27d08f	-0.010242595
24	0x3d02c8f6	0.031929933
25	0x3cb6402a	0.022247393
26	0xbb0d4bbc	-0.0021560034
27	0x3be9400f	0.007118232
28	0x3c36168d	0.011113775
29	0xbb90b79a	-0.0044164183
30	0x3cb564d9	0.022142814
31	0xbcea2d48	-0.028586045
32	0x3c551785	0.013006096
33	0x3cd7f25f	0.026360689
34	0xbccd309a	-0.02504759
35	0x3c93178a	0.01795556
36	0x3c4d4ca2	0.012530478
37	0xbc8cefdc	-0.017204218
38	0xbc9a862f	-0.018862812
39	0x3b596c68	0.0033176187
40	0xb983dc3a	-0.0002515035
41	0x3b2545f2	0.0025218693
42	0x3c9d9cad	0.019239748
43	0x3cec96bd	0.028880471
44	0x3c9dbeeb	0.019256076
45	0x3c8354d3	0.016031658
46	0x3ce28e58	0.027655765
47	0x3ca09ac4	0.019605048
48	0xbc0099f2	-0.007849203
49	0x3c2791c7	0.010227627
50	0xbcc45abd	-0.023969049
51	0xbc9ee224	-0.019394942
52	0xbcb5b481	-0.022180798
53	0xbccc1680	-0.024913073
54	0xbbd80c42	-0.006593258
55	0xbc998432	-0.018739793
56	0xbcd5ae4b	-0.026084086
57	0x3c7ce0d9	0.015434467
58	0xbc687da3	-0.01419011
59	0xbb7b35b2	-0.0038331565
60	0xbcb2abec	-0.021810494
61	0xbbc38a98	-0.0059674494
62	0x3c145475	0.009053339
63	0x3c21d733	0.009877968
64	0xbc735e45	-0.014854019
65	0xbc0fc4d3	-0.008774954
66	0xbc5698a6	-0.013097918
67	0x3c396a8f	0.011316909
68	0xbc90e060	-0.017685115
69	0x3cd26684	0.025683649
70	0x3c1a2e56	0.009410461
71	0xbc4b5cd7	-0.012412271
72	0xbbf8648e	-0.0075803464
73	0xbc1d0c96	-0.00958552
74	0x3b8e31f7	0.0043394524
75	0xbc8fc291	-0.017548831
76	0x3cd847ef	0.026401488
77	0x3ce0626b	0.02739068
78	0xbc0f8d09	-0.008761653
79	0xbbb40963	-0.005494283
80	0x3cc04b24	0.02347333
81	0x3b57b3fc	0.0032913676
82	0xbc80ddbb	-0.01573073
83	0x3cd1d04b	0.025612017
84	0x38f68dd8	0.000117566145
85	0xbccc6b9f	-0.024953661
86	0xbc402d25	-0.011729513
87	0xbcb5b009	-0.022178667
88	0x3cf75772	0.030193064
89	0x3cef2754	0.029193558
90	0x3cf8ab67	0.030355169
91	0x3bac7754	0.0052632485
92	0xbb2abc6a	-0.0026052245
93	0xbb63bfaf	-0.0034751703
94	0xbcb7b273	-0.022423958
95	0xbcd72e0d	-0.026267076
96	0x3cdcaae5	0.026936958
97	0x3cf07fe9	0.029357867
98	0x3cad4b27	0.021154
99	0x3c896ec6	0.016776454
100	0xbbc013ec	-0.00586175
101	0x3cfa5f9e	0.030563172
102	0x3c81a908	0.01582767
103	0xbd00f8a6	-0.03148713
104	0x3cbebc70	0.023283213
105	0x3a3a9b8b	0.00071185146
106	0xbc9549cf	-0.018223671
107	0x39d9bda2	0.00041530753
108	0xbcba5233	-0.022744274
109	0x3c4a8cd0	0.012362674
110	0x39e45dbc	0.00043557386
111	0xbb190804	-0.0023350725
112	0x3b870706	0.0041207103
113	0xbca1937e	-0.01972365
114	0x3ca4fa5e	0.020138916
115	0x3cc391f7	0.023873312
116	0x3c3032b4	0.010754276
117	0x3c54429b	0.012955333
118	0x3d02c3cf	0.03192502
119	0x3ca8705b	0.020561388
120	0xbc06fb22	-0.008238586
121	0x3cdf8daa	0.02728923
122	0xbce8f213	-0.028435742
123	0xbd0294ae	-0.031880073
124	0xbc8cd02e	-0.017189112
125	0xba869176	-0.0010266739
126	0x3cbb1585	0.02283741
127	0xbc8fe1db	-0.017563751
128	0x3cd085c2	0.025454406
129	0xbc102a2f	-0.00879912
130	0x3b9ec0f3	0.0048447787
131	0xbc893c0c	-0.016752265
132	0x3cfbd58b	0.030741474
133	0x3ba991da	0.0051748576
134	0xbc4d6542	-0.012536349
135	0xbc8c0040	-0.017089963
136	0x3cf0eb30	0.029409021
137	0xbcae7de9	-0.021300273
138	0xbc1f3e53	-0.009719449
139	0xbc164b72	-0.009173261
140	0x37a9ec34	2.025636e-05
141	0xbc094e74	-0.008380521
142	0x3bcd9390	0.0062736943
143	0xbcd260f5	-0.025680998
144	0x3ccbed8a	0.02489354
145	0x3c22a63c	0.009927329
146	0x39eea036	0.00045514264
147	0xbc25a22b	-0.010109465
148	0x3ce43cf3	0.027861094
149	0x3b5f4a05	0.0034071219
150	0xbbddd923	-0.0067702695
151	0xbcb7a7ef	-0.022418944
152	0x3c12a710	0.008950964
153	0x3c6908d7	0.014223299
154	0x3ce750db	0.028236797
155	0xbb90bf78	-0.004417356
156	0xbb9172fa	-0.004438755
157	0xbb79d4eb	-0.0038121294
158	0xbc8c4d8f	-0.017126827
159	0x39a5bb9a	0.00031611026
160	0x3b948dc5	0.004533502
161	0x3ceb28a4	0.028705902
162	0x3bac24ea	0.005253424
163	0xbc932d76	-0.017966013
164	0x3c3ce019	0.011528038
165	0xbc66cf47	-0.014087505
166	0xbc209319	-0.009800696
167	0xbcadb8ee	-0.021206345
168	0x3c1df7b0	0.009641573
169	0xbc4f2a82	-0.012644412
170	0x3c97c089	0.018524425
171	0xbc8eec4f	-0.017446665
172	0x3bc246eb	0.0059288642
173	0x3c02b31b	0.007977272
174	0xbc25f7e0	-0.010129899
175	0x3c6bf357	0.014401278
176	0xbcb7071d	-0.022342259
177	0x3b387d89	0.0028150997
178	0x3cd28a83	0.025700813
179	0x3bf952e0	0.0076087564
180	0x3c772ea8	0.015086807
181	0x3cc700c3	0.024292355
182	0xbcb83964	-0.022488303
183	0x3c8f32bf	0.017480252
184	0xbcfbae79	-0.030722843
185	0x3ca911fb	0.020638457
186	0x3c6d1383	0.014469984
187	0xbab53bfe	-0.0013827083
188	0x3cacfe2a	0.021117289
189	0x3b31f160	0.0027151927
190	0x3b1dfb2e	0.0024106014
191	0xbcda3d52	-0.026640568
192	0xbc4a483a	-0.012346322
193	0xbb85f561	-0.0040880893
194	0xbcfafa40	-0.030636907
195	0xbb8d498e	-0.004311747
196	0x3b3cec8b	0.0028827514
197	0x3937f358	0.00017542893
198	0xbb52293d	-0.0032068037
199	0xbcfb23ef	-0.030656783
200	0xbbe3798f	-0.006941981
201	0xbbe70abc	-0.00705084
202	0x3c2a884e	0.010408474
203	0xb7bc4ac4	-2.2446162e-05
204	0x3c5723f6	0.013131132
205	0xbc649411	-0.013951317
206	0x3cb495ca	0.022044081
207	0xbce0be9e	-0.027434643
208	0x3bd16db6	0.0063912524
209	0xbcc9a7e5	-0.024616191
210	0xbc3f7f41	-0.011688055
211	0xbcfec1f4	-0.031098343
212	0x3cb0919b	0.021553805
213	0xbc82b1db	-0.015953949
214	0x3c022da1	0.007945449
215	0xbc616023	-0.013755831
216	0xbc89044e	-0.016725685
217	0xbc2c14cf	-0.010503008
218	0xbc8f7499	-0.017511653
219	0xbc591c21	-0.013251335
220	0x3b96beea	0.0046003954
221	0xbcb32dd9	-0.021872448
222	0xbbbd765f	-0.005781933
223	0x3c76727b	0.015041943
224	0xbc2cef9b	-0.010555173
225	0xbcdb56f4	-0.02677486
226	0x3cf9831a	0.030458022
227	0xbc92576e	-0.017863955
228	0x3cdb8dc9	0.026801007
229	0x3c9cca96	0.01913957
230	0x3c1b9971	0.0094970325
231	0x3ce40967	0.027836515
232	0xbd00780a	-0.03136448
233	0xbc3b29d3	-0.011423546
234	0xbc88a289	-0.016679065
235	0x3b5fc9ef	0.0034147461
236	0xbc76d864	-0.01506624
237	0x3c06ef33	0.0082357405
238	0xbbb97e96	-0.005660842
239	0x3bbcf8de	0.005766972
240	0x3c085a99	0.008322381
241	0xba85a31c	-0.0010195705
242	0x3cdfe509	0.027330892
243	0xbc4aad3a	-0.012370402
244	0xbca5dbe8	-0.020246461
245	0x3cbd0536	0.023073774
246	0x3c4c71cc	0.012478303
247	0xbcf55f75	-0.029952744
248	0x3c23c76e	0.009996278
249	0x3c4985bf	0.012299954
250	0x3cf0f050	0.029411465
251	0x3cdcc06d	0.026947225
252	0xbcf27de0	-0.029601038
253	0x3cebfa9c	0.028806023
254	0x3bd5eb3d	0.0065282867
255	0x3c50f39a	0.012753392

fc1.bias f4 [128]
0	0x3ca367fe	0.019947048
1	0x3cd7f729	0.026362972
2	0x396abbe4	0.00022385974
3	0x3ca85820	0.020549834
4	0x3c4ec9d4	0.012621362
5	0xbc2533b0	-0.010083124
6	0x3d046052	0.03231842
7	0x3cf55a43	0.029950267
8	0x3bcf665f	0.0063293423
9	0x3ba4ddb4	0.005031312
10	0xbcc5b8d6	-0.024135988
11	0xbbb34c87	-0.0054717693
12	0x3bfc8f5c	0.0077075195
13	0x3cab6015	0.020919839
14	0xbc78332d	-0.01514892
15	0xbcca06bb	-0.024661412
16	0x3d00d6c9	0.031454835
17	0x3b2adf63	0.002607309
18	0xbcbddc19	-0.02317624
19	0xbc5a4cb1	-0.013323949
20	0x3cd3653e	0.025805112
21	0xbb63fee0	-0.0034789369
22	0x3c988748	0.018619195
23	0xbbfb003c	-0.00765994
24	0x3ce10bcd	0.027471447
25	0xbb970190	-0.0046083406
26	0xbce14adb	-0.027501514
27	0xbce65731	-0.028117748
28	0xbc8401fa	-0.016114224
29	0x3cbecf9f	0.02329236
30	0x3cff3f83	0.031158214
31	0xba94e73b	-0.0011360416
32	0x3cf1d5a7	0.029520823
33	0xbcf1b7b1	-0.029506536
34	0x3cb2b2de	0.021813806
35	0xbb2de3d0	-0.0026533492
36	0xbc0fb3da	-0.008770907
37	0x3caa0d1c	0.020758204
38	0xbc826e07	-0.015921606
39	0xbc7688e4	-0.015047286
40	0xbcd7d5d3	-0.026347077
41	0x3c46596d	0.012106282
42	0xbc784d54	-0.015155155
43	0x3cef4be4	0.029210992
44	0x3bc04c99	0.005868506
45	0x3abb19a8	0.0014274614
46	0x3cd14bc5	0.025548825
47	0xbc79f8e2	-0.015257092
48	0xbbd4fef0	-0.0065001175
49	0xbc9f3cb2	-0.019438121
50	0xbc6172d4	-0.013760287
51	0x3c918b65	0.017766664
52	0x3a3452c0	0.0006878786
53	0x3c2ce347	0.010552234
54	0xbcc4aedd	-0.024009163
55	0x3cd6a860	0.026203334
56	0x3a9d6056	0.001200686
57	0x3d046d2e	0.032330684
58	0xbcfc51e6	-0.030800771
59	0xbb2d49ad	-0.002644162
60	0x3c81800c	0.015808128
61	0xbccdcc74	-0.025121905
62	0x3cce81d5	0.025208393
63	0xbc83c09e	-0.016083058
64	0xbccc448a	-0.024935026
65	0xbcd2d226	-0.025734972
66	0xbc6fc9c4	-0.014635507
67	0x3ce1491b	0.02750068
68	0xbb9fee08	-0.0048806705
69	0xbc89bd1d	-0.016813809
70	0x3cd54c82	0.026037458
71	0xbc8557bd	-0.016277188
72	0x3c0d242d	0.008614582
73	0x3ba921e7	0.005161512
74	0xbc444512	-0.011979358
75	0x3c3a5cd4	0.011374671
76	0x3cb83c80	0.022489786
77	0x38e47014	0.000108927634
78	0xbc8c4974	-0.017124869
79	0x3ca4fbfa	0.020139683
80	0x3ccba07e	0.024856802
81	0x3c9d1167	0.019173337
82	0x3a620b7d	0.00086229277
83	0x3b07c920	0.0020719245
84	0x3caeedd8	0.021353647
85	0x3cbdad20	0.023153841
86	0x3b94ace4	0.0045372117
87	0x3c561920	0.013067514
88	0xbbbfdc10	-0.005855091
89	0x3c5b4330	0.013382718
90	0x3cad6ae1	0.021169128
91	0xbbffa3b2	-0.0078014964
92	0xbc9371b3	-0.017998552
93	0x3c213b13	0.009840745
94	0xbcfccdeb	-0.030859908
95	0xbc49417f	-0.012283682
96	0xbcd58ac2	-0.026067141
97	0x3d024a65	0.03180923
98	0x3c9668dc	0.018360548
99	0x3cc12696	0.02357797
100	0xb9c62d80	-0.00037799403
101	0x3cec1d94	0.028822698
102	0x3b252258	0.0025197472
103	0xbc29bc36	-0.010359814
104	0x3c92fd0a	0.017942924
105	0xbbd0edb2	-0.0063759917
106	0xbc50c4c1	-0.012742222
107	0xbc452aa0	-0.012034088
108	0x3b075fad	0.0020656392
109	0xbd023ee7	-0.03179827
110	0x3c3d0dbc	0.011538919
111	0xbb690873	-0.0035558015
112	0x3c600cbe	0.013674913
113	0xbcc783b7	-0.024354799
114	0xbcba8cd8	-0.022772238
115	0xbc90cc61	-0.01767558
116	0xbc6ce471	-0.014458762
117	0xbcacf086	-0.021110784
118	0x3c09f720	0.008420736
119	0x3cd2c43a	0.025728334
120	0xbb1a963e	-0.0023588086
121	0xbcb7bae1	-0.022427978
122	0xbc37a3c4	-0.011208478
123	0x39b9e4b1	0.00035456338
124	0xbcedf6ef	-0.029048411
125	0xbce3d0a6	-0.027809452
126	0x3ce6d5b7	0.028178079
127	0x3ac1ce43	0.0014786202

fc2.weight f4 [128, 128]
0	0x3d050f54	0.03248532
1	0xbd84354d	-0.06455479
2	0xbda9773f	-0.082746975
3	0xbd388f3d	-0.045058478
4	0xbd2f303d	-0.042770613
5	0xbc0e75e8	-0.008695103
6	0xbca704ba	-0.020387996
7	0xbab14bff	-0.0013526677
8	0xbba57960	-0.0050498694
9	0xbd9acb63	-0.07558324
10	0x3d560ee4	0.052260295
11	0xbda02828	-0.07820159
12	0xbcb857ce	-0.022502806
13	0x3d96721a	0.07345982
14	0x3d893d84	0.06701186
15	0xbd6e2042	-0.058136232
16	0x3d90f333	0.070776366
17	0x3c38b73e	0.011274157
18	0x3d929845	0.07157949
19	0x3bc765eb	0.0060851476
20	0xbd8fd657	-0.07023304
21	0x3d864e1b	0.06557866
22	0xbdaf1aa2	-0.08550002
23	0xbd8c4d05	-0.06850628
24	0xbd8d052e	-0.068857536
25	0xbc1c1840	-0.009527266
26	0xbd2be33b	-0.04196475
27	0xba57ef4f	-0.0008237259
28	0x3d861c16	0.06548326
29	0x3d7d1048	0.061783105
30	0x3d9076de	0.07053922
31	0xbd4a32af	-0.049364742
32	0x3d4b9131	0.049699012
33	0x3d44be5b	0.0480331
34	0xbcd2b974	-0.025723197
35	0x3da31f56	0.07964961
36	0xbdb2bcd6	-0.08727424
37	0x3d977eb6	0.07397215
38	0x3d755c9d	0.059902776
39	0xbd6543ab	-0.055972736
40	0xbc5d7213	-0.013515967
41	0xbd4ccde3	-0.050001036
42	0x3d03aec3	0.032149088
43	0x3d9ba7f9	0.076003976
44	0x3da2f772	0.07957353
45	0xbd9ef24c	-0.07761058
46	0x3d402a28	0.046915203
47	0xbd9973ee	-0.07492815
48	0xbd9cd3d8	-0.076575935
49	0x3c917042	0.017753724
50	0x3d00a549	0.03140763
51	0x3d9c7aa3	0.076405786
52	0x3c08bdb1	0.008346007
53	0x3c8a50bf	0.016884206
54	0x3d43855b	0.0477346
55	0xbd55ad38	-0.052167147
56	0xbc7fc59e	-0.01561108
57	0xbc997266	-0.018731307
58	0xbd8a429f	-0.06750988
59	0xbd925e67	-0.07146912
60	0x39899692	0.0002624286
61	0x3d13672b	0.03598706
62	0xbd7d6348	-0.06186226
63	0x3d749a3f	0.059717413
64	0xbd17b3b6	-0.03703662
65	0x3bfbb5f0	0.0076816007
66	0x3d54d958	0.051965088
67	0x3daa3a81	0.0831194
68	0x3d0a52b2	0.03377027
69	0x3c8174db	0.015802791
70	0xbcea916c	-0.028633796
71	0xbd9fe331	-0.07807005
72	0x3d9c27bf	0.076247685
73	0x3beb249e	0.007175996
74	0x3d57ca7a	0.05268333
75	0xb931735c	-0.0001692301
76	0x3a22ac15	0.0006205452
77	0x3cd26a0d	0.025685335
78	0xbd76dd58	-0.060269684
79	0x3d8d0bff	0.06887054
80	0x3d8108f4	0.06300536
81	0x3d3e7599	0.04649887
82	0xbd88c6b5	-0.06678525
83	0xbda28896	-0.07936208
84	0x3da08f81	0.07839871
85	0x3da7a588	0.081858695
86	0xb8d2d97f	-0.00010054092
87	0xbd4877fb	-0.048942547
88	0xbda3197f	-0.07963847
89	0x3c8c54b1	0.017130228
90	0xbc39557f	-0.011311888
91	0xbd7da6d7	-0.06192669
92	0xbc654da9	-0.013995566
93	0x3c603bb0	0.013686106
94	0xbbae5640	-0.0053203404
95	0x3d4bb80e	0.049736075
96	0xbc7fddd7	-0.015616856
97	0x3ce8dc1d	0.02842527
98	0xbd7f82cd	-0.0623806
99	0x3bc23cbf	0.0059276517
100	0xbcf417bd	-0.029796476
101	0xbd98f877	-0.07469266
102	0x3d8f5471	0.06998528
103	0xbc5f8678	-0.0136429
104	0x3c07c0af	0.008285685
105	0xbdafadb2	-0.085780516
106	0x3d589e62	0.05288542
107	0x3cefe7ce	0.029285338
108	0x3c879475	0.016550282
109	0x3d61c6bb	0.055121165
110	0xbd6a80d0	-0.05725175
111	0x3d0f8517	0.035039034
112	0xbd9ee91e	-0.07759307
113	0x39ddafe8	0.00042283465
114	0xbd53caa0	-0.05170691
115	0x3d9b0370	0.07569015
116	0xbd96e4dc	-0.0736787
117	0xbc6508d8	-0.013979159
118	0x3af4752e	0.0018650645
119	0xbc15763d	-0.0091224285
120	0xbd00d524	-0.031453267
121	0x3a034dcf	0.0005008848
122	0xbd8f0a20	-0.06984353
123	0xbc350514	-0.011048574
124	0xbd426c67	-0.04746666
125	0x3da30e7d	0.07961748
126	0xbc44c808	-0.012010582
127	0xbd684671	-0.056707803
128	0x3ce2ff84	0.02770973
129	0x3d35e32e	0.04440611
130	0xbd499970	-0.049218595
131	0x3c6a46e8	0.014299132
132	0x3db1b32d	0.08676753
133	0x3ac79880	0.0015227944
134	0xbcebeeb2	-0.028800342
135	0xbd99c390	-0.07508004
136	0xbc109580	-0.008824706
137	0xbba184c0	-0.004929155
138	0xbd192194	-0.03738554
139	0x3d951df9	0.072811075
140	0xbda40cca	-0.08010252
141	0xbc908648	-0.017642155
142	0xbd93d2de	-0.07217954
143	0xbd987f47	-0.07446151
144	0xbd95f360	-0.07321811
145	0xbd973fc8	-0.07385212
146	0xbcd76052	-0.026291046
147	0xbd72efd4	-0.05931075
148	0xbd58d7af	-0.052940067
149	0x3d986cb9	0.07442612
150	0xbd568153	-0.052369427
151	0xbca734f8	-0.020411
152	0x3c4272c8	0.011868186
153	0xbc627ac8	-0.013823219
154	0xbd38ec67	-0.045147326
155	0xbd73c1c4	-0.05951096
156	0xbc516f38	-0.012782864
157	0xbd3d83cd	-0.046268273
158	0xbc827cbc	-0.015928619
159	0xbd8c1f24	-0.06841877
160	0xbc517c08	-0.012785919
161	0xbd41bccd	-0.047299195
162	0xbd21b9a7	-0.039483692
163	0xbc91685c	-0.017749958
164	0x3d3b71a6	0.04576268
165	0xbd22e7ff	-0.03977203
166	0xbdaf991d	-0.08574126
167	0xbd28592a	-0.04110066
168	0x3d93ae31	0.07210959
169	0xbd89205b	-0.066956244
170	0xbdb17d8e	-0.08666526
171	0xbd42968c	-0.047506854
172	0xbd9cfd61	-0.07665516
173	0x3d91c0cd	0.07116852
174	0xbc588398	-0.013214968
175	0x3c39edb0	0.011348173
176	0xba174200	-0.00057700276
177	0x3db002b9	0.08594269
178	0xbc83fa90	-0.016110688
179	0x3d8c0895	0.068375744
180	0xbd88f315	-0.06686989
181	0xbcdce0d4	-0.026962675
182	0xbb5df8c0	-0.003387019
183	0xbc2be620	-0.010491878
184	0x3bc0c7e0	0.005883202
185	0xbb921440	-0.0044579804
186	0x3c8ca924	0.017170496
187	0x3d849343	0.064734004
188	0xbca87c5c	-0.020567112
189	0xbd14eb6b	-0.036357325
190	0xbcdca8c6	-0.026935946
191	0xbd29e220	-0.041475415
192	0x3cc068e0	0.023487508
193	0xbbb26f70	-0.0054454133
194	0x3d82a5d1	0.06379283
195	0x3d61d0aa	0.05513064
196	0xbd876474	-0.06610957
197	0x3cf15fd8	0.029464647
198	0xbcfcea8a	-0.030873556
199	0xbda0714a	-0.07834108
200	0x3d8a85cb	0.067638
201	0x3c6ba818	0.014383338
202	0x3ca11c70	0.01966688
203	0xbd5b7649	-0.053579602
204	0x3dab205b	0.08355781
205	0xbd26c642	-0.040716417
206	0x3d2375da	0.039907314
207	0x3da7eae1	0.081990965
208	0x3cfeeb20	0.031117976
209	0xbbb2c4d0	-0.005455591
210	0xbd260447	-0.040531423
211	0xbd528077	-0.051392045
212	0xbd802ca3	-0.06258514
213	0x3c19d0c8	0.009388156
214	0xbd6e8d66	-0.058240317
215	0x3d6e609a	0.058197595
216	0xbd6438b8	-0.055718154
217	0x3d6fd2c6	0.05855062
218	0xbda12252	-0.07867874
219	0xbdada6cb	-0.08479079
220	0xbd5b9067	-0.05360451
221	0x3bf27860	0.0073996037
222	0xbb05bb20	-0.0020405725
223	0x3c014638	0.007890277
224	0xbd95f316	-0.073217556
225	0x3d43ad6a	0.047772802
226	0x3ceec3dc	0.029146127
227	0xbd503344	-0.05083014
228	0xbc410970	-0.011782035
229	0x3d6d032e	0.05786436
230	0xbcfb05bc	-0.030642383
231	0x3dac38cd	0.084092714
232	0xbcfbb1cc	-0.030724429
233	0x3d201b6a	0.039088644
234	0xbd1e045a	-0.03857837
235	0x3d76ccba	0.060253836
236	0xbcd957ea	-0.026531179
237	0x3d29ac16	0.04142388
238	0x3d00c930	0.031441867
239	0x3d3e1dd2	0.046415158
240	0xbcb5b7f0	-0.022182435
241	0xbd0f60b2	-0.035004325
242	0xbd6ef889	-0.05834249
243	0xbd2aad17	-0.041668978
244	0xbd9a609f	-0.0753796
245	0xbd48ae53	-0.048994374
246	0x3d61c28a	0.055117168
247	0xbda7b34c	-0.08188495
248	0xbc95ffc8	-0.018310443
249	0x3d30ec56	0.043194138
250	0x3da97d47	0.08275848
251	0xbdb45896	-0.08805959
252	0x3d9bc8c9	0.07606656
253	0xbdad8170	-0.08471954
254	0x3b704d00	0.003666699
255	0x3d8b2e95	0.06795994

fc2.bias f4 [128]
0	0x3c42c8de	0.011888711
1	0xbd38ee99	-0.04514942
2	0xbcb2a678	-0.021807894
3	0xbd1f2926	-0.0388576
4	0xbd82d1fb	-0.06387707
5	0xbcf7a754	-0.030231155
6	0xbd197206	-0.037462257
7	0x3d0606e7	0.032721426
8	0x3d650d41	0.055920843
9	0xbdab7f78	-0.08373922
10	0x3d28ea26	0.041238926
11	0xbd2b2713	-0.04178531
12	0xbdaa2906	-0.08308606
13	0x3cea69f4	0.028614976
14	0x3d8e5c25	0.06951169
15	0xbcd1cc20	-0.02561003
16	0xbd916b2c	-0.071005195
17	0x3d829ea6	0.06377916
18	0x3cde9bc2	0.02717388
19	0x3d4b11ce	0.049577527
20	0x3d901b30	0.070364356
21	0xbd9350d4	-0.07193151
22	0xbcc53b00	-0.024075985
23	0x3d0b81bf	0.034059282
24	0xbd9acbae	-0.0755838
25	0xbd87379b	-0.06602403
26	0xbd57c7ae	-0.052680664
27	0xbd190e99	-0.037367437
28	0xbd99a628	-0.07502395
29	0xbcef6716	-0.02922396
30	0x3d01f558	0.03172812
31	0x3d2b639b	0.041843038
32	0x3beec79c	0.007286979
33	0x3d45c346	0.04828193
34	0x3cd0c64d	0.025485182
35	0xbd772b26	-0.060343884
36	0x3c9aa3f0	0.018877
37	0xbd87b910	-0.06627095
38	0x3cde1c4c	0.027113102
39	0xbbd2a5f0	-0.0064284727
40	0xbd832e09	-0.06405265
41	0x3d1e1f7f	0.038604256
42	0xbd91e2cd	-0.07123337
43	0xbb188117	-0.0023270303
44	0x3d0d9c08	0.03457263
45	0x3d7e02e4	0.062014475
46	0xbd71b0b4	-0.059006408
47	0x3d8c3b86	0.06847291
48	0xbce6eeee	-0.028190102
49	0x3d5bb551	0.053639714
50	0x3d831fc8	0.06402546
51	0x3d9bf286	0.07614617
52	0xbd5641eb	-0.052308958
53	0x3d1c70f5	0.03819366
54	0x3d9ed506	0.07755475
55	0x3c394e50	0.011310175
56	0x3c99101d	0.018684441
57	0xbda06b5e	-0.07832979
58	0x3d4cbb52	0.04998333
59	0xbd8cd2e4	-0.06876162
60	0xbbd4be65	-0.0064924234
61	0xbc47cbb0	-0.012194559
62	0xbd9c4be5	-0.07631663
63	0xbd1b1c3e	-0.03786873
64	0x3cd8cfce	0.026466276
65	0xbd5d8999	-0.0540863
66	0x3db0a375	0.08624927
67	0x3d53ed2b	0.051739853
68	0xbd938457	-0.07202976
69	0x3cb30a67	0.021855546
70	0xbb06b9ef	-0.0020557602
71	0x3caf2043	0.021377688
72	0x3b8a2574	0.0042158905
73	0x3d3889b2	0.04505319
74	0xbda0f1a6	-0.07858591
75	0xbd119a9a	-0.03554783
76	0x3843350c	4.6541027e-05
77	0x3d90250b	0.070383154
78	0x3d9b5d61	0.0758617
79	0x3d47bd5c	0.04876457
80	0xbd38082c	-0.04492967
81	0x3cd9c210	0.026581794
82	0x3d9afb29	0.07567436
83	0x3d4d8a1a	0.050180532
84	0xbd9c2b46	-0.07625441
85	0x3bce9f1d	0.006305589
86	0x3c0daf4c	0.008647751
87	0xbd784714	-0.06061466
88	0xbd9c9b6b	-0.07646831
89	0xbd95fb9f	-0.073233835
90	0xbdb141a2	-0.086550966
91	0xbc273f00	-0.010207891
92	0x3c870e1c	0.01648622
93	0xbda81400	-0.0820694
94	0xbcfb43d2	-0.030671988
95	0x3cba5cdd	0.022749359
96	0xbd1b46f2	-0.037909456
97	0xbd3057fc	-0.04305266
98	0x3c41a2f6	0.011818638
99	0xbd9add8e	-0.075617895
100	0x3da148ac	0.07875189
101	0xbd83fdd1	-0.06444896
102	0x3d85a00e	0.06524669
103	0xbd70b430	-0.05876559
104	0xbd5dd6ed	-0.054160047
105	0x3da846b0	0.082166076
106	0x3ccba1cc	0.024857424
107	0x3dad8df0	0.08474338
108	0x3db0a368	0.08624917
109	0x3db70497	0.08936422
110	0x3d8d59f8	0.06901926
111	0x3dabbd06	0.08385663
112	0x3d3c5f52	0.045989342
113	0x3db1740c	0.08664712
114	0xbda1cfb8	-0.07900947
115	0x3d90b7d3	0.07066312
116	0xbd9397c1	-0.07206679
117	0xbd3a816e	-0.04553359
118	0x3b2f0f71	0.0026712085
119	0x3a529785	0.00080334424
120	0xbd1d21d0	-0.038362324
121	0xbd0567ed	-0.032569814
122	0x3d729b19	0.059229944
123	0x3d7cb135	0.061692435
124	0x3da20fc9	0.07913167
125	0xbcdc9526	-0.026926588
126	0xbb142c1c	-0.00226093
127	0xbcf6e988	-0.030140653

fc3.weight f4 [2, 128]
0	0x3d0442ff	0.032290455
1	0x3c7e2920	0.015512735
2	0xbc86ebe4	-0.016469903
3	0x3d834a97	0.06410711
4	0x3d369a66	0.04458084
5	0xbce6ad72	-0.028158877
6	0x3cf36570	0.029711455
7	0x3d1dc191	0.038514677
8	0x3db082e7	0.08618718
9	0xbcd51834	-0.026012518
10	0x3d24d9a5	0.040246624
11	0x3d89e3f3	0.06732931
12	0x3d892f65	0.06698493
13	0xbd3979b1	-0.04528207
14	0xbd2257cf	-0.039634522
15	0x3da06857	0.07832401
16	0x3d843983	0.06456282
17	0x3c8258eb	0.01591154
18	0xbd98156b	-0.0742596
19	0x3c9b303d	0.0189439
20	0xbca5e500	-0.020250797
21	0x3d4616da	0.048361637
22	0xbd61689e	-0.05503141
23	0xbd777127	-0.060410645
24	0x3da549f3	0.08070745
25	0xbd11a6d8	-0.035559505
26	0x3cac8f14	0.021064319
27	0xbcbb9a14	-0.022900619
28	0xbd335b6d	-0.043788362
29	0xbd531b3b	-0.05153964
30	0xbc515950	-0.012777641
31	0x3d4a8fea	0.049453653
32	0x3d092b60	0.03348863
33	0x3bc3a7f8	0.005970951
34	0x3da16df3	0.07882299
35	0xbd78c976	-0.060739003
36	0xbbf6b348	-0.007528696
37	0x3d3b71d6	0.04576286
38	0x3d1f7203	0.03892709
39	0xbd9e310b	-0.07724198
40	0x3d0c6d52	0.034283943
41	0xbd89ff4c	-0.06738147
42	0x3d6e6efa	0.058211304
43	0x3d57c87b	0.052681427
44	0xbd0c3936	-0.034234248
45	0x3cc52816	0.024066966
46	0x3da14109	0.078737326
47	0x3d95f895	0.07322804
48	0x3da68000	0.08129883
49	0xbb652b36	-0.0034968383
50	0xbd530ccc	-0.051525876
51	0x3cd9cd34	0.026587106
52	0x3d803667	0.062603764
53	0x3d9c480f	0.076309316
54	0x3d4a2813	0.049354624
55	0x3c37a1c8	0.011208005
56	0x3c56e92a	0.013117114
57	0x3d9bf90b	0.076158606
58	0xbbdd4646	-0.006752762
59	0x3d142546	0.03616836
60	0xbd6f8a48	-0.058481485
61	0x3bed36b0	0.0072391853
62	0xbd94c594	-0.072642475
63	0x3d954e09	0.07290275
64	0xbb3c7501	-0.0028756263
65	0x3d0814f0	0.033223093
66	0xba543eae	-0.0008096498
67	0x3d839990	0.06425774
68	0x3d71d4ca	0.059040822
69	0x3c840c96	0.016119283
70	0x3d758d8b	0.05994944
71	0xbd051470	-0.032490194
72	0xbd95a9c4	-0.07307771
73	0xbd1089fc	-0.035287842
74	0xbce07ff6	-0.027404767
75	0xbd80c922	-0.06288363
76	0x3d18f2b3	0.03734083
77	0xbd9a6f19	-0.075407214
78	0x3d7f3a94	0.062311724
79	0x3d25bc4a	0.04046277
80	0xbd8439a6	-0.06456308
81	0x3d340603	0.043951046
82	0x3bbc8595	0.005753229
83	0xbd89198d	-0.066943265
84	0xbd66a21f	-0.056306954
85	0x3d98c499	0.07459373
86	0xbd23fc1f	-0.040035363
87	0xbda9f7aa	-0.08299191
88	0xbdb4626b	-0.08807834
89	0xbcbac148	-0.022797242
90	0x3cd1c494	0.025606431
91	0xbdaf0856	-0.08546512
92	0xbb232bc0	-0.0024897903
93	0xbbb68940	-0.0055705607
94	0xbd8e8905	-0.06959728
95	0xbdb6e400	-0.08930206
96	0xbd26340a	-0.040576972
97	0xbd854572	-0.06507386
98	0xbd3bfb49	-0.04589394
99	0xbd550046	-0.052002214
100	0xbcbe5772	-0.023235057
101	0xbd0c2e5d	-0.034223903
102	0xbd90f0b6	-0.07077162
103	0xbbfe0230	-0.0077517256
104	0xbda55a4c	-0.080738634
105	0x3d1afbc0	0.037837744
106	0x3c9a6c5e	0.018850502
107	0xbb37cc7d	-0.0028045468
108	0x3d9d9f70	0.07696426
109	0xbda2f227	-0.07956343
110	0x3bbca5ae	0.0057570552
111	0xbc752a47	-0.014963693
112	0x3cefe829	0.029285507
113	0x3d387d91	0.045041624
114	0x3d02831e	0.031863324
115	0x3dae8a8c	0.085225195
116	0xbcbc6000	-0.022994995
117	0xbd4584b0	-0.048222244
118	0xbb273380	-0.0025512874
119	0x3bff8010	0.0077972487
120	0xbc109138	-0.008823685
121	0xbcd20917	-0.0256391
122	0x3cdcbe58	0.026946232
123	0x3cc8ff55	0.024535814
124	0xbc5ac9ff	-0.013353824
125	0xbc8bdd60	-0.017073333
126	0x3daffb79	0.085928865
127	0xbd11a549	-0.03555802
128	0x3d689327	0.05678096
129	0xbd582f31	-0.05277938
130	0xbd84d3d8	-0.064857185
131	0xbca7f538	-0.020502672
132	0x3c1498f8	0.009069674
133	0xbc24fd70	-0.01007019
134	0xbd8ca3a0	-0.068671465
135	0xbd03e186	-0.032197498
136	0x3c6b0a5a	0.01434573
137	0x3cb9ef54	0.022697128
138	0xbd0e982a	-0.034813084
139	0x3bffa480	0.0078015924
140	0x3d699d72	0.057034917
141	0xbdac2dbd	-0.084071614
142	0x3dad6d8b	0.08468159
143	0xbd9c2da0	-0.0762589
144	0x3d27f14e	0.04100161
145	0xba7006b8	-0.00091562746
146	0xbca7c27c	-0.02047848
147	0x3cf04dab	0.02933391
148	0xbc2cc10f	-0.010544076
149	0xbd329af3	-0.043604802
150	0x3cfbcb30	0.030736536
151	0xbbc7c377	-0.0060962993
152	0xbc0893a8	-0.008335985
153	0x3da7d88f	0.08195602
154	0xbd873a26	-0.06602888
155	0xbd678c9b	-0.056530576
156	0x3da165ed	0.07880769
157	0xbd01bd4d	-0.031674672
158	0x3daea108	0.08526808
159	0x3d9e272f	0.077223174
160	0x3d0075ec	0.03136246
161	0x39992463	0.00029209544
162	0xbd28be7f	-0.041197296
163	0xbd1a6008	-0.03768924
164	0xbd1b5d9d	-0.037931073
165	0x3d717546	0.05894973
166	0x3cb0c5a9	0.021578627
167	0xbcfbce0a	-0.030737896
168	0xbc2b5eb8	-0.010459594
169	0x3d8ee49a	0.06977196
170	0xbd6501b7	-0.05590984
171	0x3d82df51	0.063902505
172	0xbc8487ea	-0.01617809
173	0xbc889c66	-0.01667614
174	0x3ca99e98	0.020705506
175	0xbdb31530	-0.087442756
176	0x3d81425b	0.063114844
177	0x3dae0f67	0.084990315
178	0xbd9fd1ee	-0.07803713
179	0x3cfffc3f	0.03124821
180	0x3d55cc12	0.05219657
181	0x3d292c23	0.041301858
182	0x3d365b55	0.044520695
183	0x3d94a483	0.072579406
184	0x3d9e7146	0.07736449
185	0xbd1542f5	-0.03644081
186	0x3d3f3690	0.046682894
187	0xbcee3588	-0.02907826
188	0x3da18743	0.07887127
189	0xbd643ae2	-0.055720218
190	0x3d069ea0	0.03286612
191	0xbdb4b446	-0.08823447
192	0x3d961fed	0.07330308
193	0x3d0b0928	0.03394428
194	0xbd1de7da	-0.03855119
195	0x3cc370ed	0.023857558
196	0x3d804e65	0.062649526
197	0xbd02d360	-0.031939864
198	0x3d6fbd28	0.058530003
199	0x3bc2fd46	0.0059506027
200	0xbc93352a	-0.017969687
201	0xbd984ce2	-0.07436539
202	0x3d9bdd07	0.07610517
203	0xbd936dff	-0.071987145
204	0x3d289102	0.041153915
205	0xbca7e788	-0.020496145
206	0xbd421fb1	-0.047393505
207	0xbbb4afa3	-0.0055141016
208	0x3ca963c8	0.020677462
209	0x3d862b5c	0.06551239
210	0xbd2ce425	-0.042209763
211	0xbd19e5ef	-0.037572797
212	0x3da9a507	0.082834296
213	0xbd088ba5	-0.0333363
214	0xbd440558	-0.04785666
215	0xb9b29000	-0.00034058094
216	0x3d9ea5d3	0.07746472
217	0x3da7ee19	0.081997104
218	0x3db08b09	0.08620269
219	0xbc72d680	-0.014821649
220	0xba33a400	-0.0006852746
221	0xbd0b04c6	-0.0339401
222	0xbc296870	-0.010339841
223	0xbd749ad5	-0.05971797
224	0xbda1e0ec	-0.079042286
225	0x3da970e9	0.08273489
226	0x3db2813c	0.08716056
227	0x3d48ee4a	0.049055375
228	0x3d9e2e0f	0.07723629
229	0x3ca797e0	0.020458162
230	0xbd8deb97	-0.06929701
231	0xbcbfcf74	-0.023414351
232	0x3da03991	0.0782348
233	0x3c90e6d6	0.017688196
234	0x3cd5f51a	0.02611785
235	0x3c8c3310	0.017114192
236	0xbda5f642	-0.081036106
237	0xbd8f77cb	-0.070052706
238	0x3d510ae4	0.051035777
239	0xbd5cc6fb	-0.0539007
240	0x3ba82bf6	0.0051321937
241	0xbdb1e3f3	-0.08686056
242	0xbb5f2560	-0.0034049377
243	0x3d088dae	0.03333824
244	0x3da701f3	0.08154669
245	0xbc284448	-0.010270186
246	0xbc257ee0	-0.01010105
247	0xbd4eea57	-0.050516453
248	0xbc0ad1b8	-0.008472852
249	0x3d9815a6	0.07426004
250	0x3d42f9b7	0.047601428
251	0x3d8bb4c3	0.06821587
252	0xbdb4396e	-0.08800016
253	0x3c146108	0.009056337
254	0xbcdede64	-0.027205653
255	0x3d3b701e	0.04576122

fc3.bias f4 [2]
0	0x3c3ea5c9	0.011636206
1	0xbb81c27d	-0.0039599524
