modelSimulation/checkpoint-episode-800.pth.tar (torch_old, 572237 bytes, 6 tensors)

fc1.weight f4 [128, 976]
00000000: 9a1c 8fbb 407c bf3c 8414 863b e4be 2d3d
00000010: f2b2 ecbb 5a14 f7bc bd3c 803b 2cca aebc
00000020: 984b 143d 35eb 763c 71ee dfbc 349d 4ebc
00000030: ae2d 82bc ecc7 0ebd 05d0 c4bb 9749 e33c
00000040: 4690 043c acaf ebbc a8e5 9f3c 9444 323b
00000050: 3dd3 b9bc 12ea 1cbd 8d79 dfbc 822e 173d
00000060: be60 85bc 3a2f 263d 3677 04bd e898 2d3c
00000070: 140c cb3c f1a2 5cbb a6a0 783c 3b28 9dbc
00000080: c700 38bc 2c24 45bd 085c e2bc a971 1cbc
00000090: 47cd 53bc 2db8 6a3b f76a 33bd 26ec 44bc
000000a0: 17fd ad3b 69a1 08bd aab2 2aba e60d 993b
000000b0: 9808 d0ba 7382 b53c a5a1 363b e21e 023b
000000c0: 874a 04bd 7836 2e3d c8a8 e9bc 696c 01bd
000000d0: c532 6cbb 3357 b03c ac12 febc 1347 39bc
000000e0: 3154 eebc 68ec 343c 29c2 033d 57cd dfbc
000000f0: 8c24 cd3c 34c5 9a3c dfff b7bc 2654 7e3b
00000100: b199 d93c 84e5 6c3c 5d77 25bd 6e9e 0e3c
00000110: 931b 21bc 9334 12bd dc42 e6bc 408a 0dbc
00000120: 344e b63c a72d 32bc ebcf 5b3c 9bc9 b43c
00000130: 2980 093d 358d 533a 18c1 01bb c66a de3c
00000140: bc3a a73c 4d38 dcba 3736 07bc b3e6 83bc
00000150: 7906 013d 7000 063d 1ab7 03bd 971a 9c3c
00000160: 6550 903c a5b4 eebb 0f00 cfbc 8815 7f3c
00000170: c895 033d 1dba 1d3d 8e6e 113d 477c e63c
00000180: cc7b 8e3c c362 993c a7d1 a9ba c57a 13bc
00000190: 620e 1cbd 7ee5 353d feb6 f9b8 550d 0d3d
000001a0: f366 523c 3670 39bd d8a8 dabc 17ad c83c
000001b0: 132a 973c a23c dc3c 360f 493c 3bde f0bc
000001c0: 2622 1fbc 06fe 193c ed3f 06bb a820 483c
000001d0: a1f7 a53c 3d8c 0dbc 9cad d03c 32d9 c3bc
000001e0: 175f f13c 95fd 51bc d62e a3bc 48a0 c83b
000001f0: e7fc 59bb bc23 31bd 7f65 343c 4f82 9e3c
00000200: a328 b53c 92e2 463b eea6 173c e5e7 1abc
00000210: 879e 983c 4fdf d83c 4d98 053c 61c3 f23c
00000220: 95d4 033c ffc8 aabc 636f 08bc 1ad8 efbc
00000230: 751a ae3c 20fb 2b3d 7c84 e23c e28f 24bc
00000240: f722 543c 4484 9bbc 029a 5c3c d0e9 05bc
00000250: 17aa 07bd 2f57 a3bc ebf7 88bc 1449 893c
00000260: 868c 383c a96f 17ba b69a 16bc ff59 b6bb
00000270: 3730 1bbc f7b5 b2b9 4790 06bd c4d4 3f3b
00000280: b564 883c 5595 b5bc fa1a 563c 19a1 cd3c
00000290: 92d0 20bb 97f6 23bc 454a 523b 9fa7 993c
000002a0: fcb3 2e3d 1357 bebb f3f3 3c3b 39d1 073b
000002b0: 0660 cf3c 4b49 1b3d 732d 25bd 51cc de3c
000002c0: 8e28 073d ecf7 42bd 54e0 ddbc 581f 993b
000002d0: 0413 41bc ca9c f6bb fa89 ae3c 6418 1f3c
000002e0: ddb3 82bc 44b9 8a3b 95c1 8a3c fd70 993c
000002f0: 447e 33bd 96d4 5a3b 9e1b adbc 16c9 2fbc
00000300: 7301 f4bc 39e6 14bc b4c8 453c 722a a9bc
00000310: 52f1 97bc febc 31bc 9f01 e83c 05cc a13c
00000320: d46d b93c 10fc 1dbc 772a 353c 7256 cabc
00000330: ccb0 09bd 0998 82bc 2cb3 7ebc 2453 f83b
00000340: c201 7fbc 05e2 95bc b755 4e3c de82 27bd
00000350: df1a a5bc e7af 14bd fa94 4f3d 3412 a1bb
00000360: 6389 b0bc e58d abbc ae71 c43b 77e8 8abc
00000370: 0545 84bc 9311 be3c c3e7 bdbc c0f5 96bc
00000380: a1a0 753c 9235 283c 53ab 79bc 39e4 093c
00000390: 3bb0 8ebc f2e6 d63c 8438 cf3b eb2c a63c
000003a0: ba62 09bc 1c2e 883b 66cf 4eba f3c2 c03c
000003b0: b987 873c c0cd 0dbd f1e3 ce3b 72be a5bc
000003c0: 3a10 9b3c 7034 0cbd b4d0 18bd a867 28bc
000003d0: 6b21 edbc 5978 363c df40 703c 76d7 b43b
000003e0: fbbc d0bc e400 193a a551 cab9 48af 983b
000003f0: 5f11 e5bb ea05 b53c 4de9 0b3d 746f 81bb
-0.0043674232 0.023374677 0.004091801 0.042418376 -0.0072234804 -0.030161072 0.0039134906 -0.021336637
0.036204904 0.015070726 -0.027335377 -0.012610722 -0.015890922 -0.03485863 -0.006006243 0.027745051
0.008091038 -0.02877029 0.019518688 0.002720152 -0.022683734 -0.038309164 -0.02727964 0.036909588
-0.016281482 0.040572383 -0.03234025 0.010595538 0.024786033 -0.0033666457 0.01517502 -0.019184222
-0.011230654 -0.0481302 -0.027631775 -0.009548583 -0.01292736 0.0035815344 -0.04380318 -0.012019193
0.0053097117 -0.033357058 -0.00065116084 0.0046708463 -0.0015871702 0.02215693 0.0027867344 0.0019854833
-0.032297637 0.042532414 -0.028522864 -0.03159753 -0.0036041003 0.021525955 -0.031014763 -0.011308449
-0.02909288 0.011042692 0.032167587 -0.027319593 0.025041841 0.018892862 -0.022460876 0.003880748
0.026562544 0.014459018 -0.040397037 0.008704765 -0.009833234 -0.03569467 -0.028108053 -0.008638918
0.022254087 -0.010875142 0.013416271 0.02206879 0.03356949 0.0008070053 -0.001979893 0.027150523
0.020413749 -0.0016801447 -0.008252672 -0.016101217 0.031500313 0.03271526 -0.03215704 0.019055648
0.01761646 -0.007284718 -0.025268583 0.015569098 0.032125264 0.03850757 0.035505824 0.028135432
0.017393015 0.018723851 -0.0012956158 -0.0090014385 -0.038099654 0.044408314 -0.0001190733 0.034436543
0.012841928 -0.04527303 -0.02669184 0.024496598 0.01845268 0.02688438 0.012271693 -0.029402843
-0.0097127315 0.009398943 -0.002048488 0.012214817 0.02025968 -0.008639392 0.025473408 -0.023907278
0.029464288 -0.012816806 -0.019919794 0.0061226226 -0.0033262314 -0.04324697 0.011010527 0.019349245
0.022114104 0.0030347449 0.009256108 -0.009454702 0.01863028 0.02647367 0.008153987 0.02963418
0.008046289 -0.020847796 -0.008327338 -0.02927785 0.02125285 0.04198754 0.027651064 -0.01004407
0.012947789 -0.018983968 0.013464453 -0.008173421 -0.033121195 -0.019939033 -0.016719779 0.01675848
0.011263972 -0.00057768315 -0.009192159 -0.0055649276 -0.0094719445 -0.0003408638 -0.032852437 0.0029271105
0.016649583 -0.022165934 0.013067955 0.025101231 -0.002453838 -0.010007522 0.0032087725 0.018756686
0.042652115 -0.00580872 0.0028831929 0.0020724072 0.025314342 0.037911694 -0.040326547 0.027197035
0.03299766 -0.047599718 -0.027084507 0.004672926 -0.011784319 -0.007526015 0.021306027 0.009710405
-0.015954906 0.004233511 0.01693801 0.018730635 -0.04382159 0.0033390871 -0.021131333 -0.010729095
-0.029785847 -0.0090880925 0.012071777 -0.020650122 -0.018547688 -0.010848282 0.028321085 0.019750604
0.022635378 -0.009642616 0.011057488 -0.024699423 -0.033615872 -0.015941637 -0.015545648 0.0075782705
-0.015564384 -0.018296251 0.012593678 -0.04089629 -0.020154415 -0.036300566 0.050679184 -0.0049155
-0.021549886 -0.020941684 0.005994997 -0.016956551 -0.016146192 0.02320174 -0.023181802 -0.01842773
0.01499191 0.010266678 -0.015238601 0.008416229 -0.017418018 0.02623317 0.006323876 0.02028509
-0.008385355 0.0041558873 -0.0007889181 0.023530459 0.01654421 -0.034620047 0.006313794 -0.020232413
0.018928636 -0.034229696 -0.03730841 -0.01027862 -0.028946599 0.011137092 0.014663904 0.005518849
-0.025480738 0.00058366195 -0.00038589272 0.004659567 -0.006990596 0.022097547 0.03415804 -0.003950054

fc1.bias f4 [128]
00000000: 279f 25bd b647 c53c 0cd8 d639 1e76 e9bb
00000010: 9530 ee3b 29cb 853c a37d f33c fd74 aebc
00000020: f63b 043b 44c8 133d 2aae 40bc 975c 19bc
00000030: eed3 9ebc 78b9 4bbc e557 10bb b15c be3b
00000040: 256d 87bc 3ab6 2cbd 4fed d4bc 2087 823b
00000050: a5ce 4dbd 5009 ef3c e9e7 1dbb 0634 363a
00000060: 4732 be3c 1e04 66bc 5327 063d df07 463d
00000070: d03c 0dbb e424 4bbd f705 e73b b78c 0bba
00000080: d1a7 c23c eb66 153d 7a12 4ebd 58d1 04bd
00000090: b366 53bd 17aa babb c76f de3c b4e8 d73b
000000a0: 6ba4 593c c12b e4bb c735 4ebc 2751 eaba
000000b0: 6a36 163d f467 c33c 25c8 7c3c d916 0bbc
000000c0: 9136 473c 1416 a73a a7b5 4aba e70d 163d
000000d0: 42e7 a7bb 361a 123d 7c31 aabb 5c1a 61b9
000000e0: 6aa4 be3c 194d 433d c7f9 e63c 73da 193c
000000f0: 57d2 5bbc 4030 19bc 68bd e03c 2b00 59bc
00000100: 0edf e93c c1dc 74bd 0f9b ba3b 0dde 5ebc
00000110: e9e0 c4bb 68eb df3c 0b26 bebb 4062 e0bb
00000120: 14cd 26bc 8335 37bc 4e4e 40ba 7edb 053d
00000130: cca4 b9bc 60cc b1bb 4026 adbb 91f1 34bc
00000140: a47c 84bc 8745 10bd 0de1 8ebc 5b70 053c
00000150: b0a7 e7bc febb 1f3c c119 b03b 7bea ba3c
00000160: a070 2c3c 0f85 9f3b 7cc7 c93c 98e1 b5bb
00000170: e72c f53c 835c 483d 2a00 36bb 9378 933c
00000180: 57ba aab9 7e42 033d 57a0 3b3b f3df 5c3b
00000190: 908b d83b 8ad7 9a3c 8715 98bc 1c63 c53b
000001a0: 1697 c53b a507 7abc 8576 a43c ef1a f03c
000001b0: ec44 8d3c bd7a 073c a5a5 a93c 5b1a 87bb
000001c0: f288 fe3c e9c7 7f3c c2a6 69bd d4c2 c1bb
000001d0: 76c3 1c3b 6035 91bd 53f0 57bc 29fe 7f3c
000001e0: 268c 903c c04c 20b9 3757 bfbb d1f4 3dbd
000001f0: 6d86 e73c 2866 743c 3e4b a13b 414d 783c
-0.040434983 0.024082046 0.00040978228 -0.0071246764 0.007268975 0.016332226 0.029722994 -0.021296019
0.002017734 0.03607966 -0.011760274 -0.009360454 -0.019388165 -0.012434356 -0.0022025045 0.0058093895
-0.016531536 -0.042165972 -0.025992064 0.0039833933 -0.0502459 0.029179245 -0.0024094528 0.0006950501
0.023217333 -0.014039068 0.032752346 0.04834735 -0.002155114 -0.04959573 0.0070502716 -0.00053233973
0.023761662 0.036475103 -0.05031059 -0.03242621 -0.051611613 -0.005696546 0.027152909 0.0065890197
0.013283829 -0.0069632237 -0.012586064 -0.0017876968 0.036672987 0.02385328 0.015428578 -0.008489334
0.012159006 0.0012747669 -0.0007732757 0.036634352 -0.0051240036 0.035669528 -0.0051938873 -0.00021467492
0.023271758 0.047680948 0.028195275 0.009390461 -0.013416848 -0.009349883 0.027434066 -0.013244669
0.028548744 -0.05978084 0.005694754 -0.013602746 -0.0060082567 0.02733393 -0.005802875 -0.00684765
-0.01018073 -0.011182192 -0.0007335887 0.032680027 -0.02266159 -0.0054259747 -0.005284101 -0.011043922
-0.016172715 -0.035222556 -0.017441297 0.008144463 -0.028278202 0.009749411 0.005374164 0.022816887
0.010524899 0.0048681567 0.024631254 -0.0055505745 0.029928638 0.04891635 -0.0027771094 0.01800183
-0.0003256376 0.032045834 0.0028629506 0.003370282 0.006608434 0.018901605 -0.018564953 0.0060237776
0.0060299737 -0.015260612 0.020076046 0.029309718 0.017244779 0.008269009 0.020708868 -0.004123015
0.03107116 0.015611627 -0.0570438 -0.005913118 0.0023920215 -0.070902586 -0.013179856 0.015624561
0.017644953 -0.0001528738 -0.0058392542 -0.046376053 0.028262341 0.014916934 0.0049222996 0.0151551375

fc2.weight f4 [128, 128]
00000000: b8b1 c93d 599b 9e3d 75cc 3abd 655c 39bc
00000010: c12c 51bd 2f5e 21bd b17d afbc f20c 4c3b
00000020: e90c 6bbd ca86 cebd c4f9 5f3d e31d a1bd
00000030: e890 33bd 7ac4 3838 9e80 6bbc 0886 cebc
00000040: 520d ec3c 3360 89bd cc9d 3a3c 8b3d d0bd
00000050: 56ce 683d 826c 05be 1f7c 193d 76c1 06bd
00000060: 2cfd 06bd 885a 90bb a12b 9ebd 55b2 c3bd
00000070: b520 f53c 7c20 883d 68f7 e9ba 4619 a7bc
00000080: 34af 24bd cadb acbc e0e4 a93d 8aa2 20bd
00000090: 74f2 62bd b269 6c3d 9794 163d 3ec5 763c
000000a0: 604c c03c 5c28 54ba 1097 923c 9e97 d03c
000000b0: ce5e 0ebd 52e1 403c 26f7 203d 0763 483d
000000c0: 17d7 5c3d a3d6 c9bb 2b55 443d 6389 8abc
000000d0: 3b1d c4bc b748 433d 2dab 9dbd 0ae0 20bd
000000e0: 1780 013d d36b 653c 131d 373d 5029 92bd
000000f0: 1294 8f3d 5273 b03d 1155 e2bc 72e9 f33c
00000100: 7046 02bd c55f 41bd 18f6 a4b9 7840 913b
00000110: 56a4 63bd d460 0cbd 2d3f bf3c c275 ae3c
00000120: e0bb 95ba 44ad 393d 8cff 29bd 0468 8a3d
00000130: 7817 a23d 2a49 693d 5a03 183d 984a f73c
00000140: d6a0 3cbd 1fbc a23d e65e 40bd 520f cabc
00000150: dbaf a1bc d95d 793c 8d83 32bd 7cf1 ce3d
00000160: d7f1 5e3d fb63 a03d 3548 adbc 5d29 453d
00000170: dc58 8ebd b5fb a0bd a09d 61bd c687 c3bd
00000180: 561d 83bd 4f71 78bd a7d1 0abc b504 03bd
00000190: e87d 463d 2a36 a83d 0592 e2bb 04e7 113d
000001a0: 2fbc d5bc 616f 5abd cc6d 2cbc 0580 72bd
000001b0: eadd 9e3d 09c4 4bbd 4b4a 3fbd 3051 66bd
000001c0: 9c83 b6bc b837 173d 81cc 93bd 94b9 c9bc
000001d0: 69a7 7bbd 9aff a23d 8c43 7a3d 261a 373b
000001e0: 8045 d0bd 7912 26be f28a fb3c a600 993d
000001f0: 64b1 f9bc 7064 60ba 4ef4 b3bd e12e 2f3d
00000200: d3eb 3d3d c261 e5ba 39ec 71bc d27c 04bd
00000210: 22ed ca3c 6099 443d ef02 793c e90a 3c3d
00000220: dc2e 623d 9abe ad3c 90e1 15be de83 e5b8
00000230: d8f4 95bd aa07 493c e382 493d 0693 113c
00000240: 59ac 6b3d bf3c d6bc 9a20 1a3d 1689 d1bc
00000250: e4e8 36bd 3f27 923d d58b 493c 74c9 df3b
00000260: e845 b63d e488 df3c e698 903d b989 f03b
00000270: 5620 873d 84ae 95bd 71ed 8d3d b074 f3bc
00000280: 1e8c 493d a426 a8bc 76b7 b1bd 3a16 47bd
00000290: a60f e9bc 880a 0dbc 151d 0e3e e1fe da3d
000002a0: d392 f8bc 3e2e 973a c57b 65bd 4d8f 623d
000002b0: f04a c63d 40b0 e93d ec87 783c 619b 3dbd
000002c0: 95f1 723d 9910 0f3e 6e55 dfbb a4c2 873d
000002d0: 882b 973c 7dbe d03d ee50 afbc 5c6e 1abd
000002e0: 10ca db3d 1801 d33d 0112 ef3c b34c 463d
000002f0: c046 a2bd cf44 3a3d fd92 003d dbf6 7dbd
00000300: 36fd 2f3d 5c85 d73b d9c3 e63d c238 97bd
00000310: 3a2e 48bd 9e5a fe3b e000 6abd ea71 603d
00000320: 7a30 663c 7d53 193d f852 873d 38f6 d33a
00000330: 0bf8 9c3d 7378 853b d3ae 80bd fa76 9abb
00000340: 21bb 22bd f345 a4bc 25da 883d 55d0 c9bd
00000350: 7d07 66bd 8b7d a93c a4c7 b0bd 41da 79bd
00000360: a2a5 0c3d dda5 d4bd 5e99 053c 7bf3 583d
00000370: d1d4 183e 5024 07bd 7777 38bd 8d1c 863b
00000380: dbdb 6bbc 35af 143d caf8 2b3d 62ce 54bd
00000390: 9082 c23d 9f27 913d e676 ebbc 016e 213d
000003a0: cfef c2bc 63ae bd3c 08f5 e23d d38e 3d3d
000003b0: 0f0d 87bb f010 95bd 5eeb 923d d366 2d3c
000003c0: dd90 003e 9ca0 32bd 3c6a f8bb fec1 d13c
000003d0: 18bb cfbc 59af 793d 4735 e63d 9498 43bc
000003e0: d2b5 993d e10c d93d 0b57 6b3d eca5 e53b
000003f0: 2ed2 e33c 8a3c 873d 2e75 523d c607 c93d
0.0984835 0.07744474 -0.04560514 -0.0113135325 -0.05106807 -0.03939646 -0.021422239 0.0031135646
-0.05738536 -0.10084303 0.054681554 -0.078670286 -0.043839365 4.4052e-05 -0.014373926 -0.025210395
0.028814945 -0.06707802 0.011390161 -0.101679884 0.056837402 -0.13029674 0.037471887 -0.032899342
-0.032956287 -0.0044053234 -0.07723165 -0.095554985 0.029922822 0.06646821 -0.0017850222 -0.020397794
-0.04020615 -0.021100897 0.082956076 -0.03921751 -0.055407003 0.057717986 0.0367628 0.015061675
0.023473918 -0.0008093172 0.017894298 0.025462922 -0.03475838 0.011772471 0.0392982 0.048922565
0.053916063 -0.00615962 0.047932785 -0.016911214 -0.02393972 0.04767677 -0.07698665 -0.03927616
0.031616297 0.014002758 0.04470546 -0.07136786 0.07010664 0.086157456 -0.027628453 0.029774401
-0.031805456 -0.047210474 -0.00031463872 0.004432734 -0.055576645 -0.03427203 0.023345554 0.021296386
-0.0011423789 0.045331255 -0.041503474 0.06758121 0.079146326 0.05695454 0.03711257 0.030186936
-0.046051823 0.079460375 -0.046965502 -0.024665508 -0.019737175 0.015220129 -0.043582488 0.10104653
0.054429855 0.0783157 -0.021152595 0.04813515 -0.06950542 -0.07860509 -0.055081964 -0.09547381
-0.0640208 -0.060654934 -0.008472837 -0.03198691 0.048459917 0.08213456 -0.0069143795 0.035620704
-0.02609071 -0.053328875 -0.0105242245 -0.05920412 0.077571705 -0.0497475 -0.04670171 -0.05622977
-0.022279553 0.036918372 -0.072167404 -0.024624623 -0.06143895 0.079589084 0.061099574 0.002793917
-0.10169506 -0.16217984 0.030705903 0.07470827 -0.030480094 -0.0008559888 -0.08786832 0.042769317
0.046367478 -0.0017500448 -0.0147657925 -0.0323456 0.024771277 0.047997832 0.015198453 0.045908842
0.05522047 0.02120905 -0.14636827 -0.00010944133 -0.07322091 0.012269894 0.04919709 0.008885151
0.05753741 -0.026152013 0.037628748 -0.025578063 -0.044655696 0.07136392 0.012301405 0.006829435
0.08900052 0.027286954 0.07060413 0.0073406366 0.065979645 -0.07308677 0.06930054 -0.029718727
0.04920589 -0.020526238 -0.086775705 -0.04860518 -0.028449845 -0.008608468 0.13878281 0.106931455
-0.030343449 0.0011534167 -0.05602624 0.055312444 0.09682262 0.1141057 0.015169125 -0.04629076
0.05931242 0.13971175 -0.006815604 0.06628922 0.018453375 0.10192583 -0.021400895 -0.037702903
0.107319 0.10302943 0.02918339 0.04841299 -0.07923651 0.045475777 0.03139018 -0.062002998
0.04296609 0.006577177 0.11267824 -0.073838726 -0.04887221 0.0077622673 -0.05712974 0.054796137
0.014049644 0.037433136 0.06607622 0.0016171401 0.07664498 0.0040731966 -0.06283345 -0.00471389
-0.03972924 -0.020052886 0.06682233 -0.09854189 -0.056159485 0.020689746 -0.086318284 -0.06099916
0.034337647 -0.103831984 0.008154241 0.052966576 0.14924933 -0.032993615 -0.045035806 0.004092759
-0.014395679 0.036299903 0.04198531 -0.051954634 0.09497559 0.07087635 -0.028743219 0.03941155
-0.02379599 0.023154443 0.11081892 0.046278786 -0.0041214298 -0.07278621 0.07173799 0.010583597
0.12555261 -0.0436102 -0.0075810235 0.025605198 -0.025357768 0.06095824 0.112406306 -0.011938233
0.075053826 0.105981596 0.057456058 0.007008305 0.027810182 0.06603344 0.051381283 0.09815936

fc2.bias f4 [128]
00000000: fcf1 913d cc7b 38bd 56a7 11bd ac43 183b
00000010: fb1a 3f3d 65d1 0a3c 3d6d fd3b a628 b63d
00000020: 842b 46bd eb70 703c cd73 063d 0d13 1b3c
00000030: 170e 5ebd 6b5d 64bd ecaa 80bb b103 153d
00000040: 10ae 6e3d e36a df3c b59c aa3d 29a2 99bc
00000050: 5dfa 46bd 2a7f debd af83 873d ac57 a93d
00000060: 0e9f f13c 6ffd 903c 2df7 113c 1b61 80bd
00000070: ae80 663b 3053 823d a832 65bd 2694 4a3d
00000080: 750b a1bd a292 1fbd 0e12 423d c2a6 d4bd
00000090: 3b32 5bbd da8a e0bc e576 adbd 63a7 0fbe
000000a0: 5700 aebc fdfe a7bc bc60 5a3d 2e6e 19bc
000000b0: 0917 07bd e6a3 5f3d 37bb edbc cc8b 68bd
000000c0: 3eed 123d c7b5 50bc 6f14 a8bd 4d90 3a3d
000000d0: c558 70bd ea8b 463d 37f1 8b3d 1b87 483d
000000e0: 742a 2d3b 40ab d0bd 6f44 28bd 0bd0 55bd
000000f0: 5aab 943d 0536 563d 850b 9a3a 15fb 8e3d
00000100: 9648 153c 9b1d 4dbd 4a34 9cbd 2773 2d3c
00000110: 155f 04bd 3cdb 60bd 4220 853d a80c 783c
00000120: c1fd abbb cf28 ebbc 20d8 82bc c660 923d
00000130: 53cb 333d 0f71 373c 5a08 3dbc 5061 893d
00000140: dd10 ccbc 0411 0d3d e2ee 123d 1988 3cbb
00000150: 54c1 efbc caeb 8f3b e515 2d3d c228 ac3d
00000160: ecbf 07bd 2a5a 8abd d0c1 c8bd badc 4fbd
00000170: 0cf5 b5bd 51b0 0fbe 9e33 9c3d 52b6 543d
00000180: 8193 023c 6d06 fc3b 9641 ee3c 5dc6 b03c
00000190: 3b14 623d 1231 e63c 5027 633b 2921 2c3d
000001a0: 0ed2 a4bb aa2f 943d 121d 6ebc d62c 9dbd
000001b0: a0aa 6fbc 7a2f 35bc e31f 033c e515 9f3c
000001c0: a7f0 09be 26d7 063d 09ba 703d a184 a23c
000001d0: 23cc 883c e58c 173c 81aa 72bd 6491 e73b
000001e0: 8b75 923c dbbd e3bc 8e78 6d3b 0c1f 87bc
000001f0: 7acc cd3d 4850 003d 856f 333a 2476 2a3c
0.07126233 -0.045039937 -0.035559975 0.0023233695 0.04665659 0.008472775 0.0077339695 0.08894472
-0.048381343 0.014675359 0.03282528 0.009464991 -0.054212656 -0.055753153 -0.0039266255 0.036380474
0.058271468 0.027272647 0.08330671 -0.018754082 -0.04857861 -0.10864098 0.066169135 0.08268675
0.029494788 0.017698972 0.008909029 -0.062685214 0.0035171914 0.06363523 -0.055956513 0.04945769
-0.078635134 -0.0389582 0.0473805 -0.10383369 -0.0535147 -0.02740996 -0.08469943 -0.14028697
-0.021240396 -0.02050733 0.05331491 -0.009364648 -0.032980952 0.054599665 -0.029019935 -0.056773946
0.035870783 -0.012738652 -0.082070224 0.045547772 -0.058678407 0.048473276 0.068331175 0.04895697
0.002642301 -0.10188913 -0.04108089 -0.05220036 0.07259245 0.05229761 0.0011752701 0.06981484
0.009111544 -0.050077062 -0.07627161 0.0105865365 -0.03231724 -0.05489658 0.06500293 0.015139736
-0.0052487557 -0.028705982 -0.015972197 0.07147364 0.043895077 0.011196389 -0.011537636 0.06708014
-0.024910385 0.034440055 0.035872348 -0.0028767644 -0.02926699 0.004392122 0.04225721 0.084062114
-0.033142015 -0.06755479 -0.09802592 -0.05074761 -0.088846296 -0.14032103 0.07627033 0.051931687
0.007969738 0.0076911957 0.029084008 0.021578962 0.055195075 0.02809957 0.0034660883 0.04202381
-0.0050299233 0.07235654 -0.014533298 -0.076745674 -0.0146280825 -0.011058683 0.008003208 0.01941962
-0.13470708 0.032920025 0.058771167 0.019838633 0.016698902 0.0092499005 -0.059244636 0.0070668925
0.017878314 -0.027800491 0.0036235186 -0.016494296 0.100487664 0.031326562 0.0006844926 0.0104041435

fc3.weight f4 [2, 128]
00000000: f074 aa3b c6dc 983d 30a4 503c 3eda 203d
00000010: 6efb 31bd 3609 68bd 1679 32bd 1361 9c3c
00000020: 8811 a03d 447d 443b 0383 a3bd 5583 8d3d
00000030: 4400 9c3d f35e 9abd 4a72 ecbd d131 ea3c
00000040: 315c 0cbd 55ac 143c 951e 63bd d1a0 ac3d
00000050: d1a6 713a 0b67 a3bd 93be f83c 77de 5c3b
00000060: 39d7 aa3d a66c 05bd df07 c6bd d038 babd
00000070: b22f 883d afba 16bd b37d 763d b252 05bd
00000080: 5697 9cbd 9447 bf3c 0dd7 e63c 8183 a83b
00000090: bd33 9abc 2bd2 e8bd fd2d 773d 699e 053e
000000a0: 4852 cdbd d937 f63b e80c 2cbc c0bf 3abd
000000b0: 415e b7bd 7901 cb3c b33a 96bb dd6a b6bc
000000c0: b499 a1bd d9a3 54bd 00d8 79b9 bfe7 7f3d
000000d0: 2548 f9bc 289c e13c 442d 9bbd 3545 c1bd
000000e0: 2dfd a0bb ee4a 353d 6b14 adbc fd36 803d
000000f0: ba48 9abd f9be b83d c407 a93d 1210 01ba
00000100: ffbc 9bbd e1c8 29bd 0685 233d 053a 5dbd
00000110: 7138 823d 696a 1a3c f2cd 9cbb 1d3e 05bd
00000120: fb0e 98bd a7de 03be 64ab 06bd aaf8 1dbd
00000130: 7cc2 42bc 0e08 733d 0e3e 10bd 28c8 e3bc
00000140: 44c2 9dbc 3b3e 3f3d 3f16 6cbd 28fd b1bc
00000150: d168 9dbb 92cf 81bb 628b e6bd 37f4 003e
00000160: c031 ddbd 1d9a ab3d 4082 faba 48e5 4a3d
00000170: 28e4 b03d 5044 4abc 207d 5b3d 987b da3d
00000180: bba9 9abc 6ba9 5cbc 50b7 81bd 2f36 603d
00000190: 7009 b9bd 2fdb 933d 3b38 f2bc 8d21 4f3d
000001a0: 89ff 45bd bfe9 8fbd 98d0 b5bc b852 09bd
000001b0: d843 9bbd d846 0d3d d2ad 0abc ba03 3c3b
000001c0: a7a8 ab3d 2c2f f4bc 53f4 babd 7941 a4bc
000001d0: 2f1d 01be 57fd 4dbd 354c 1abd 9c5c e7bc
000001e0: dd7e 053d 1c81 543d 739f dabd 9919 a5bd
000001f0: 0a80 843b 7934 0fbd bd53 2b3d 0869 053d
00000200: a0fb b1bd ef7e 69bc 7509 b2bd 45bd 8dbd
00000210: ae36 db3c e8a8 a33c f9fd 8ebd 6c09 5f3d
00000220: d62a c03a 1c98 dfbd edfe d7bd 7b30 8f3d
00000230: 25e4 1e3b 0066 e73c 48b7 92bd 7543 33bd
00000240: a9d9 61bd 6857 cfbc a7a9 033d 13b6 c43c
00000250: d483 d1bc 16f1 033d a9fa 76bc 3df8 42bc
00000260: 42bc 37bd 70d0 a9bd 19ef 043d c679 82bd
00000270: 835f f73c b3d7 b3bc 81a3 953d b319 23bc
00000280: ef9e 28bd f179 72bd 7df2 21ba 738e 8ebd
00000290: 8f32 96bd 7e9b fdbc b921 87bc 49bc b3bb
000002a0: 7f71 933c c4f4 45bd 322c 93bd 33a7 90bd
000002b0: 9c22 42bc 0946 d4bc 7667 a9bd bc8c e2bc
000002c0: 3463 833d e5a4 85bc 2d0d 5abd f7d7 ebbc
000002d0: c12d 4c3d 4097 bf3c c25a cabc 195c 0abe
000002e0: fed4 9fbd 1279 313d 43fd 6d3d 9c02 abbd
000002f0: e1ea c8bd 9266 2c3d 9a4f e03b 77c8 b83b
00000300: 8d4e 4b3d 28fe 093d a6cd 34bd f53c 643b
00000310: 94ae a1bd aa4e 67bc a2cc c3bd 3fc4 e2bc
00000320: 46d0 9ebc 9232 a1bd 21df edbd 44f6 b23c
00000330: 2663 a4bd 85e6 0fbe 955e 81bd 4ef0 603d
00000340: 74ba b0bd 7ded a63d 1df1 64bd 6862 e0bc
00000350: 2a3e 673d e18c 8abd e7a3 b9bd 4492 d7bb
00000360: 7ec7 43bd 80ea 983b 5621 69bd 1dd6 6cbc
00000370: c9b7 a63d 47d9 4fbd b4a7 3dbd c836 973d
00000380: ff4e 55bd 87d0 b53d 14fb 7e3c 388a bcbd
00000390: 1f1a a0bc 5302 01bd d843 383d dcb6 99bd
000003a0: f175 393d 60ac 0fbd c0da 123d c770 71bd
000003b0: 4b63 9d3d 9145 c1bd a284 53bd 4f86 cb3c
000003c0: f664 c83d 2228 303d 988f 793d 051d 5b3d
000003d0: 9e38 5cbc 4498 10be 3b7d 063d e4e0 c8bd
000003e0: 0760 393d 4265 6d3d 4678 613c 1482 b8bc
000003f0: 65bd c9bd eacb 163d 91d1 a2bd ce91 45bd
0.0052019283 0.07463984 0.012734458 0.039270632 -0.043452673 -0.05664941 -0.043572508 0.019089257
0.07815844 0.002998189 -0.07983973 0.06909815 0.07617238 -0.075376414 -0.115452364 0.028588207
-0.034267608 0.00907429 -0.055449087 0.08429111 0.0009218278 -0.07978638 0.03036431 0.0033701935
0.08341832 -0.03257432 -0.0966947 -0.090928674 0.06649722 -0.03679913 0.06017847 -0.032549568
-0.076460525 0.02334956 0.028178716 0.0051426296 -0.018823499 -0.11368211 0.060346592 0.1304871
-0.100254595 0.007513982 -0.010501124 -0.045593023 -0.089535244 0.024780976 -0.004584634 -0.022267753
-0.07890645 -0.05191407 -0.00023826957 0.06247687 -0.030429909 0.027540281 -0.07576993 -0.09437028
-0.0049129934 0.04426091 -0.0211279 0.06260488 -0.07533403 0.090208 0.08253434 -0.0004923354
-0.076044075 -0.04145134 0.039921783 -0.05401041 0.063584216 0.009424784 -0.004785293 -0.03252994
-0.07424732 -0.12877904 -0.032878295 -0.038567223 -0.011887189 0.059333853 -0.03521543 -0.027805403
-0.019257672 0.046690207 -0.057638403 -0.02172716 -0.004803755 -0.003961512 -0.11257054 0.1259316
-0.10800505 0.08379004 -0.0019112304 0.049535066 0.08637267 -0.0123453885 0.053586125 0.10668105
-0.018879762 -0.013468127 -0.06333792 0.054739174 -0.09035003 0.0721954 -0.029567828 0.050569106
-0.0483394 -0.070270054 -0.022194192 -0.033526152 -0.075812995 0.03449139 -0.008464294 0.0028688745
0.08381777 -0.02980765 -0.091286324 -0.020050751 -0.12608789 -0.05029043 -0.037670333 -0.028242402
0.03259169 0.05188094 -0.10674944 -0.08061523 0.0040435838 -0.03496215 0.041827906 0.03257087
-0.08690572 -0.014251455 -0.0869321 -0.06920866 0.026759472 0.019978002 -0.06982035 0.054452345
0.0014661204 -0.109176844 -0.1054667 0.06991669 0.0024244871 0.02824688 -0.071638644 -0.043765504
-0.055139218 -0.025310233 0.032144215 0.024012601 -0.025575556 0.03221234 -0.0150744105 -0.011900005
-0.04485727 -0.082917094 0.032454584 -0.06370883 0.03019691 -0.02195344 0.073065765 -0.009954858
-0.041167196 -0.059198324 -0.0006177796 -0.06960764 -0.07333862 -0.030957934 -0.016495572 -0.005485092
0.017998455 -0.04832913 -0.07186164 -0.07063141 -0.011849072 -0.025912302 -0.08271687 -0.027654998
0.06415406 -0.01631398 -0.05323522 -0.028789503 0.04984832 0.023387551 -0.02470148 -0.13511695
-0.07804297 0.043328352 0.058102857 -0.08350107 -0.098104246 0.042090006 0.0068454267 0.0056391316
0.04963546 0.033689648 -0.044141434 0.0034826372 -0.07894626 -0.014117876 -0.09560515 -0.027681468
-0.019386422 -0.07870974 -0.11614824 0.021845944 -0.080267236 -0.1405278 -0.06316868 0.054916672
-0.08629313 0.08150766 -0.055894006 -0.027390674 0.05645577 -0.06765152 -0.09064465 -0.0065787155
-0.047797672 0.0046666265 -0.056916557 -0.014455345 0.08140523 -0.05074432 -0.046302512 0.073834956
-0.05207729 0.08877664 0.015562791 -0.09206051 -0.019543706 -0.031496357 0.044986576 -0.07505581
0.045278493 -0.0350765 0.035853148 -0.058945443 0.07684954 -0.09437097 -0.05164016 0.024844317
0.09784882 0.043007024 0.060927957 0.053494472 -0.013441233 -0.14120585 0.032834273 -0.098085195
0.045257594 0.057957895 0.013761586 -0.022522964 -0.09850577 0.03681556 -0.07950128 -0.048234753

fc3.bias f4 [2]
00000000: 039a b3bc 7d6f e33c
-0.021924024 0.027763123
