modelSimulation/checkpoint-episode-0.pth.tar (torch_old, 568393 bytes, 6 tensors)

fc1.weight f4 [128, 976]
000000 ae cc 20 bc 81 66 e9 3c 8a 1c 56 3c 74 8f 03 3c
       -0.009814424 0.02849126 0.013068328 0.008029807
000010 1e bd 69 3b 8e c8 8e 3c a2 d2 93 ba 3b 7c 6d b9
       0.00356657 0.017429616 -0.0011277983 -0.00022648361
000020 a6 43 8c bc a8 bc 8b 3c 73 16 15 bc 12 3c cb bc
       -0.017122101 0.017057732 -0.009099591 -0.024808917
000030 0d 08 c8 3c f3 e4 fe bc 50 43 b1 3c 59 6c bd bb
       0.024417901 -0.03111503 0.021638542 -0.0057807383
000040 be 60 b4 bc 03 01 ae bb 71 7b e6 3b 17 39 d4 3b
       -0.022018787 -0.005310179 0.0070337583 0.006476532
000050 d1 76 0c bb 21 d3 e6 3c 65 d6 03 bb fe 84 96 bc
       -0.0021433125 0.028176846 -0.0020116803 -0.018373962
000060 77 2a bd 3c 39 26 1f 3c a2 39 79 bc dd d6 0c 3b
       0.023091538 0.009713703 -0.015211495 0.0021490373
000070 d6 83 64 3c f7 ff c4 3a f5 29 aa ba 82 73 97 bc
       0.013947448 0.0015029897 -0.0012982475 -0.018487696
000080 dd ad f4 3c 38 65 50 3c d1 82 10 3b be 7c f7 bb
       0.02986806 0.012719445 0.002205063 -0.007552712
000090 da 6a 9a 3a 8d b3 f1 bb 92 5c 52 bb a6 2f fe bb
       0.0011781112 -0.0073761404 -0.0032098633 -0.007757145
0000a0 3a 05 8e 3c e1 0b b0 bc 0e 90 01 3d ea c6 02 bc
       0.017336477 -0.02149004 0.031631522 -0.007981995
0000b0 25 8c f2 3c 19 ae 64 3c 54 32 e4 bc cf 8e 61 bb
       0.029607842 0.013957524 -0.02785603 -0.0034417396
0000c0 3e 02 3f 3b c7 8b 94 bc 90 13 2c 3c b3 fe c4 3b
       0.0029145624 -0.018133057 0.010502711 0.006011808
0000d0 c6 3b ea 3b e0 3a d2 3c 64 23 a6 3c 89 cc a3 3c
       0.007148239 0.02566284 0.020280547 0.01999499
0000e0 5e a6 82 3c 8f df a7 ba 70 99 30 bc df 00 c8 bc
       0.01594847 -0.0012807715 -0.01077877 -0.024414478
0000f0 48 fd db bc 11 d3 70 bc cd 8b bb 3c 33 ad 62 3c
       -0.026854172 -0.01469876 0.02289381 0.013835239
000100 c7 59 e6 bc 3f 1a 90 bb b6 0a e1 bc 5c bd fb 3c
       -0.028118981 -0.00439766 -0.027470928 0.030729942
000110 41 95 00 bd 0b 45 64 3c 05 d2 c8 bc 91 9c b6 3b
       -0.03139234 0.013932477 -0.024514208 0.0055728634
000120 18 bc a7 bc 58 dd 59 bc 58 4e 9c bc 0b 28 d8 bc
       -0.020475432 -0.013297401 -0.019080326 -0.026386281
000130 ce 79 d5 3c de fb b7 bc ea 18 85 3c 66 c4 8f 3c
       0.026059058 -0.022458967 0.016247232 0.017549705
000140 0c 74 aa 3c 56 56 b0 bc c3 b3 e5 3b 62 a4 b2 3c
       0.020807289 -0.021525543 0.0070099547 0.0218069
000150 6d 05 af 3c 66 d0 db 3c 37 de b5 bc 30 47 07 3c
       0.021364892 0.02683277 -0.022200687 0.0082567185
000160 da 40 e7 bb d0 2b 75 3c 16 90 02 bd f8 dd 82 3c
       -0.0070572915 0.014964059 -0.031875692 0.015974984
000170 eb 3b aa ba e2 85 32 bc 5f 11 94 3c e5 8e 3b bb
       -0.0012987828 -0.010896178 0.01807469 -0.0028619107
000180 c3 dd 98 ba 3f 03 f6 3b 7c 53 61 3b 31 9b d9 bc
       -0.001166277 0.007507711 0.0034382036 -0.026563259
000190 b5 85 d3 3c 21 61 bb bc c3 44 be bb f2 ba 1f 3b
       0.025820592 -0.022873463 -0.005806537 0.0024372903
0001a0 ca eb 76 3b 75 90 d9 bc 38 06 32 3c 45 bb de 3c
       0.0037677162 -0.02655814 0.0108657405 0.027188906
0001b0 3e ad 86 3c 16 f3 f3 3c 53 67 94 3c 89 33 f9 bb
       0.01644003 0.029778998 0.018115675 -0.0076050204
0001c0 8c cf 4a bb 96 67 c4 3c 08 dc e3 bc a4 c6 a5 3b
       -0.0030946461 0.023975175 -0.02781488 0.00505908
0001d0 13 f3 d1 3b 63 76 57 3c 25 e4 87 3c d7 8a 1b 3c
       0.0064071505 0.013150784 0.01658828 0.009493551
0001e0 cf 7e f5 3c 4f 28 9c 3c 42 e0 d3 bb 5d 6f ef ba
       0.029967694 0.01906219 -0.0064659426 -0.0018267442
0001f0 de 69 6d bc 41 51 da bc e8 7e d2 3c 42 de 3c 3c
       -0.014490573 -0.026650073 0.02569528 0.0115276
000200 fc cd 8e bc bc ff d6 bc 15 29 c4 3c 00 ce 98 bc
       -0.017432205 -0.02624499 0.02394537 -0.018652916
000210 00 6d cb bc d8 4c 4e bc 7d 20 f3 bb 5b bc b2 3c
       -0.024832249 -0.012591563 -0.0074196444 0.02181833
000220 5d 5f 7d bc 05 fc b8 3c b8 85 d3 3b d3 1b aa bc
       -0.015464631 0.02258111 0.0064551495 -0.02076522
000230 22 39 81 bc 75 0a 93 bb 03 2b ee bc c3 2e a4 bb
       -0.015774313 -0.0044873306 -0.029073244 -0.0050104572
000240 7c 14 80 3c e0 28 92 3c d2 f9 c3 bc 47 87 ff ba
       0.015634768 0.017841756 -0.023922835 -0.0019495272
000250 74 b9 47 3b ac 9b 1e 3c 04 d2 f1 bc 45 48 91 3c
       0.003047553 0.00968067 -0.029519089 0.017734656
000260 77 32 98 bc 91 6b 01 3d d9 56 93 bb f2 64 cb 3c
       -0.018578751 0.031596724 -0.004496437 0.024828408
000270 7b 6a cb bc bd 0a a8 bc ba df 82 bc 8c 9e 9d bc
       -0.024831047 -0.020512933 -0.015975822 -0.01924064
000280 c0 6a ee bc d8 27 14 bc ae 02 8a bc 42 61 d8 b8
       -0.029103637 -0.009042703 -0.01684698 -0.00010317798
000290 7c a4 d3 3b 34 ca 25 bc 95 67 d2 3a 38 14 22 3c
       0.006458817 -0.01011901 0.0016052598 0.009892516
0002a0 79 65 b9 3b d8 99 a3 bc 3f b8 ef 3c c0 49 3d 3c
       0.0056578484 -0.01997082 0.02926266 0.011553228
0002b0 e4 92 d4 bc 51 9a 16 bc df 1e e6 bc be 3f 7f bb
       -0.02594895 -0.009192065 -0.028090892 -0.0038947905
0002c0 45 83 e7 3b 80 b0 80 bc c7 6b 5d 3c d6 5f 12 3c
       0.007065209 -0.015709162 0.013514466 0.008933982
0002d0 61 cc 62 3b 08 3b fb 3c f2 74 6c 3b f7 41 48 bc
       0.0034606683 0.030667797 0.0036080447 -0.0122227585
0002e0 ae 12 8d bb ea 0e 05 bd bc 72 47 3c 83 af a5 3c
       -0.0043052053 -0.032484926 0.012173351 0.020225292
0002f0 8f 67 ca bc 90 77 c4 3c 28 75 f6 bc bf ae e1 3c
       -0.024707584 0.023982793 -0.030085161 0.027549146
000300 d5 bf ae 3c ea 42 45 bb 52 d9 d6 bc 80 53 60 ba
       0.021331707 -0.0030099698 -0.026226673 -0.00085573643
000310 e2 c7 aa bc 2b 31 34 bc 5a 21 9e 3c f0 e6 3b 3c
       -0.020847265 -0.010998051 0.019303013 0.011468634
000320 ef 30 1a bc d8 0f 92 bc 87 cc 08 bb c0 10 e1 3b
       -0.009411081 -0.01782982 -0.002087386 0.006868452
000330 22 ca af 3b 59 e2 4e bc 1e d1 88 3c fb be 1a bc
       0.0053646723 -0.012627208 0.016701277 -0.009444947
000340 18 96 f8 3c 45 91 f0 3b b6 eb ab bb 13 a7 05 bd
       0.030345008 0.007341536 -0.005246605 -0.032630038
000350 70 c9 31 bc d0 a7 96 bc ec 2a 7d bc 13 e2 9c 3b
       -0.010851249 -0.018390566 -0.015452128 0.0047876923
000360 a7 fa 16 3b 35 60 8b 3c d7 21 ad 3a c5 be 0d 3b
       0.0023037584 0.017013649 0.0013208938 0.00216286
000370 9b e9 0e 3c a2 e5 42 bc 99 a7 5d bc 83 21 aa bc
       0.008722688 -0.011895569 -0.013528728 -0.020767933
000380 95 c5 3f bb 12 84 6c bb 65 65 55 bc 39 bd 6d bc
       -0.0029262055 -0.0036089462 -0.013024663 -0.014510446
000390 a5 a8 fa bc 81 c9 f5 b9 0f 4d 22 bc 31 62 a2 bb
       -0.030597994 -0.00046880174 -0.0099060675 -0.004955553
0003a0 57 c2 cb 3c b6 f9 79 bc 25 eb b2 bc 1b 4b 5b bc
       0.024872942 -0.01525729 -0.021840641 -0.013384606
0003b0 2a 99 23 bc da 32 fb 3c 3e d9 3d 3c 10 26 e9 b9
       -0.009985248 0.030663896 0.011587439 -0.00044469582
0003c0 a4 0e 6d bc b2 f7 8d 3a f8 7c 72 bc 91 00 8e bc
       -0.014468823 0.0010831265 -0.014800303 -0.017334254
0003d0 6a ee 72 bc 32 3d 2e 3c c9 d1 fb 3c f3 9d d1 bc
       -0.01482735 0.010634707 0.030739682 -0.025588011
0003e0 23 49 bb 3c 3c 27 ea ba 8d 0a 9b 3b 3f 5a 81 bc
       0.022862023 -0.0017864476 0.0047314824 -0.015790103
0003f0 f7 5e 87 3c 93 b6 da 3a cd 79 bd 3c 43 d7 83 3c
       0.016524775 0.0016686491 0.023129368 0.016093856

fc1.bias f4 [128]
000000 0f da da 3c 04 d4 f2 3c e2 52 85 ba 77 cd 80 3c
       0.026715307 0.029642113 -0.0010171796 0.015722973
000010 d3 bb 29 bc a0 ba fe bb 5a 54 2d bc ad cc c4 3c
       -0.010359722 -0.0077737123 -0.010579193 0.024023378
000020 9c 74 0a 3c 9c 8e bb 3c 2a 79 fb bc ae a1 8f 3c
       0.008450653 0.02289515 -0.030697424 0.01753315
000030 16 39 86 bb f3 34 9d 3c 4c 5d d7 39 82 d9 19 bc
       -0.0040961606 0.019190287 0.00041077507 -0.009390237
000040 b6 67 be 3c b3 02 ab 3b 56 6c 7f ba 18 1f 99 bc
       0.023242813 0.0052188276 -0.00097436213 -0.018691584
000050 38 51 01 3b c9 07 02 bd de c3 1a 3c 4f e9 88 3c
       0.0019732248 -0.031745706 0.009446112 0.016712813
000060 2e a5 bf 3c 50 73 d9 3c 51 d5 a1 3b 58 c6 a7 bc
       0.023394194 0.026544243 0.0049387594 -0.02048032
000070 1a f8 9f bc 57 91 88 3c 7c 0c 93 bb ea 79 26 3c
       -0.019527484 0.016670866 -0.0044875722 0.0101609025
000080 c7 d2 6c 3c fe 8e f8 3c 16 b2 48 3c 2f cd a4 bc
       0.01445455 0.030341621 0.01224949 -0.02011737
000090 de f3 fe bc 4e 34 5a bc 9d 15 a6 3c be 53 e3 bc
       -0.031122144 -0.0133181345 0.020273978 -0.027749892
0000a0 50 55 ee bc 7c 86 ef 3c cd da fc 3b 66 48 8e 3c
       -0.029093415 0.029238932 0.007716513 0.017368507
0000b0 f0 fa 42 3c f8 71 20 bc 24 9d 49 bc ab 3e ea 3b
       0.0119006485 -0.009792797 -0.012305532 0.007148584
0000c0 1c e7 bb 3c 00 8c 65 38 49 0a c6 bc 5f d9 e3 bc
       0.02293735 5.472824e-05 -0.024174826 -0.027813612
0000d0 52 47 f9 bc ba 82 ad bb ee 9f 87 bc 41 cb 18 bc
       -0.030429516 -0.005295125 -0.016555753 -0.009325803
0000e0 28 85 de bc 64 72 bc 3b 87 90 58 bc 03 11 82 3c
       -0.027163103 0.005750941 -0.013218052 0.015877252
0000f0 f7 7a d4 3c c1 63 75 3c ac 1f e3 bb 2f 31 e2 bb
       0.02593754 0.0149773965 -0.006931266 -0.006902836
000100 42 1d 06 3b 54 48 83 3c ee 8c 53 bc be 33 f1 bc
       0.0020464216 0.0160257 -0.012912018 -0.029443618
000110 26 1e 91 bc 50 f6 86 3c 1c 32 43 39 f7 e1 72 3c
       -0.017714571 0.016474873 0.00018615316 0.014824382
000120 f0 06 1b bc 8d 6d ce bc 38 ef 00 bc 59 04 02 3c
       -0.009462103 -0.025198722 -0.007869534 0.007935607
000130 d2 79 ee bb f1 99 05 bc 7c 15 01 bd e5 d6 63 3a
       -0.0072777057 -0.008154378 -0.03151463 0.00086913846
000140 32 39 82 bc 4a f4 b0 bc a8 76 89 bb f1 81 4d bc
       -0.015896413 -0.021600861 -0.004195053 -0.0125431875
000150 4f 0d 97 3c 56 24 26 bc 5d 6c 53 3c 7e f4 7f bc
       0.018438963 -0.010140499 0.012904254 -0.015622256
000160 f0 9b e1 bc cb 56 fc 3a 80 c6 20 bc 8b 58 ae 3b
       -0.027540177 0.001925194 -0.009812951 0.0053206137
000170 17 b8 e7 3c 46 db e2 bc 38 fa 8f bc 9c 6d e3 bb
       0.028286023 -0.027692448 -0.017575368 -0.0069405567
000180 bf 4f ef 3c a9 bb 13 3c 08 53 53 3c 4f c0 d5 bb
       0.02921283 0.00901691 0.012898214 -0.006523169
000190 6e a6 bb bc 6c 27 82 bc 5a 3c e1 3c b0 44 82 3b
       -0.022906508 -0.015887938 0.027494598 0.0039754733
0001a0 6f 2d f4 bc 16 e8 55 bc 52 e6 e2 3c 07 82 ec bc
       -0.02980682 -0.013055822 0.027697716 -0.028870596
0001b0 16 56 82 bc a3 25 a4 bb ac a5 1a 3c bc f6 bb 3c
       -0.01591019 -0.0050093695 0.009438913 0.0229448
0001c0 a6 a4 2f bc 71 be 0c 3c 0b ae ac 3b b8 d1 a2 bc
       -0.010720408 0.008590327 0.005269771 -0.019875392
0001d0 21 ee 9a 3c 62 40 1f bb 81 5b bb bb fc 40 4f bc
       0.018912377 -0.002429985 -0.005717695 -0.012649771
0001e0 40 20 9b bc 45 0b 1b 3c ba 99 c1 bc 98 6e 9e bb
       -0.018936276 0.009463136 -0.023632873 -0.004834961
0001f0 81 71 ed bc 1d fc 96 3c e4 79 9f bc a0 7c 91 37
       -0.028984787 0.018430764 -0.019467302 1.734338e-05

fc2.weight f4 [128, 128]
000000 7c ed 17 bc fa 9a 0b bd 6a 0b 83 3c e2 c6 dd bb
       -0.009272929 -0.034083344 0.015996654 -0.0067680934
000010 50 9f 17 3d 95 25 53 3d 77 41 cd 3c 24 88 a5 3d
       0.037017167 0.051549513 0.02505563 0.080826074
000020 5c 0f b6 3d 0d 80 48 3b 65 b1 46 3c 1c 97 ce bc
       0.08889648 0.0030593902 0.012127255 -0.025218539
000030 ae 89 ae 3d dd 36 db 3c d9 f1 82 bb 0d c8 7b 3c
       0.08522354 0.02675956 -0.0039961156 0.01536752
000040 b0 ec fc bb f0 8b 97 bd d0 ef 8b 3d d2 e3 33 3d
       -0.007718645 -0.07399738 0.0683285 0.04391844
000050 52 5c a9 3d b0 80 78 3c 38 95 cd 3c f9 af 45 3d
       0.08269562 0.0151674 0.025095567 0.048263524
000060 aa ed 43 bd 1d 05 49 bd 2f e3 a4 bc a6 9d 74 3d
       -0.047834076 -0.049077142 -0.02012786 0.059720658
000070 92 93 76 3d 0d b3 aa 3d 9d 3e 63 3d b0 a1 9f 3d
       0.060199328 0.083349325 0.055479635 0.07794511
000080 01 73 a9 3c 37 6f 28 bd 94 79 ec bc 8a eb 51 bd
       0.020684721 -0.041121688 -0.028866567 -0.05125002
000090 e5 2f bf 3b 45 fe b1 bd a9 9b ac bd 06 af 6a 3d
       0.005834567 -0.08691076 -0.08428127 0.05729582
0000a0 b0 b7 7d bc ab 78 37 3d b4 80 05 3d f0 06 b4 3d
       -0.015485689 0.044792812 0.032593444 0.08790386
0000b0 46 c7 54 bd a5 52 1c 3d f4 da 91 bc ea 2a c8 bc
       -0.051947854 0.038164753 -0.0178046 -0.024434526
0000c0 4f 5f 90 bd 6b bc 8f 3d bd 69 15 bd be 9a 64 3d
       -0.07049429 0.0701836 -0.036477793 0.055811636
0000d0 78 80 dc 3b b3 3d 88 bc 76 a6 24 3d 24 21 5b bd
       0.006729182 -0.016630983 0.040197812 -0.053498402
0000e0 20 40 6c bc 18 90 bd bc b8 8b bd bc 29 fd 30 3d
       -0.0144195855 -0.023139998 -0.023137912 0.043210182
0000f0 00 50 f4 3c c7 c0 86 3d 7b 59 90 bd ad 74 64 bc
       0.029823303 0.06579738 -0.07048317 -0.013943833
000100 44 27 b0 bd f3 7d 9e bd 58 19 85 3d ec f1 2e bd
       -0.08601239 -0.07738867 0.064989746 -0.042711183
000110 dd af d8 3c 50 66 8c bc 88 e3 95 bd 73 2d ef bc
       0.026451046 -0.01713863 -0.07318789 -0.029196477
000120 8a 98 23 3d a2 69 a3 3d 64 17 6f 3d e1 fe 3d 3d
       0.039940394 0.07979132 0.058371916 0.04638565
000130 7c e5 9f bd 65 d5 30 bd a6 56 37 3d 3b e0 3c bd
       -0.078074425 -0.04317226 0.04476037 -0.04611228
000140 5d e2 56 3c 1f a7 17 bd 60 61 dd bb 86 60 b3 3c
       0.013115493 -0.037024613 -0.006755993 0.021896612
000150 d7 7f 4f bc 32 8a c9 3c eb da 93 bd a2 94 02 bd
       -0.012664757 0.02460203 -0.0721949 -0.03188003
000160 7b 5e 63 bd 9c 89 90 3d 33 e3 61 bd 8d 63 b2 bd
       -0.055510025 0.07057497 -0.055148315 -0.08710394
000170 60 a2 7a bd 8f 49 3f bd 4d 9c 86 bd ac 1d 74 bb
       -0.06119001 -0.04670101 -0.06572781 -0.003724913
000180 b1 96 a6 3c b8 06 a8 bc 33 48 a3 3a 1e 88 3f bc
       0.020335527 -0.020511016 0.001245743 -0.011690168
000190 b1 44 ef 3c 93 7e 19 3c 54 32 aa 3c 2b f1 7f 3d
       0.02920756 0.009368557 0.020775951 0.062485855
0001a0 8b bb 4f bd d8 c0 f6 3b db 57 68 3d db c9 4e 3d
       -0.050715964 0.007530313 0.05672441 0.050485473
0001b0 84 f2 0f bd 39 08 98 3d cc 73 7d 3d 92 c5 ff 3c
       -0.03514339 0.07423443 0.06187801 0.031222139
0001c0 ca 06 55 3c 38 20 a9 bd 33 48 13 3d e0 ea 7c bd
       0.013002107 -0.08258098 0.035957526 -0.06174743
0001d0 75 48 af bc 9d fd c9 bc 2a 8b 00 bc f6 c6 0c 3d
       -0.021396855 -0.024657065 -0.007845679 0.03436943
0001e0 77 63 86 bd a3 1f ac 3d 88 62 89 bd c4 b1 ec bc
       -0.0656194 0.08404472 -0.067082465 -0.028893359
0001f0 b8 31 b4 3d c5 60 86 3d e9 ce 5e 3d 86 76 a2 3d
       0.087985456 0.06561426 0.054396544 0.07932763
000200 aa 0a 36 bd 86 67 61 bd b5 e8 95 3d f2 9f 97 bd
       -0.044443764 -0.05503037 0.07319776 -0.07403554
000210 61 3c 56 bd 58 52 11 bc 8b ba df 3c 92 ed a2 3d
       -0.052303676 -0.00886973 0.02731063 0.07955469
000220 ce 57 7d 3c 5d 08 16 bd 99 c5 c3 bc 3a f7 a5 bd
       0.015462829 -0.03662907 -0.023897933 -0.08103795
000230 a6 d7 b9 3c 28 2b 24 bd dc c1 9b bd 8b b1 3b 3d
       0.022685837 -0.04008022 -0.07605335 0.045823615
000240 02 82 9e bd 59 c7 d3 3c c7 63 1f 3c 0f b8 33 bc
       -0.07739641 0.025851892 0.009728379 -0.010969176
000250 68 8f 66 3d 28 ea 9c bd 8f d8 d6 bc 2c 45 b7 3c
       0.056289107 -0.07661849 -0.02622631 0.02237185
000260 3b 87 99 bd b2 98 61 bd ce 7e 20 3d d4 1c dd bc
       -0.07496496 -0.055077262 0.03918343 -0.026991285
000270 ab a6 65 bd c3 f2 5c 3d 8f 59 0f bb d9 ed 31 bd
       -0.05606715 0.053942453 -0.002187345 -0.04343972
000280 da 64 99 3b 53 ef e0 3b 4e 55 b4 3d 66 2b a9 3d
       0.004681212 0.006864467 0.08805333 0.08260231
000290 fa da a5 3d c2 60 3b 3d 0f 97 8d 3d 21 91 ec 3b
       0.08098407 0.045746572 0.06913578 0.007219449
0002a0 10 44 45 bd a5 a4 86 3d 34 6b a1 bd 72 50 ca bc
       -0.048160613 0.06574372 -0.078817755 -0.024696562
0002b0 b9 4d 86 bd a8 1e 18 3c 4a 83 68 3d 34 a7 ab 3c
       -0.06557793 0.009284653 0.056765832 0.020953752
0002c0 5e 86 90 3d b5 fc 0c bd 2c f6 87 bd d0 a4 70 bc
       0.070568785 -0.034420688 -0.066387504 -0.014687732
0002d0 ca d1 93 3d 69 75 36 3d ed a3 b2 3d a6 d5 3b 3d
       0.072177485 0.044545565 0.087226726 0.045858048
0002e0 19 39 8b 3d cd 38 22 3d 1b 8b 96 3d 12 61 03 3d
       0.06798 0.03960495 0.07350751 0.032074995
0002f0 ec 45 2b bc 8c a5 71 3d 0d 04 8c bd 0e 2c 29 3d
       -0.010453682 0.05899577 -0.0683671 0.04130178
000300 ed af 87 3d 1a 37 5a b9 b8 22 83 bd ea 03 66 3d
       0.06625352 -0.00020810627 -0.064031065 0.056156076
000310 c9 c9 68 bd 58 8c 5d bd 4a 8b 6d bd a7 67 75 3d
       -0.056833062 -0.05408892 -0.057994165 0.059913304
000320 5e 9b 99 3d 00 72 9f bb bb a5 d1 3c 67 bd 0b 3d
       0.07500337 -0.004865885 0.025591722 0.034116175
000330 76 51 e4 3b 96 29 70 bd dd 18 b2 bd 03 9a 9a bd
       0.0069677187 -0.05863341 -0.086961485 -0.07548907
000340 15 0a 15 3d c8 ea a0 3c b9 d6 a9 3d 22 ae f3 bc
       0.036386568 0.019643202 0.08292908 -0.029746119
000350 77 41 9f 3d 90 16 55 3d 7d 45 73 bd ca 02 7b bc
       0.07776158 0.05202347 -0.05939244 -0.015320489
000360 f0 69 ae bb c0 da 96 3b a9 6f 03 bd 67 80 17 3d
       -0.0053226873 0.0046037138 -0.03208891 0.03698769
000370 96 7a 5b 3d bd 20 aa bd 06 0d 0b bd 02 5d 9a 3d
       0.053583704 -0.083070256 -0.033947967 0.07537271
000380 32 7b 2a 3d 2f 32 93 3c a7 bc c7 3c 2f 43 05 bd
       0.041621394 0.017968265 0.024381949 -0.032534774
000390 dc 89 09 bd 7f dc a8 bb 78 d6 1e 3d 76 98 ad 3d
       -0.03357874 -0.0051532383 0.038778752 0.08476345
0003a0 6c f9 a7 3d 06 a5 58 bb 52 d2 b4 bd 32 50 c3 bc
       0.0820187 -0.0033057346 -0.08829178 -0.023841951
0003b0 ee c0 4c 3d 52 99 93 3c a3 8a a3 3d 57 5f c6 bb
       0.04998868 0.018017445 0.07985427 -0.006053846
0003c0 69 ac aa bb a8 42 9d bd 7e 88 ea bc 22 80 84 bd
       -0.005208541 -0.07678729 -0.028629538 -0.06469752
0003d0 63 1c 59 bd 02 11 77 3d 38 01 49 3d f5 4e 9d 3d
       -0.053005587 0.060318954 0.049073428 0.076810755
0003e0 62 0a d6 3c 81 43 74 3d 83 b6 fa bc ae 82 95 bd
       0.026127998 0.05963469 -0.030604606 -0.07300316
0003f0 b4 2d d7 bc 9f 46 b0 bd c7 01 ae bc 55 83 8d bd
       -0.02626691 -0.0860722 -0.021241082 -0.06909815

fc2.bias f4 [128]
000000 10 11 4a 3c 6a 80 bb 39 96 03 81 3b 63 2e 83 bc
       0.01233317 0.00035763095 0.003937195 -0.01601333
000010 25 43 1b bd 57 ea 4a bd 70 ba b2 3d f5 fb 25 3c
       -0.03790583 -0.04953989 0.087269664 0.010130872
000020 9a 83 d3 3b b7 60 40 bd c6 85 9f 3d 75 3a a1 3d
       0.006454897 -0.046967234 0.07789187 0.07872478
000030 27 31 53 bd d8 8b 02 bd 41 d8 ae 3d 65 03 98 3d
       -0.051560547 -0.031871647 0.08537341 0.074225225
000040 d0 1e 72 bc f5 bb 90 bd f0 47 a3 bb 95 87 f6 39
       -0.014777854 -0.070671 -0.004982941 0.00047021793
000050 44 09 89 bc b4 e4 f4 bc 1c a3 af 3d 1d f5 20 3d
       -0.016728051 -0.02989421 0.085760325 0.03929626
000060 09 bb 2a 3d 8a f7 78 3d 19 f7 76 3d fa c0 17 bd
       0.041682277 0.060782947 0.060294244 -0.03704927
000070 c5 c9 22 bd 9b 29 0a 3d 06 dd 79 bd 9b de 13 bd
       -0.039743204 0.033731084 -0.0610018 -0.036100965
000080 04 ca 47 bd 6c 4c 5b bd 91 81 42 3d 8a 8e 91 3d
       -0.04877664 -0.05353968 0.047486845 0.07107265
000090 b7 0a 6a 3d 90 73 a3 3b 03 84 6f bd bb 60 71 bc
       0.057139125 0.0049881414 -0.058475506 -0.014732535
0000a0 b8 66 ab bd 51 de 51 bd 17 4d ab 3d d5 51 3a bd
       -0.083692014 -0.051237408 0.08364313 -0.045488197
0000b0 cd 00 11 bd c9 e9 99 3d ce 86 37 bd 03 9c 9f 3c
       -0.035401154 0.07515294 -0.044806294 0.019483572
0000c0 00 8a 67 bd 05 89 2d bd 93 63 5c bd 38 d4 c5 bc
       -0.05652809 -0.042367 -0.0538059 -0.024149045
0000d0 a4 96 b4 3b a9 ac 23 bd 0e 81 a7 bd f7 1a 60 bd
       0.005511122 -0.039959583 -0.08178912 -0.054713216
0000e0 cc e3 d1 3c f7 4f 2d bd 54 77 41 bd 24 d0 98 3d
       0.025621317 -0.04231259 -0.04723294 0.07461575
0000f0 f6 4c d4 3c 78 13 ad bc 3c 8e bf 3c 9c 4f a3 bd
       0.025915604 -0.021127447 0.023383252 -0.07974169
000100 33 e3 c6 3c 13 b3 57 3d a3 31 28 bc 74 0c a2 bc
       0.024278259 0.052661013 -0.010265741 -0.019781329
000110 e8 4a 73 3d 4e 76 af bd 48 8c 05 bd 37 e8 27 bd
       0.059397608 -0.08567487 -0.032604486 -0.04099294
000120 8e 20 e6 bc d2 3e 0f bd 43 32 ab 3d a9 53 4e bd
       -0.028091695 -0.03497202 0.08359196 -0.050372753
000130 82 80 ed bc af 99 5f bd 28 a4 b1 bc 3d 7d 18 3d
       -0.028991941 -0.054589923 -0.021684721 0.03722881
000140 23 d8 8c 3d 7c 0e d8 bc 90 64 09 bd d8 e2 c3 bc
       0.06877162 -0.026374094 -0.03354317 -0.023911878
000150 6c 18 7c 3d 2a 5e 6b 3c 5d d2 a1 3d 69 f0 5e 3d
       0.061546728 0.014365712 0.07901452 0.05442849
000160 fb b2 71 bd fe ce 05 bd 53 df 77 3d 61 6d 0f bd
       -0.05900858 -0.032668106 0.060515713 -0.03501642
000170 a4 2d b6 3d e5 a6 5d bc 24 b3 a1 bc f8 2c 51 bc
       0.08895424 -0.01352856 -0.019738741 -0.012767069
000180 bb a7 b0 bd 81 69 a9 3d 8e e3 a2 3d 5d 07 a6 3d
       -0.08625742 0.082720764 0.07953559 0.08106873
000190 bb aa d7 3c 50 e2 73 3d 7d 72 3d bd 8b 4a b3 bd
       0.026326528 0.059542 -0.046251763 -0.08754452
0001a0 84 bd b2 3d 24 d4 c5 bc 58 6c ad bd 03 df 97 3d
       0.087275535 -0.024149008 -0.084679306 0.07415583
0001b0 f6 b6 40 bd 8b 01 23 bd dd 4e 6c 3d 30 aa a8 3c
       -0.047049485 -0.039796393 0.057692397 0.020588964
0001c0 9e 51 67 3d 20 76 8f bc a8 d0 c4 3c b6 1b 6d 3c
       0.05647432 -0.017512381 0.024025276 0.014471939
0001d0 86 55 3a bd 80 0d b2 bd d5 f0 a7 3b 6d 35 10 3d
       -0.045491718 -0.08693981 0.005125145 0.0352072
0001e0 6b e5 1a 3d 30 eb 6e bc 9f 3d 0d 3d 3a 3c ff bc
       0.037816446 -0.01458244 0.034482595 -0.031156648
0001f0 23 6d a4 3c eb a0 84 3d 58 68 af 3d b1 9f 0d 3d
       0.020071572 0.06476005 0.08564824 0.03457612

fc3.weight f4 [2, 128]
000000 24 82 56 bc 99 a9 3c 3d 0c 6f 96 3d 72 6e 8f 3d
       -0.013092551 0.04606018 0.07345399 0.07003488
000010 79 b4 8a bd 17 1d a4 3d 8c c8 77 3d 01 ee 1e bd
       -0.06772704 0.08013361 0.06049399 -0.038801197
000020 d4 13 69 bd 20 83 03 bb a3 29 8a 3d 98 ca 3b bd
       -0.056903675 -0.002006717 0.06746223 -0.045847505
000030 ee 39 52 3d 42 c8 77 3d 45 40 83 3c 6a cd 0b 3d
       0.051324777 0.060493715 0.016021857 0.034131445
000040 98 85 6e 3c 90 d9 28 3c c6 ff b0 bd 8b d3 8e 3d
       0.014558218 0.010305777 -0.08642535 0.06973942
000050 45 fd 1d bd e9 57 b6 3d 5b 3b 78 3d ee 73 08 3d
       -0.038571615 0.08903486 0.06060348 0.033313684
000060 ea 4b 2d bb d6 41 9e bd 15 ba 98 bd f5 6b 9a 3d
       -0.0026442953 -0.07727401 -0.07457367 0.075401224
000070 c8 3b c5 bc 9e 90 31 bd f8 ce 87 bd 70 b7 8e bb
       -0.024076357 -0.04335081 -0.06631273 -0.0043553635
000080 f8 a6 96 bc ae 2b 57 3d 5f 17 ae 3d fb 61 e8 3c
       -0.018390164 0.05253189 0.085005514 0.028367033
000090 62 83 00 3a 22 f4 5d 3d 1a 45 2d 3d 15 46 86 3d
       0.000490239 0.0541879 0.04230223 0.06556336
0000a0 d6 4d 67 3d 5a bf 50 bd b7 2d 6b bd b4 5c 91 bd
       0.056470715 -0.050963737 -0.057416644 -0.0709776
0000b0 ea fd 48 bd 2e 3a 62 3d b9 2b 3f bd ab c3 0a 3d
       -0.049070276 0.055231266 -0.046672557 0.03387801
0000c0 d0 03 5d bc 56 a8 66 3d 2d e0 89 3d ac 00 cd bc
       -0.0134896785 0.05631288 0.06732211 -0.025024734
0000d0 c2 49 bc bc 56 32 71 3d eb 83 8a bd d0 e4 90 3b
       -0.02298439 0.058885895 -0.067634426 0.004421808
0000e0 a0 c8 39 3d 9c 4c 9b bc 2a e2 48 bd a0 21 48 3d
       0.045357347 -0.018957429 -0.04904381 0.048860192
0000f0 e3 f5 ca 3b 82 93 3d 3d d8 fc ab 3d b4 ea 07 3d
       0.0061938628 0.046283253 0.083978355 0.033182815
000100 63 d8 6f bd 82 ad 38 bd ce 77 99 bd 32 9f 6e 3d
       -0.05855597 -0.045087345 -0.07493554 0.05825729
000110 02 a7 b1 bd 4d 7a 80 3d fb b1 a0 3d 7c 81 bb bc
       -0.08674432 0.06273327 0.07846447 -0.022888891
000120 fe 91 40 3d 60 08 cf bb 7c c5 31 bc 64 52 09 3d
       0.04701423 -0.006318137 -0.010850307 0.03352584
000130 20 ab 1e 3c d8 0f 56 bc bc f0 cc bc 37 55 e7 bc
       0.009684354 -0.013065301 -0.025017135 -0.028238876
000140 bc a5 60 bc d0 73 b9 3c 41 8a 95 3d 0f 96 8c 3d
       -0.013711389 0.022638232 0.073017605 0.06864559
000150 ce b9 36 3c 45 6b 77 bd 29 d5 9d bd 72 8c 9e bd
       0.011152698 -0.060405035 -0.07706673 -0.077416316
000160 ff 09 8d 3d c0 4a 8d 3c 41 99 e4 3c 50 a7 43 bd
       0.06886672 0.017247558 0.027905108 -0.047766984
000170 cf cc 22 3d e4 05 1b 3b 28 7e 32 3c c2 c6 44 3d
       0.039746102 0.0023654634 0.010894336 0.048041113
000180 8e 7f 67 3d 04 80 05 3d d3 96 95 3c 9e 93 ac bd
       0.05651813 0.03259279 0.018260395 -0.08426593
000190 41 0d 8a 3c 2f 5f 17 3d 30 42 6c bd 5a 0b 5e bd
       0.016852023 0.03695601 -0.05768031 -0.054210044
0001a0 b3 4d d6 bc 28 56 b9 3c 03 a4 88 3d da 3a 65 bc
       -0.026160097 0.02262409 0.06671908 -0.013991082
0001b0 c2 84 70 bd 27 49 99 3d 6b 76 9a bd ce c3 88 3d
       -0.058720358 0.07484656 -0.07542118 0.06677972
0001c0 17 10 a1 3d 33 d4 24 bd 9d 40 3f bd a2 0e 48 3d
       0.07864397 -0.04024143 -0.04669248 0.04884208
0001d0 80 f4 35 3b 11 13 18 bd 9e 53 20 3d d8 de 3b bd
       0.0027764142 -0.03712756 0.039142244 -0.045866817
0001e0 21 c5 a0 bc b2 02 6c 3d 4a c0 c8 3c 98 fe 00 3c
       -0.019625248 0.057619758 0.024505753 0.0078732
0001f0 f5 af 90 bd 10 5d b3 3d 66 f8 19 3d ca 0a cb bc
       -0.07064811 0.08757985 0.037590407 -0.024785418
000200 14 b8 25 bd 5b 86 34 3d 74 2e 7e 3d 70 02 de 3c
       -0.040458754 0.044073444 0.06205602 0.027100772
000210 02 ff 4d 3d 92 f3 b2 bd 77 89 b9 3c d0 13 88 bb
       0.050292023 -0.087378636 0.022648556 -0.0041527525
000220 97 59 a5 3d 4d f9 a8 3d 23 ab 92 bd 99 b0 9d bc
       0.080737285 0.08250675 -0.07161548 -0.019249247
000230 f8 1c 88 3c 20 eb fb bb 72 22 36 3d 12 ef f9 b9
       0.016615376 -0.007687941 0.044466443 -0.00047671102
000240 63 5e 39 bd 62 17 0a 3d 4c 57 d1 3c 74 35 ec 3c
       -0.04525603 0.033713706 0.025554322 0.028834082
000250 87 c2 a9 3d 1a 98 85 3d 60 0f 57 3d cd 62 a6 ba
       0.08289056 0.06523152 0.052504897 -0.001269424
000260 a4 c4 3d bc f9 06 b6 bc eb 0a 36 3d 32 e2 48 bd
       -0.011582527 -0.022220122 0.044444006 -0.04904384
000270 b3 5f b3 3d b2 0a 95 3d b7 f0 89 3d ef af a5 bd
       0.087584876 0.072774306 0.06735366 -0.08090197
000280 07 75 a6 bd 13 09 81 3d 08 0c 8f bc 85 72 9e 3d
       -0.0812779 0.06300559 -0.017461792 0.077366866
000290 06 36 9d bd a0 7b ed bb 89 bc 89 3d 4f 8f 92 3d
       -0.0767632 -0.0072474033 0.06725413 0.0715624
0002a0 b8 bb a2 bc b0 19 90 3c 78 9b 3f 3d 26 14 50 3d
       -0.019864902 0.017590374 0.046779126 0.050800465
0002b0 4a 08 c9 3c 9d dc 5e 3d ea fc 06 3d 44 d8 82 3d
       0.024540085 0.054409612 0.03295604 0.06388906
0002c0 8b 4e 81 3d 66 7f 03 3d e7 18 9b 3d 1e 01 36 3d
       0.06313809 0.03210392 0.07573109 0.04443466
0002d0 d4 5d 71 3d 70 90 f5 3b 59 55 aa bd 5c 34 13 bd
       0.058927372 0.007494025 -0.0831706 -0.035938606
0002e0 94 54 8b bd b9 32 a4 bd b0 99 b3 3b 3b fb b4 bd
       -0.06803241 -0.08017487 0.0054809675 -0.08836981
0002f0 ca b6 b1 bd e8 c8 8b bd 6d 64 52 bd d4 e2 8c bd
       -0.08677442 -0.06825429 -0.051365305 -0.068792015
000300 67 02 40 3c 11 3e 98 3d 1b 64 de bc 60 28 24 3c
       0.011719323 0.07433713 -0.027147343 0.010019392
000310 95 7b 87 3c a2 c5 75 3d f9 12 99 3d a0 d6 00 bb
       0.01653842 0.06000293 0.07474322 -0.0019659176
000320 7d 40 33 bd 0a 5a 4d bd 28 84 75 3d 8b 55 9f 3d
       -0.043762673 -0.050134696 0.059940487 0.07779988
000330 43 f8 81 3d e0 a9 2d 3b 03 63 84 3d 7e 47 52 3b
       0.0634618 0.0026498958 0.064641975 0.003208607
000340 2c cf 1e 3b b5 16 a0 3d 58 c7 37 3c 2c 03 aa bc
       0.002423237 0.07816831 0.011216961 -0.020753466
000350 41 99 81 bd 8d 3e 96 bd c7 10 a9 3d 5e c7 e7 bc
       -0.06328059 -0.07336149 0.08255153 -0.028293308
000360 ff 06 30 bd 50 ac 9e bd 62 25 b3 bd 0a b6 e2 bc
       -0.042975422 -0.0774771 -0.087473646 -0.027674694
000370 ab bb 2c bc fd 4e 6f bd 63 ea 19 bd ba 24 5e 3d
       -0.01054279 -0.05842494 -0.037577044 0.054234244
000380 88 91 65 bc 69 e7 c4 bc ef 08 b8 3b c3 35 42 3d
       -0.014011748 -0.024036126 0.0056162993 0.047414552
000390 48 cd b7 bc 1e 59 3b bd 32 0f 44 3d 47 f7 4c bd
       -0.022436753 -0.045739286 0.047866054 -0.05004051
0003a0 aa b7 ad bd f0 ed ce 3c 1e 98 08 3d 40 f6 92 bd
       -0.08482297 0.025259942 0.033348195 -0.07175875
0003b0 77 80 6b bd ae a0 2a 3d c7 68 7c bd 5c 40 45 bd
       -0.05749556 0.041657142 -0.06162336 -0.04815708
0003c0 71 06 90 3d 3e 14 0f 3d 82 81 10 bd 8d 2f 90 3d
       0.070324786 0.034931414 -0.03527976 0.070403196
0003d0 2b 65 aa bd 7c ee 9c bc 9b 24 61 bd 2b 63 29 3d
       -0.083200775 -0.019156687 -0.05496655 0.04135434
0003e0 a7 33 dd 3b 65 77 1b bd 5b a6 47 3d f4 01 fe 3c
       0.006750542 -0.03795566 0.048742633 0.03100679
0003f0 41 2c 27 3d 57 4c 99 bd 3a e5 37 bc 9b cc 2b 3c
       0.04081369 -0.07485264 -0.011224085 0.010485793

fc3.bias f4 [2]
000000 7c f7 81 bd 1e af 99 3d
       -0.06346032 0.07504104
