modelreal/model023/checkpoint-episode-200.pth.tar (torch_old, 176703 bytes, 6 tensors)

fc1.weight f4 [128, 207]
0.037285443 -0.059812564 0.107155815 -0.07211703 0.079841346 0.09947933 0.035822082 0.058264244
0.07852159 0.07631873 -0.04378953 -0.03732369 -0.006629063 -0.0058521884 0.013240167 -0.010514064
-0.007603378 0.003162079 0.05053889 0.08201304 0.01664262 0.02981718 -0.070747346 -0.02204987
-0.037932746 0.043883033 -0.018901775 0.043478873 0.028024182 0.11778518 0.09917276 0.03579002
-0.0009857396 0.119167455 -0.0022044277 0.0742037 0.042570073 -0.064329185 -0.0999161 -0.004088692
0.012779417 0.084884234 0.10240734 -0.01008641 0.025937792 0.04072665 0.061173346 0.025512183
0.05732639 0.008692195 -0.048863374 0.06134625 -0.06619193 -0.04107945 0.056674607 0.03206946
0.031636927 -0.044270325 0.051640578 -0.054594256 -0.09164029 -0.0106128445 0.0321114 0.011528128
0.07987357 -0.09782964 -0.03062971 0.054399885 0.07263413 0.051068876 0.0016657218 0.023111423
-0.03918487 0.06127615 0.064799435 0.041729763 -0.04091264 0.06082342 0.033084247 0.014688103
0.03422797 -0.06053678 -0.007287752 0.008709678 -0.064712726 -0.02093691 -0.041420307 -0.048956696
0.051628772 -0.014441228 0.016147587 0.0015941199 0.025045233 0.056612093 0.032914553 0.08458132
0.05947168 -0.05722547 -0.03232633 -0.053969502 0.04157013 0.12385182 0.0031913782 0.014964916
0.08542047 -0.02174849 0.008701838 -0.056077804 -0.070286825 0.03382911 0.0115966005 0.02761072
-0.031330988 -0.028907197 -0.07780754 0.003820893 0.0015572184 -0.1306533 -0.050555237 0.069558814
-0.05734855 0.026085738 0.12570135 0.013343187 -0.042315837 -0.06659577 -0.031738605 -0.027808093
-0.044093948 0.026641628 -0.0148983635 0.11529595 0.02448165 0.09923877 -0.015750019 0.038248137
0.020720137 0.06708657 0.06274117 -0.0032408186 0.02528341 -0.06889212 -0.053482126 0.08425885
-0.014513777 0.076945975 0.05019039 0.025195634 -0.034440823 0.06185669 -0.0064458144 -0.03537436
-0.093455605 -0.055629086 0.059206035 0.011702109 0.09043281 0.041763756 -0.038272597 -0.018531328
0.06521266 -0.07238194 0.08645585 0.014839786 0.08164922 0.060815796 -0.050594196 -0.042787652
-0.04223465 -0.010258808 -0.054153048 -0.05729495 0.065280475 0.01033974 -0.013051551 0.016785668
0.018418664 -0.014348796 -0.074440904 -0.036798693 0.029962528 0.00814877 -0.07793884 0.027163906
-0.016441712 -0.058616076 -0.03780128 0.041991103 -0.020810049 0.0011916738 -0.04844146 -0.0049733645
0.08366814 0.040575515 -0.08532521 0.035540324 0.005130641 -0.015531728 0.014237841 -0.010849996
0.02393866 0.026845956 -0.033956688 -0.019480703 0.05145888 -0.05107361 0.0670711 0.05196316
0.00273678 -0.0066413544 0.014245284 -0.030834584 -0.059538413 -0.00462754 0.05449231 0.036066648
0.06268332 0.038494553 0.06101782 0.041388188 -0.031702645 0.062332254 0.004253261 -0.06776089
0.03978177 0.045368396 -0.021451889 -0.07728741 0.056179896 0.0012378941 -0.023908924 -0.039292973
-0.022569133 0.041664425 -0.020880038 0.017674446 -0.021391375 0.019747734 -0.06803777 0.037935037
-0.07956587 -0.030663513 0.052589778 0.020238139 -0.045447923 -0.017973594 -0.06752585 0.06674386
-0.053592123 0.06810422 -0.03901454 -0.002384078 -0.013508293 -0.0447328 -0.039365884 0.0402883
00000000: 9fb8 183d 05fe 74bd 8274 db3d 18b2 93bd
00000010: dc83 a33d d2bb cb3d 2dba 123d 7da6 6e3d
00000020: edcf a03d ff4c 9c3d a65c 33bd bae0 18bd
00000030: 9c38 d9bb b7c3 bfbb 49ed 583c 2e43 2cbc
00000040: c225 f9bb e23a 4f3b de01 4f3d 74f6 a73d
00000050: 1b56 883c 2943 f43c fce3 90bd eea1 b4bc
00000060: 5e5f 1bbd b2be 333d e5d7 9abc e716 323d
00000070: f892 e53c 5b39 f13d 171b cb3d 8e98 123d
00000080: ef33 81ba 110e f43d 2978 10bb 1cf8 973d
00000090: f55d 2e3d 05bf 83bd d0a0 ccbd 6ffa 85bb
000000a0: c360 513c c9d7 ad3d f1ba d13d 7841 25bc
000000b0: 7e7b d43c fdd0 263d e790 7a3d edfe d03c
000000c0: 14cf 6a3d b569 0e3c f624 48bd 3546 7b3d
000000d0: a28f 87bd ed42 28bd a223 683d 445b 033d
000000e0: b995 013d cd54 35bd 1285 533d 3a9e 5fbd
000000f0: e8ad bbbd 7fe1 2dbc 3e87 033d 79e0 3c3c
00000100: c194 a33d e85a c8bd 28eb fabc 6ad2 5e3d
00000110: 34c1 943d 992d 513d 5954 da3a 2b54 bd3c
00000120: 5080 20bd b3fc 7a3d 91b5 843d d4ec 2a3d
00000130: 0394 27bd fa21 793d 5983 073d 5fa6 703c
00000140: a132 0c3d 6af5 77bd 18ce eebb 0ab3 0e3c
00000150: 1b88 84bd e283 abbc 57a8 29bd d186 48bd
00000160: b178 533d e69a 6cbc f247 843c caf1 d03a
00000170: a92b cd3c 15e2 673d 69d1 063d f938 ad3d
00000180: 9498 733d 4165 6abd 9d68 04bd 200f 5dbd
00000190: 7145 2a3d 06a6 fd3d 7126 513b 682f 753c
000001a0: edf0 ae3d e429 b2bc 2792 0e3c d7b1 65bd
000001b0: 8af2 8fbd 6590 0a3d abff 3d3c e02f e23c
000001c0: ec54 00bd c9ce ecbc 8f59 9fbd f267 7a3b
000001d0: 941b cc3a fbc9 05be 0213 4fbd da74 8e3d
000001e0: 50e6 6abd c2b1 d53c dbb7 003e 629d 5a3c
000001f0: 5f53 2dbd 5d63 88bd 5700 02bd cccd e3bc
00000200: db9b 34bd 8b3f da3c 4418 74bc 4820 ec3d
00000210: be8d c83c b23d cb3d 2f06 81bc 14aa 1c3d
00000220: 47bd a93c af64 893d 717e 803d ea63 54bb
00000230: 271f cf3c 5017 8dbd 1310 5bbd e78f ac3d
00000240: 31cb 6dbc da95 9d3d 7094 4d3d 1367 ce3c
00000250: d211 0dbd 715d 7d3d 6937 d3bb b4e4 10bd
00000260: a765 bfbd 53db 63bd 0782 723d 34ba 3f3c
00000270: d634 b93d 7910 2b3d bac3 1cbd 03cf 97bc
00000280: 378e 853d fc3c 94bd c40f b13d 9322 733c
00000290: b537 a73d fc19 793d dc3b 4fbd 1b42 2fbd
000002a0: 3efe 2cbd 8f14 28bc 96cf 5dbd 1cae 6abd
000002b0: c5b1 853d 0368 293c 2cd6 55bc 1982 893c
000002c0: bde2 963c 3617 6bbc 7974 98bd 3aba 16bd
000002d0: fa73 f53c 6b82 053c 669e 9fbd d786 de3c
000002e0: c5b0 86bc 6917 70bd 84d5 1abd ddfe 2b3d
000002f0: d679 aabc f031 9c3a 8d6a 46bd 9bf7 a2bb
00000300: 345a ab3d 8332 263d fcbe aebd bb92 113d
00000310: f01e a83b ca78 7ebc d545 693c 2ec4 31bc
00000320: 021b c43c 0dec db3c 2b16 0bbd ff95 9fbc
00000330: 8cc6 523d 9032 51bd 935c 893d 53d7 543d
00000340: 8d5b 333b b89f d9bb 0d65 693c cf98 fcbc
00000350: 8dde 73bd 9ea2 97bb 5433 5f3d 9fba 133d
00000360: 1d60 803d 77ac 1d3d d2ed 793d a986 293d
00000370: a2da 01bd 1b50 7f3d f05e 8b3b 39c6 8abd
00000380: 36f2 223d 36d4 393d dfbb afbc dd48 9ebd
00000390: e41c 663d d540 a23a a6dc c3bc abf1 20bd
000003a0: e7e2 b8bc 51a8 2a3d 9d0c abbc 00ca 903c
000003b0: f73c afbc 00c6 a13c 6357 8bbd c561 1b3d
000003c0: 6ef3 a2bd 0c32 fbbc 6168 573d 74ca a53c
000003d0: 9a27 3abd 5c3d 93bc fe4a 8abd 01b1 883d
000003e0: 6a83 5bbd 3a7a 8b3d b6cd 1fbd 313e 1cbb
000003f0: e351 5dbc be39 37bd 1f3e 21bd 5805 253d

fc1.bias f4 [128]
0.08148878 -0.037230875 0.010977747 0.03837883 -0.038578965 0.005754635 0.02437833 -0.006349207
0.017719813 0.046412785 0.067010395 0.05471125 -0.010037656 -7.927759e-05 0.032013696 -0.015413363
0.0069303857 0.024601636 0.031350598 -0.03370525 0.044501673 0.017795747 -0.07395304 0.013184427
-0.010856026 -0.046746645 0.03840248 0.0041995603 0.0047650584 0.05433582 0.023960806 0.0025895424
-0.026508888 -0.027350374 0.010224688 0.013324856 0.012857341 0.019978113 -0.008188572 -0.014599308
0.01769412 0.046325583 0.013196382 0.021590728 -0.032078497 -0.0033381663 0.0052610347 -0.065856785
-0.01600552 -0.060758952 0.01660643 0.043551542 -0.012432316 0.04769156 -0.06644882 -0.0013543748
0.021446334 -0.012002505 0.030532867 -0.008721442 0.01932874 0.013225639 -0.02063798 0.018452212
0.025190499 -0.016257372 -0.016948717 0.009501363 0.0117936665 0.043736026 0.001086128 0.009345437
0.03152898 0.03455188 -0.008289903 0.009061698 0.02530223 0.019824289 -0.025003811 0.038982555
0.0062487773 0.0440585 0.006984529 0.004261464 0.00877115 -0.008832163 0.011118286 -0.0049123378
0.025564758 0.007831723 -0.03253396 0.03732256 0.03771345 -0.053510822 -0.014466841 0.044585988
-0.044950813 0.0023857604 -0.017488562 0.006840345 -0.06313547 -0.04728955 -0.037865374 -0.03813036
0.054815214 0.016982965 0.026014712 0.019558342 0.014680792 -0.02918291 0.0056634904 0.025318753
0.015664224 0.006655526 0.05635926 0.025844933 0.0198739 -0.0603513 0.04950471 0.024137931
-0.013936299 -0.035881463 0.029858515 0.001770821 0.06391105 0.0068984902 0.0052585094 0.0029975653
00000000: 97e3 a63d 677f 18bd 02dc 333c 1f33 1d3d
00000010: fa04 1ebd 6191 bc3b 10b5 c73c 020d d0bb
00000020: 2429 913c 551b 3e3d bf3c 893d e718 603d
00000030: fb74 24bc d541 a6b8 cb20 033d 5588 7cbc
00000040: 4a18 e33b 5f89 c93c 7c69 003d 840e 0abd
00000050: 6347 363d 63c8 913c b174 97bd 7f03 583c
00000060: 79dd 31bc 6979 3fbd eb4b 1d3d 779c 893b
00000070: 3524 9c3b 3d8f 5e3d 7449 c43c 50b5 293b
00000080: 2b29 d9bc e40d e0bc 7385 273c 7f50 5a3c
00000090: 99a7 523c 24a9 a33c 5c29 06bc f031 6fbc
000000a0: 42f3 903c e5bf 3d3d a335 583c 0adf b03c
000000b0: be64 03bd 23c5 5abb c264 ac3b ecdf 86bd
000000c0: 021e 83bc 61de 78bd 350a 883c 1a63 323d
000000d0: eab0 4bbc 3a58 433d 5216 88bd 4785 b1ba
000000e0: 39b0 af3c 28a6 44bc 1020 fa3c 61e4 0ebc
000000f0: 4e57 9e3c 5ab0 583c fb10 a9bc 1829 973c
00000100: 4e5c ce3c 2e2e 85bc 09d8 8abc 9bab 1b3c
00000110: 393a 413c 8c24 333d 685c 8e3a 9b1d 193c
00000120: 8824 013d 4686 0d3d 60d2 07bc 8477 143c
00000130: 9f46 cf3c 8c66 a23c cbd4 ccbc 2cac 1f3d
00000140: 8bc2 cc3b b076 343d 7ade e43b c0a3 8b3b
00000150: dfb4 0f3c c7b4 10bc 7929 363c adf7 a0bb
00000160: 2f6d d13c a150 003c 5442 05bd 8adf 183d
00000170: 6b79 1a3d 2a2e 5bbd 5406 6dbc cc9f 363d
00000180: 581e 38bd 6b5a 1c3b 2c44 8fbc f924 e03b
00000190: 2b4d 81bd b0b2 41bd b918 1bbd 952e 1cbd
000001a0: eb85 603d dc1f 8b3c ce1c d53c d138 a03c
000001b0: b487 703c 0011 efbc cd94 b93b 4669 cf3c
000001c0: 4252 803c 9916 da3b f8d8 663d c1b8 d33c
000001d0: 97ce a23c ed32 77bd 73c5 4a3d e9bc c53c
000001e0: 1355 64bc 71f8 12bd d899 f43c e51a e83a
000001f0: cce3 823d bb0c e23b 934f ac3b cd72 443b

fc2.weight f4 [128, 128]
0.020801662 0.0080556255 -0.016235419 0.01669682 -0.022701053 0.0024228105 0.104879044 -0.038548313
-0.0098654805 -0.019768862 0.036653947 -0.071760036 0.0153490035 -0.055846073 -0.06891491 0.056565344
-0.04647247 0.09746694 -0.055791814 -0.040998712 0.049288876 -0.03980048 0.024203891 0.029182784
0.03680789 -0.008263124 -0.0517307 -0.008775744 0.023086108 0.024780173 0.012454194 0.084722415
-0.10333203 0.022354469 -0.07834833 0.049743287 0.08997463 0.060836412 0.10026675 -0.10769793
0.025670808 0.011950919 0.022806132 0.061785497 0.08519066 -0.047093175 -0.026334878 0.07399504
-0.024082731 -0.045869227 0.064880036 0.021060962 0.028777719 -0.032739118 -0.042482726 0.06317309
0.05220507 0.09663333 0.07305325 0.03119105 0.031963795 0.07574071 -0.09731447 -0.022401575
0.0010537996 -0.014622523 0.056539923 0.03954626 -0.019442031 0.03930243 -0.035969533 0.02385106
-0.03589287 0.06003302 -0.0077376673 -0.04826091 -0.053854752 -0.06541826 -0.061621733 0.06997976
0.042577766 -0.03398373 0.015647803 -0.024690093 -0.04101663 -0.03229309 -0.06414591 0.10793332
-0.0034320867 0.017857444 0.0447384 0.08926004 -0.018385617 -0.07209981 0.055554394 -0.0997734
-0.040218 -0.00813058 0.05477434 0.10521014 -0.019155694 -0.0036416482 -0.067453645 -0.0063418746
0.06337147 0.06400395 0.09320534 0.046206467 0.025132265 0.06976926 0.007475804 -0.0007163863
-0.05739581 0.0028533358 -0.027382854 0.07764182 -0.061839707 0.0037177873 0.054086555 0.05243572
-0.011189076 -0.078840315 0.032074556 0.0830144 -0.033216003 0.014932947 0.04608133 -0.018903699
0.09015389 -0.0066497535 -0.071233355 -0.08529263 -0.04971702 0.027142765 0.0050186776 -0.11843588
0.049091473 -0.01364789 -0.0788002 -0.093613975 0.050000034 0.034401935 0.04093101 0.08853728
-0.014391546 0.02483603 -0.05553164 -0.10221086 0.014611417 0.010058042 -0.025096823 -0.008717565
0.09661962 0.08974172 -0.033429433 -0.039557397 0.1086595 0.004706505 -0.036610063 0.05044702
0.03756636 -0.061104216 0.077529855 0.1313246 0.06203805 0.10087085 -0.018979207 -0.0969789
0.09684995 0.017681811 0.019572992 0.054416023 0.042375717 -0.0056986953 -0.029074091 0.030402528
-0.034600858 -0.06629985 -0.056099616 0.0390261 0.005774296 0.028813204 -0.059365828 -0.014837003
0.102532364 0.09446168 -0.013938023 0.023992883 0.013751118 0.06490367 -0.06735561 -0.02840202
-0.08386953 0.0857957 0.13872735 0.13788004 0.0030346436 0.0006472617 0.028732507 0.059357394
0.030425437 0.037719734 -0.111162834 0.011474422 -0.069479994 -0.091834456 0.011399019 -0.07092462
-0.013598389 -0.007227651 0.014287594 0.106850155 0.054508265 -0.047626566 -0.009757998 -0.04770238
0.03274554 -0.05328931 -0.10292266 0.08378094 0.041500807 0.0068594795 0.024489038 -0.1160818
-0.048487913 -0.013307539 -0.009408307 0.08059859 0.090873666 0.015958292 -0.005058716 0.011625251
-0.01695171 0.04779061 0.047725223 -0.109244145 0.0673275 0.011890281 0.13637123 0.035809834
0.03366975 0.030783635 0.038826235 0.09202983 0.019424047 0.012950101 -0.004606229 0.06318994
0.054693975 -0.084280506 0.022097897 0.09481597 0.03139636 0.10744546 -0.03025494 0.03397932
00000000: 3f68 aa3c befb 033c 2400 85bc c5c7 883c
00000010: 8ff7 b9bc 04c8 1e3b d3ca d63d d6e4 1dbd
00000020: d3a2 21bc 4ff2 a1bc 7322 163d edf6 92bd
00000030: 637a 7b3c dabe 64bd 4323 8dbd 10b1 673d
00000040: eb59 3ebd bf9c c73d f585 64bd 44ee 27bd
00000050: 22e3 493d d405 23bd 3d47 c63c bc10 ef3c
00000060: dfc3 163d 0e62 07bc 92e3 53bd 23c8 0fbc
00000070: 141f bd3c caff ca3c ad0c 4c3c f282 ad3d
00000080: be9f d3bd b820 b73c 1775 a0bd 9ebf 4b3d
00000090: 9e44 b83d 9a2f 793d a758 cd3d bb90 dcbd
000000a0: 964b d23c cacd 433c edd3 ba3c ca12 7d3d
000000b0: 7178 ae3d c6e4 40bd 3ebc d7bc b68a 973d
000000c0: 2649 c5bc 5fe1 3bbd d3df 843d 0a88 ac3c
000000d0: 40bf eb3c 7419 06bd 5e02 2ebd e560 813d
000000e0: fcd4 553d b2e7 c53d f19c 953d 5f84 ff3c
000000f0: 78ec 023d f21d 9b3d cf4c c7bd 8283 b7bc
00000100: a61f 8a3a 4f93 6fbc 6896 673d 42fb 213d
00000110: e544 9fbc 96fb 203d ca54 13bd 4c63 c33c
00000120: 6704 13bd 2fe5 753d 428c fdbb 3bad 45bd
00000130: cd96 5cbd 02fa 85bd 1267 7cbd 8c51 8f3d
00000140: 0666 2e3d 8632 0bbd d22f 803c e142 cabc
00000150: 0e01 28bd c245 04bd ee5e 83bd 250c dd3d
00000160: dcec 60bb c649 923c 9d3f 373d f8cd b63d
00000170: 6f9d 96bc 11a9 93bd 018d 633d ff55 ccbd
00000180: a1bb 24bd 2036 05bc 0f5b 603d 6a78 d73d
00000190: 67ec 9cbc b8a8 6ebb 2325 8abd 80cf cfbb
000001a0: e7c8 813d 8114 833d 71e2 be3d fe42 3d3d
000001b0: 2ee2 cd3c 30e3 8e3d 97f7 f43b dfcb 3bba
000001c0: de17 6bbd 08ff 3a3b 0252 e0bc ad02 9f3d
000001d0: a24b 7dbd 1fa6 733b dd89 5d3d d6c6 563d
000001e0: 6352 37bc 0877 a1bd 9c60 033d 7403 aa3d
000001f0: 810d 08bd 52a9 743c c7bf 3c3d eedb 9abc
00000200: 9aa2 b83d 2de6 d9bb cbe2 91bd e7ad aebd
00000210: 13a4 4bbd 815a de3c b873 a43b 838e f2bd
00000220: 2414 493d 669b 5fbc 0062 a1bd afb8 bfbd
00000230: d6cc 4c3d 0be9 0c3d 46a7 273d 0953 b53d
00000240: 85ca 6bbc ee74 cb3c 2575 63bd ed53 d1bd
00000250: ba64 6f3c 7cca 243c da97 cdbc 1ed4 0ebc
00000260: 82e0 c53d 82ca b73d 4ded 08bd f006 22bd
00000270: df88 de3d 0739 9a3b 6ff4 15bd 89a1 4e3d
00000280: 2fdf 193d 6a48 7abd f9c7 9e3d f579 063e
00000290: 9c1b 7e3d 6095 ce3d 487a 9bbc e09c c6bd
000002a0: 4459 c63d 72d9 903c 8a57 a03c 56e3 5e3d
000002b0: 2992 2d3d 1fbc babb ca2c eebc b90e f93c
000002c0: a1b9 0dbd 37c8 87bd b6c8 65bd d5d9 1f3d
000002d0: 4e36 bd3b ab09 ec3c 9529 73bd e716 73bc
000002e0: 7dfc d13d 2075 c13d 4e5c 64bc b98c c43c
000002f0: 5f4c 613c 37ec 843d bdf1 89bd 5aab e8bc
00000300: cac3 abbd a8b5 af3d 8b0e 0e3e 6d30 0d3e
00000310: dfe0 463b ffac 293a 6f60 eb3c bd20 733d
00000320: c43e f93c 0280 1a3d 57a9 e3bd 37ff 3b3c
00000330: 874b 8ebd b413 bcbd f3c2 3a3c ed40 91bd
00000340: c7cb 5ebc eed5 ecbb 8316 6a3c 41d4 da3d
00000350: 0f44 5f3d 1314 43bd 03e0 1fbc 9263 43bd
00000360: 3020 063d e445 5abd 1ec9 d2bd 5795 ab3d
00000370: c0fc 293d 7cc5 e03b 3c9d c83c 4bbc edbd
00000380: 439b 46bd dd07 5abc 4d25 1abc e010 a53d
00000390: f91b ba3d f7ba 823c 96c3 a5bb d677 3e3c
000003a0: 50de 8abc 16c0 433d 867b 433d 65bb dfbd
000003b0: 00e3 893d 74cf 423c e6a4 0b3e 55ad 123d
000003c0: 4be9 093d f62d fc3c 4208 1f3d 237a bc3d
000003d0: 2e1f 9f3c a92c 543c d9ef 96bb ba69 813d
000003e0: ca06 603d 429b acbd a606 b53c e02e c23d
000003f0: 7899 003d 5e0c dc3d 35d9 f7bc e62d 0b3d

fc2.bias f4 [128]
0.06880112 0.055319678 0.05060755 -0.015737059 -0.029701041 -0.061464492 -0.0051473486 -0.073834546
0.08444975 -0.038098983 -0.06646157 -0.05456685 0.08069005 0.06109046 0.023877308 0.030811252
0.052298862 -0.0723074 -0.014246608 -0.04783809 0.037614193 0.046487324 0.08183732 -0.083892435
0.06940535 0.013289474 0.08560764 0.06402187 0.041593026 -0.0017910994 -0.02999204 0.07104443
-0.02877235 -0.060053438 -0.08763116 -0.02979569 0.036442578 0.039719153 0.0019661763 0.03447315
-0.074657574 0.034454297 0.059752524 0.040610127 -0.051048175 0.05243537 -0.045124177 0.0225973
-0.020923557 -0.050857052 -0.022371627 -0.08933046 -0.09787605 0.03278739 -0.047625925 -0.05750875
-0.041179337 0.007433452 0.018185772 0.041879468 0.08565557 0.026204195 -0.07003712 0.01352617
-0.08327069 0.07819665 -0.008668903 0.009499946 0.040505216 0.043750055 -0.010939474 0.022620298
-0.088180244 -0.05901157 0.08461001 0.0056947162 0.013937721 -0.06905678 -0.049434822 -0.0064376635
0.061846085 -0.006637667 0.06273658 -0.01828853 0.07335485 -0.056980398 0.04668635 -0.0012032522
-0.07846581 -0.006176679 -0.07078732 -0.06959504 0.011036312 -0.040072512 -0.06912798 0.07921876
0.08097098 -0.013010774 0.043657396 -0.089394055 -0.10749251 0.043998573 -0.025086958 -0.054879777
0.05560516 -0.021340761 -0.009564503 0.054364275 0.076389536 -0.0071686297 -0.04962011 -0.0055440348
0.0029043641 -0.015881767 0.014620084 0.036456134 0.08039342 0.066488825 -0.070621565 -0.027784934
-0.024184726 0.0215572 0.010442169 -0.035258524 -0.0065269275 0.012601804 0.042753756 -0.0005826354
00000000: 9ae7 8c3d e396 623d dd49 4f3d 01eb 80bc
00000010: 994f f3bc 31c2 7bbd 17ab a8bb 9136 97bd
00000020: fef3 ac3d ae0d 1cbd 011d 88bd 7d81 5fbd
00000030: d340 a53d fd39 7a3d 589a c33c e167 fc3c
00000040: 5537 563d e715 94bd 9b6a 69bc e0f1 43bd
00000050: 5711 1a3d 7e69 3e3d 539a a73d cccf abbd
00000060: 6424 8e3d 18bc 593c 0f53 af3d e61d 833d
00000070: 735d 2a3d 53c3 eaba deb1 f5bc be7f 913d
00000080: feb3 ebbc 98fa 75bd f777 b3bd 1716 f4bc
00000090: d044 153d 8db0 223d f7da 003b b833 0d3d
000000a0: 12e6 98bd f31f 0d3d 10bf 743d ce56 263d
000000b0: e417 51bd 78c6 563d 21d4 38bd f91d b93c
000000c0: e167 abbc 7c4f 50bd b444 b7bc e3f2 b6bd
000000d0: 3d73 c8bd 124c 063d 6713 43bd 4c8e 6bbd
000000e0: aaab 28bd 5194 f33b 54fa 943c ce89 2b3d
000000f0: 306c af3d 2eaa d63c 9f6f 8fbd de9c 5d3c
00000100: d389 aabd 9125 a03d 0408 0ebc a9a5 1b3c
00000110: cce8 253d 4233 333d 7b3b 33bc 344e b93c
00000120: d897 b4bd 1eb6 71bd 0348 ad3d be9a ba3b
00000130: 0a5b 643c a46d 8dbd 2b7c 4abd 09f3 d2bb
00000140: 5252 7d3d c980 d9bb 097c 803d d4d1 95bc
00000150: 113b 963d 4764 69bd 303a 3f3d 72b6 9dba
00000160: afb2 a0bd bd65 cabb f1f8 90bd d887 8ebd
00000170: a6d1 343c 1323 24bd f892 8dbd 723d a23d
00000180: 1dd4 a53d 242b 55bc 19d2 323d 3b14 b7bd
00000190: 0825 dcbd d937 343d 2a83 cdbc 9ec9 60bd
000001a0: 3cc2 633d d2d2 aebc 6fb4 1cbc 13ad 5e3d
000001b0: 1e72 9c3d d3e6 eabb 753e 4bbd bcaa b5bb
000001c0: 2557 3e3b 7b1a 82bc 1489 6f3c 0753 153d
000001d0: 4ea5 a43d 4b2b 883d 0aa2 90bd 3b9d e3bc
000001e0: 0c1f c6bc ba98 b03c a215 2b3c 3e6b 10bd
000001f0: d6df d5bb cc77 4e3c 901e 2f3d 00bc 18ba

fc3.weight f4 [2, 128]
0.04919015 0.051618118 0.00046157124 -0.003937184 0.14210232 -0.084957816 -0.041173432 0.04841574
0.08043595 -0.04143362 0.0054773334 0.029982021 0.058988865 0.094852686 0.09432452 -0.03566103
0.016275601 0.018217526 0.00784491 0.025441313 0.10597697 0.067265786 -0.04851174 0.015351717
0.065310314 0.018671459 0.03600213 0.033803213 -0.038993016 0.023893546 0.04842318 -0.013080853
-0.095883526 0.08412131 0.11142184 -0.05712791 -0.01979847 -0.013218923 -0.010549074 0.07567411
0.0035217926 0.007411983 0.08437169 -0.07271407 0.11404851 -0.059471734 -0.01958677 -0.06540349
0.07408538 0.033464268 -0.064276114 0.07169152 0.022495171 0.09393978 0.06213333 0.11129297
-0.08323152 0.027184421 -0.047064338 0.08981251 0.09447132 -0.016771419 0.033104535 -0.043826915
-0.05911396 -0.024581904 0.0031137937 0.09337043 0.10138801 -0.060268354 -0.0076584 0.005871933
0.049688175 0.041731227 -0.06878929 0.011466618 -0.04095294 0.085733846 0.035030156 -0.002444641
-0.06813405 -0.044451714 -0.06569561 0.037449807 0.05146401 0.09763148 -0.0054146675 0.09976882
0.06193974 0.08958573 -0.024374146 0.019888822 0.00761417 0.05420411 0.06902593 -0.008431771
-0.044338517 0.06181339 0.06804833 -0.05980087 0.10098983 0.014829109 0.10991759 -0.063382305
0.0250336 0.11300956 0.07689483 -0.04109285 0.023337416 -0.009476586 0.06768304 -0.0114624705
0.0104715135 0.061991036 0.019894052 -0.05878144 0.06494993 0.052092467 -0.020278938 -0.097591445
-0.023888486 -0.10754953 0.010642394 0.045270108 -0.035440344 0.029488172 -0.0135973785 0.03387067
0.022982264 0.05902998 -0.050836753 0.079832 0.14994806 0.048404492 0.03482677 0.13105854
-0.03990947 0.036215246 -0.069420636 -0.07652228 0.073314026 0.011581974 -0.033144373 0.08772494
-0.03809009 0.05253508 0.07181221 -0.07193289 0.033335272 0.07482103 -0.09974737 -0.008759304
0.07714001 0.021170868 0.024193332 0.07280743 -0.016679507 0.05325677 0.054428823 0.07110816
0.00041438264 0.052148588 0.13041498 -0.0409464 0.06919652 0.080087245 -0.021144811 -0.05233432
-0.062749505 -0.059737246 0.083782874 -0.0036678924 -0.004530895 0.058864158 -0.087676086 0.09998481
0.050099216 0.09719417 0.016694127 -0.005407423 0.01943254 0.036949392 0.038733467 0.086655825
0.023752436 0.007099563 -0.0395853 -0.06539491 0.08339849 0.08583924 0.018790483 0.080080576
-0.014680866 0.07981125 -0.08467437 0.03890214 0.021918109 0.05700214 0.0055272556 0.09532244
0.01927729 -0.016780574 -0.014884961 -0.06421371 0.07121056 0.09816186 0.086336136 -0.0055223596
-0.0137965055 0.06231013 0.10423518 0.10638789 0.012413061 0.08694557 -0.056665428 0.0508175
-0.07547349 -0.06200451 -0.08162107 0.05606401 0.04272557 -0.060456812 0.023855032 -0.025465291
-0.0076385 0.06947232 -0.05165228 0.023710726 0.09989 -0.04142344 -0.07905241 -0.07005532
0.07197632 0.062468447 0.008040116 -0.08092306 -0.01591307 -0.07424076 -0.053635355 0.08855696
0.08174203 -0.007623724 0.015822351 0.046113357 0.08295569 -0.045958363 0.008012854 -0.094479084
-0.124184474 -0.082267255 -0.038561676 0.010810971 -0.059467 0.028364588 0.06399799 0.07117764
00000000: 9c7b 493d 856d 533d 0bff f139 7e03 81bb
00000010: 4583 113e 5dfe adbd 79a5 28bd 954f 463d
00000020: 9abb a43d 4db6 29bd 347b b33b db9c f53c
00000030: 4f9e 713d 2042 c23d 372d c13d 4d11 12bd
00000040: 6954 853c ec3c 953c f087 003c 4d6a d03c
00000050: 740a d93d a5c2 893d 3fb4 46bd c585 7b3c
00000060: 6ac1 853d e3f4 983c f876 133d 3d75 0a3d
00000070: 24b7 1fbd 66bc c33c 6257 463d 1351 56bc
00000080: 955e c4bd cb47 ac3d 2231 e43d f5fe 69bd
00000090: 6730 a2bc 2e94 58bc 06d6 2cbc 07fb 9a3d
000000a0: e0cd 663b 38e0 f23b 11cb ac3d 1deb 94bd
000000b0: 4492 e93d a298 73bd 6f74 a0bc 44f2 85bd
000000c0: 13ba 973d d411 093d 32a3 83bd 01d3 923d
000000d0: cb47 b83c 8063 c03d 857f 7e3d 92ed e33d
000000e0: 4a75 aabd ddb1 de3c 89c6 40bd 9fef b73d
000000f0: 2e7a c13d 3764 89bc 9f98 073d da83 33bd
00000100: 7b21 72bd fd5f c9bc ca10 4c3b ff38 bf3d
00000110: 84a4 cf3d f3db 76bd 51f3 fabb 5869 c03b
00000120: d485 4b3d 5dee 2a3d 66e1 8cbd 7bde 3b3c
00000130: 45be 27bd 3a95 af3d c87b 0f3d 4536 20bb
00000140: dd89 8bbd 0013 36bd 6c8b 86bd f864 193d
00000150: edcb 523d 03f3 c73d 866d b1bb 9853 cc3d
00000160: 86b4 7d3d b978 b73d 4aac c7bc e2ed a23c
00000170: 4a80 f93b 2105 5e3d 775d 8d3d 6925 0abc
00000180: 4e9c 35bd 0a30 7d3d ec5c 8b3d c2f1 74bd
00000190: c2d3 ce3d cbf5 723c 791c e13d 95ce 81bd
000001a0: 4413 cd3c 8e71 e73d 097b 9d3d fa50 28bd
000001b0: 1c2e bf3c af43 1bbc 689d 8a3d 16cd 3bbc
000001c0: b690 2b3c 50ea 7d3d daf8 a23c cfc4 70bd
000001d0: 7804 853d e95e 553d 0420 a6bc 06de c7bd
000001e0: c9b1 c3bc ee42 dcbd 705d 2e3c 266d 393d
000001f0: e529 11bd 2e91 f13c 8ac7 5ebc f9bb 0a3d
00000200: 4d45 bc3c 6cc9 713d 333a 50bd f67e a33d
00000210: fc8b 193e ca43 463d 84a6 0e3d 3634 063e
00000220: 1d78 23bd 7056 143d 682c 8ebd b7b7 9cbd
00000230: aa25 963d 52c2 3d3c 65c2 07bd 22a9 b33d
00000240: 5b04 1cbd 062f 573d 4812 933d 8d51 93bd
00000250: 918a 083d c53b 993d 5948 ccbd 2f83 0fbc
00000260: 95fb 9d3d 876e ad3c 1831 c63c 101c 953d
00000270: 76a3 88bc c523 5a3d c2f0 5e3d 28a1 913d
00000280: 7f41 d939 c299 553d 818b 053e 6ab7 27bd
00000290: e8b6 8d3d c804 a43d e237 adbc 835c 56bd
000002a0: d082 80bd 0baf 74bd 5b96 ab3d 0661 70bb
000002b0: e777 94bb 8b1b 713d 858f b3bd d6c4 cc3d
000002c0: d634 4d3d bd0d c73d 1fc2 883c c030 b1bb
000002d0: fd30 9f3c 3f58 173d fca6 1e3d 9c78 b13d
000002e0: 7894 c23c 73a3 e83b 3224 22bd c4ed 85bd
000002f0: d4cc aa3d 7ccc af3d 80ee 993c 4901 a43d
00000300: 0488 70bc 1574 a33d c269 adbd da57 1f3d
00000310: 9b8d b33c 137b 693d fb1d b53b 6938 c33d
00000320: 68eb 9d3c 6a77 89bc 0de0 73bc 7a82 83bd
00000330: d8d6 913d 1609 c93d 00d1 b03d e9f4 b4bb
00000340: bd0a 62bc e838 7f3d 4179 d53d e5e1 d93d
00000350: 2760 4b3c 8510 b23d 021a 68bd 0326 503d
00000360: d891 9abd 71f8 7dbd f328 a7bd 60a3 653d
00000370: 0201 2f3d 90a1 77bd a16b c33c 969c d0bc
00000380: 624c fabb 8147 8e3d 5791 53bd ff3c c23c
00000390: 2193 cc3d a0ab 29bd 3be6 a1bd 2a79 8fbd
000003a0: 5268 933d eade 7f3d b1ba 033c fdba a5bd
000003b0: 205c 82bc 8a0b 98bd bfb0 5bbd 5a5d b53d
000003c0: 5e68 a73d 6fd0 f9bb e09d 813c 5ce1 3c3d
000003d0: ace4 a93d d63e 3cbd 5848 033c 407e c1bd
000003e0: 6e54 febd bc7b a8bd d9f2 1dbd 8020 313c
000003f0: ab93 73bd da5c e83c 6111 833d 95c5 913d

fc3.bias f4 [2]
0.02509283 0.049115773
00000000: 7b8f cd3c 9f2d 493d
