modelreal/model023/checkpoint-episode-0.pth.tar (torch_old, 174902 bytes, 6 tensors)

fc1.weight f4 [128, 207]
0.058412928 -0.009849033 0.049798682 -0.03215464 0.069048494 0.05206269 -0.00074296765 0.067431875
0.05867864 0.055317968 0.05247673 -0.04915025 0.028765613 -0.04478211 0.039902676 -0.04795726
0.044628654 0.034001898 0.012276634 0.048719846 0.0041793543 0.04685829 -0.014457327 -0.025487164
-0.061799787 0.045231514 0.012380384 0.018910384 0.001859546 0.049798865 0.03751122 0.041830596
-0.02097194 0.051424902 -0.0022485687 0.06620669 0.030302485 -0.064943574 -0.046381794 -0.02846826
0.017590962 0.022435697 0.036650836 -0.035966 0.0490119 0.06272689 0.05455389 0.062990814
0.042065263 0.056612022 -0.02856838 0.021180853 -0.04660347 -0.06617084 0.02313413 0.007846478
0.043393187 -0.045795918 0.05675434 -0.03528766 -0.050284658 -0.016204013 0.0027669612 -0.028855758
0.06277191 -0.0695514 0.0021611936 0.055476442 0.061941992 -0.023718625 0.007759352 -0.04618017
-0.046255454 0.040545225 0.03349729 0.020611372 -0.058195837 0.06614906 0.021014718 -0.043752976
-0.011947912 -0.0611301 -0.007379361 -0.008968639 -0.0649207 -0.035341118 -0.030801235 -0.059912957
0.013089108 0.008610339 0.008182715 -0.0061382395 -0.0030278293 0.034784816 -0.03527353 -0.0071641747
0.060914826 -0.043274835 -0.028760672 -0.027110847 0.03212075 0.064092994 0.010768543 0.03234698
0.04381389 -0.014268039 -0.016338065 -0.024042426 -0.014138111 0.018077713 0.022386461 0.013878248
-0.041065857 -0.024639051 -0.025958702 0.0060662157 0.020973254 -0.058171116 -0.035430573 0.015093849
-0.061992705 -0.016693858 0.05887916 0.013569381 -0.043677766 -0.050865915 -0.034222823 -0.053579934
-0.023164375 0.037196755 -0.055098753 0.05806148 -0.005487875 0.06267064 -0.0559862 0.06283936
0.040340673 0.028969081 0.038225606 0.00062520325 0.019321268 -0.054849483 -0.049290385 0.042833257
0.013849133 0.006914579 0.05899359 0.0060035717 -0.056652457 0.0201806 0.059656713 0.00015608364
-0.06698058 -0.025478587 0.025061859 -0.0026329681 0.039652936 0.052501358 -0.055928044 -0.029304393
0.06837323 -0.067051694 0.05541612 0.040226728 0.050286938 0.0044836076 -0.03375917 0.00017078061
-0.018607996 -0.017486192 -0.062344305 -0.058292735 0.057062015 -0.004903588 -0.010180442 0.013478042
-0.005727134 0.013649332 -0.04430722 -0.03589539 0.05154724 0.033974692 -0.04822017 -0.007882803
-0.05073325 -0.027540522 -0.035491847 0.057721946 -0.032964796 -0.00015301711 -0.014264152 0.009710272
0.041422468 0.036981244 -0.046174616 0.062733606 -0.01135128 -0.008347462 0.0020328122 -0.010850154
0.04950563 0.026535558 -0.062124025 0.0008946604 0.057929713 -0.010369138 -0.032447778 0.04832817
0.0032345727 -0.004485786 0.018759387 -0.029601471 -0.05458742 0.0033176094 0.06648778 0.03820003
0.0679802 0.033541285 0.057916842 0.010858849 -0.049148027 0.06653333 -0.011621874 -0.06845852
0.056575082 0.060696624 -0.03585453 -0.058614634 0.0353124 -0.025247622 -0.024602303 -0.049414128
-0.041926596 0.03627444 -0.013407258 0.012861468 -0.016418766 0.0049763024 -0.051339082 0.049370535
-0.059181694 -0.039068528 0.0487367 0.027896568 -0.06038435 -0.021029811 -0.06775782 0.056783013
-0.06377426 0.05302898 -0.013542986 0.0040032472 -0.052523438 -0.026965765 -0.06259399 0.03671612
00000000: 6542 6f3d d75d 21bc b4f9 4b3d 95b4 03bd
00000010: 4c69 8d3d b03f 553d b7c3 42ba b919 8a3d
00000020: 0359 703d 1895 623d d7f1 563d c651 49bd
00000030: dda5 eb3c 726d 37bd fd70 233d d56e 44bd
00000040: 89cc 363d 9345 0b3d ef23 493c 768e 473d
00000050: f7f2 883b 7aee 3f3d 6dde 6cbc 75ca d0bc
00000060: c621 7dbd ae44 393d 18d7 4a3c f3e9 9a3c
00000070: 03bc f33a e5f9 4b3d 5da5 193d 8f56 2b3d
00000080: 59cd abbc eba2 523d b95c 13bb 6097 873d
00000090: eb3c f83c 2301 85bd d6fa 3dbd 4536 e9bc
000000a0: ec1a 903c 11cb b73c 301f 163d 1651 13bd
000000b0: b4c0 483d f576 803d e673 5f3d 5401 813d
000000c0: a04c 2c3d 02e2 673d 3c08 eabc 7883 ad3c
000000d0: 48e3 3ebd 9484 87bd c983 bd3c 848e 003c
000000e0: 0ebd 313d 8094 3bbd 3d77 683d cb89 10bd
000000f0: 49f7 4dbd 47be 84bc e855 353b e962 ecbc
00000100: 8f8e 803d f770 8ebd d0a2 0d3b 443b 633d
00000110: e3b6 7d3d 904d c2bc 2a42 fe3b 6b27 3dbd
00000120: 5c76 3dbd c012 263d 7434 093d 2ed9 a83c
00000130: c25e 6ebd 2979 873d 0f27 ac3c 5236 33bd
00000140: 2dc1 43bc 8e63 7abd 91ce f1bb 33f1 12bc
00000150: 25f5 84bd d9c1 10bd df52 fcbc 4a67 75bd
00000160: b373 563c 6112 0d3c cb10 063c 4923 c9bb
00000170: 8c6e 46bb 867a 0e3d fa7a 10bd 74c1 eabb
00000180: d381 793d f440 31bd 809b ebbc 9117 debc
00000190: 0c91 033d 3043 833d 8b6e 303c 447e 043d
000001a0: 3276 333d 7ec4 69bc 68d7 85bc 9ff4 c4bc
000001b0: 89a3 67bc b617 943c d063 b73c 9761 633c
000001c0: ac34 28bd d6d7 c9bc 58a7 d4bc 1bc7 c63b
000001d0: 1ad0 ab3c d644 6ebd a61f 11bd 314c 773c
000001e0: 10ec 7dbd 8fc1 88bc 462b 713d 1c52 5e3c
000001f0: 75e7 32bd c758 50bd 3b2d 0cbd a276 5bbd
00000200: 37c3 bdbc a05b 183d 3baf 61bd e0d1 6d3d
00000210: a2d3 b3bb 7759 803d c951 65bd ecb1 803d
00000220: 433c 253d 9150 ed3c 7492 1c3d aee4 233a
00000230: a347 9e3c daa9 60bd b7e4 49bd ed71 2f3d
00000240: 79e7 623c b193 e23b 43a3 713d 9cb9 c43b
00000250: 680c 68bd c951 a53c 995a 743d 62aa 2339
00000260: 1d2d 89bd 78b8 d0bc 874e cd3c e08d 2cbb
00000270: 1e6b 223d aa0b 573d ce14 65bd c40f f0bc
00000280: 4407 8c3d 6652 89bd 03fc 623d c8c4 243d
00000290: adf9 4d3d 3aeb 923b 0e47 0abd 9213 3339
000002a0: cc6f 98bc 343f 8fbc be5c 7fbd 5dc4 6ebd
000002b0: dcb9 693d 47ae a0bb decb 26bc 01d3 5c3c
000002c0: afaa bbbb 73a1 5f3c 7d7b 35bd 0b07 13bd
000002d0: 3323 533d 0c29 0b3d 8382 45bd df26 01bc
000002e0: abcd 4fbd a99c e1bc e65f 11bd d96d 6c3d
000002f0: 1806 07bd 3873 20b9 31b4 69bc d517 1f3c
00000300: 9baa 293d a579 173d 9821 3dbd 7a7a 803d
00000310: b8fa 39bc cbc3 08bc ee38 053b d8c4 31bc
00000320: 6ac6 4a3d 1961 d93c c375 7ebd a587 6a3a
00000330: b547 6d3d 51e3 29bc f6e7 04bd c2f3 453d
00000340: 20fb 533b 80fd 92bb 49ad 993c c97e f2bc
00000350: 0f97 5fbd 406c 593b bf2a 883d a277 1c3d
00000360: 3439 8b3d 9662 093d 363a 6d3d 50e9 313c
00000370: 714f 49bd a042 883d ac69 3ebc fb33 8cbd
00000380: 46bb 673d 069d 783d 33dc 12bd e615 70bd
00000390: bca3 103d 1ad4 cebc c58a c9bc 7866 4abd
000003a0: 39bb 2bbd 8294 143d 1eaa 5bbc e8b8 523c
000003b0: a680 86bc 4010 a33b ee48 52bd c238 4a3d
000003c0: 8168 72bd 5206 20bd 22a0 473d 5887 e43c
000003d0: 9555 77bd b646 acbc 9dc4 8abd 4e95 683d
000003e0: 149c 82bd ea34 593d 66e3 5dbc ac2d 833b
000003f0: d122 57bd 4fe7 dcbc 4731 80bd a463 163d

fc1.bias f4 [128]
0.05990689 -0.048853647 -0.013778344 0.018133176 -0.027916668 -0.0024316057 0.013998422 -0.033833977
-0.010426337 0.053774994 0.06947394 0.06728031 -0.037472438 4.542245e-05 0.052684885 -0.029904537
0.0063013826 0.009659664 0.048962023 -0.05073286 0.04562946 0.02838198 -0.06647545 0.009623851
0.011422394 -0.017929485 0.06541713 -0.0026639502 -0.035002872 0.06961811 0.0354638 -0.040449988
-0.03943197 -0.0519293 -0.011119642 -0.012180859 0.025772898 -0.010779386 -0.0428183 -0.056288373
0.0177401 0.063850276 0.032757714 0.029395374 -0.067077704 -0.00087797124 -0.012806884 -0.06988167
-0.029260386 -0.053947393 0.017401874 0.04356373 -0.03800097 0.057928186 -0.04167869 -0.039412607
-0.04451006 -0.025501179 0.03702119 -0.027234038 -0.0037143247 0.013544572 -0.04705799 0.02201251
-0.0032609368 -0.02445565 -0.012796431 -0.03265147 -0.026079139 0.06141734 0.00938928 -0.035575155
0.046865277 0.05012994 -0.023816891 -0.046817727 -0.01674369 -0.004579713 -0.045687962 0.052261222
-0.037743073 0.056607194 -0.013338764 0.0064381203 -0.012357379 -0.05177784 -0.039744657 0.010698515
0.043267015 0.039124385 -0.038048953 0.055119433 0.06783356 -0.021978777 -0.033207014 0.004505197
-0.040211577 -0.0019242367 -0.022428188 -0.03882367 -0.0660341 -0.059391677 -0.03949648 -0.05213915
0.06622924 -0.027038803 0.035571486 -0.0028832257 0.022241235 -0.059265934 -0.06385856 -0.017782457
0.012326463 -0.0045951665 0.06003445 0.026819706 0.02157048 -0.06590998 0.057916664 0.039127883
-0.0026757559 -0.0532179 0.046839785 -0.00031436593 0.067454875 -0.040867437 0.022603408 -0.044852868
00000000: ed60 753d c31a 48bd 90be 61bc 078c 943c
00000010: 7fb1 e4bc 935b 1fbb a359 653c 7f95 0abd
00000020: 3ad3 2abc 2b43 5c3d 5a48 8e3d 42ca 893d
00000030: b37c 19bd fc83 3e38 1bcc 573d 5cfa f4bc
00000040: d47b ce3b 9143 1e3c 678c 483d 42cd 4fbd
00000050: f5e5 3a3d 5381 e83c 4824 88bd 5bad 1d3c
00000060: fe24 3b3c dbe0 92bc 6bf9 853d ab95 2ebb
00000070: 2c5f 0fbd f193 8e3d 7d42 113d e3ae 25bd
00000080: 6b83 21bd d1b3 54bd 292f 36bc 3a92 47bc
00000090: af21 d33c 069c 30bc 3e62 2fbd a38e 66bd
000000a0: b053 913c efc3 823d f42c 063d 91ce f03c
000000b0: 0960 89bd a727 66ba f7d3 51bc 1f1e 8fbd
000000c0: 7ab3 efbc f1f7 5cbd 608e 8e3c e26f 323d
000000d0: e8a6 1bbd 1b46 6d3d 46b7 2abd 1d6f 21bd
000000e0: 2e50 36bd d9e7 d0bc 88a3 173d eb19 dfbc
000000f0: 076c 73bb 0dea 5d3c e1bf 40bd 9453 b43c
00000100: 71b5 55bb 3757 c8bc 1fa8 51bc 8cbd 05bd
00000110: eba3 d5bc c090 7b3d 7fd5 193c 41b7 11bd
00000120: cef5 3f3d 0d55 4d3d a41b c3bc f2c3 3fbd
00000130: 102a 89bc 6b11 96bb 4d23 3bbd dd0f 563d
00000140: 7b98 1abd f2dc 673d d58a 5abc def6 d23b
00000150: 9b76 4abc 0015 54bd 4bcb 22bd d348 2f3c
00000160: c138 313d e440 203d 38d9 1bbd eac4 613d
00000170: 52ec 8a3d d60c b4bc 1404 08bd 55a0 933b
00000180: e5b4 24bd ab36 fcba 52bb b7bc 9205 1fbd
00000190: e33c 87bd b044 73bd 10c7 21bd dd8f 55bd
000001a0: 32a3 873d 7b80 ddbc 68b3 113d 80f4 3cbb
000001b0: 4033 b63c d6c0 72bd 47c8 82bd 84ac 91bc
000001c0: eff4 493c 0d93 96bb afe6 753d 00b5 db3c
000001d0: 93b4 b03c d0fb 86bd 063a 6d3d 8f44 203d
000001e0: bc5b 2fbb 03fb 59bd 13db 3f3d 7bd1 a4b9
000001f0: c825 8a3d 9d64 27bd c82a b93c a4b7 37bd

fc2.weight f4 [128, 128]
0.007464873 -0.010113793 -0.022442905 0.02427233 0.019140642 -0.039904162 0.077961996 0.004641567
-0.021809025 -0.016204072 0.03418972 -0.06466706 -0.0015213467 -0.06842206 -0.08043614 0.039972033
-0.062050894 0.077361695 -0.073558584 -0.003176726 0.0341258 -0.050111577 0.0344497 -0.024557251
0.018295744 -0.02830412 -0.063504405 -0.028233167 0.0051109884 0.0073426007 0.03386328 0.061268166
-0.06937909 0.03060782 -0.071340844 0.0033843266 0.07686689 0.04424462 0.037088398 -0.08103449
0.012315564 0.030767145 0.004799688 0.04875417 0.07529403 -0.06681539 -0.0638038 0.06538297
0.013819465 -0.03173448 0.057111073 0.013255156 0.059657544 -0.050458025 -0.019031838 0.087620184
0.026269017 0.07707007 0.05924505 0.010301131 0.01606454 0.0493315 -0.083609 -0.06169451
0.08537309 -0.03260659 -0.017285353 -0.02373733 -0.03881199 0.036629457 -0.06455657 -0.047823165
-0.026146756 0.06884835 0.042447865 -0.08424906 -0.06707311 -0.026091818 -0.04978099 0.061246455
0.040325437 -0.042775866 -0.0072965804 -0.04380159 -0.060230285 -0.015453464 -0.07899616 0.0809284
0.0113540385 0.003172827 0.05814249 0.07429174 -0.032314625 -0.041199416 0.04649959 -0.05605405
-0.0153247565 -0.04449612 0.03541843 0.08664696 -0.021631839 -0.022251625 0.009010911 -0.0015053431
0.05017684 0.0394298 0.07794063 0.07269625 0.0047356775 0.08381133 -0.033942126 -0.022856737
-0.072414905 -0.014145292 -0.04990783 0.0640728 -0.07791712 -0.009637257 0.070218384 0.063901044
0.016385082 -0.020431403 0.007576158 0.060778253 -0.024410473 -0.0066665467 0.031277157 -0.041055966
0.080049485 -0.02284032 -0.07810435 -0.04309421 -0.02925096 -0.021045383 -0.033923883 -0.07832877
0.039476626 -0.005762675 -0.07811784 -0.08688453 0.033908606 0.022643644 0.026435956 0.07146575
-0.028586436 0.0016709185 -0.07446183 -0.061409067 -0.0125804525 -0.0025828236 -0.013208455 -0.075952135
0.07934179 0.06913057 -0.04393386 -0.057413034 0.08220557 -0.015757238 -0.022508975 0.03067171
0.06337677 -0.07740679 0.0539991 0.07049604 0.04971502 0.08555169 -0.08113399 -0.06149625
0.081014626 0.038723107 0.0024684316 0.041962653 0.026850173 -0.02350242 -0.06990808 0.023756549
0.0026865655 -0.07798949 -0.061243832 0.038624715 0.06596468 0.011746183 -0.03188722 -0.014446241
0.057180718 0.074701674 -0.028306536 0.0032700659 -0.0005307542 0.04844943 -0.050591916 -0.0768314
0.019759947 0.07055742 0.06782795 0.059059758 -0.014238269 -0.0011476744 -0.014903966 -0.030508403
0.030712748 0.030385368 -0.05554895 -0.022416905 -0.087338105 -0.040024173 0.0071272957 -0.08223161
-0.015087232 -0.018996537 -0.00562582 0.08669823 0.038123857 -0.038534064 -0.02496549 -0.07474907
0.046149112 -0.08457373 -0.08795679 0.07198663 0.027594173 0.025464412 0.013340303 -0.06484645
-0.017655717 -0.061851867 -0.028525837 0.052277334 0.078461766 -0.000108241176 0.055270437 0.011610227
-0.029334888 0.025073223 0.021691196 -0.081257544 0.048899237 0.026691766 0.077476434 0.014558107
0.017010871 0.01352092 0.01787914 0.07646981 0.0044929455 0.0014556051 0.01699998 0.08092868
0.0777006 -0.009673356 -0.020120805 0.07449237 0.03439388 0.087936416 -0.054602418 0.014112319
00000000: e59b f43b 53b4 25bc 2fda b7bc c4d6 c63c
00000010: d6cc 9c3c 8c72 23bd 8aaa 9f3d 4918 983b
00000020: d7a8 b2bc 67be 84bc 850a 0c3d 2a70 84bd
00000030: ed67 c7ba dd20 8cbd b4bb a4bd b7b9 233d
00000040: 1429 7ebd cf6f 9e3d e2a5 96bd 9e30 50bb
00000050: 7fc7 0b3d cc41 4dbd 211b 0d3d 4a2c c9bc
00000060: f5e0 953c 0bde e7bc 990e 82bd 3e49 e7bc
00000070: 147a a73b 339a f03b 39b4 0a3d 54f4 7a3d
00000080: a016 8ebd 40bd fa3c 261b 92bd 94cb 5d3b
00000090: 636c 9d3d d939 353d 01ea 173d 69f5 a5bd
000000a0: 38c7 493c 610b fc3c b346 9d3b 74b2 473d
000000b0: c233 9a3d 82d6 88bd 91ab 82bd 82e7 853d
000000c0: 0a6b 623c 04fc 01bd 4ded 693d 272c 593c
000000d0: 785b 743d 13ad 4ebd a8e8 9bbc 3672 b33d
000000e0: 1f32 d73c ead6 9d3d f0aa 723d 13c6 283c
000000f0: c899 833c d40f 4a3d 323b abbd 62b3 7cbd
00000100: 16d8 ae3d 7d8e 05bd 039a 8dbc ca74 c2bc
00000110: 52f9 1ebd c508 163d 3c36 84bd 39e2 43bd
00000120: b931 d6bc 5d00 8d3d d0dd 2d3d c58a acbd
00000130: a05d 89bd 82be d5bc 27e7 4bbd 90dd 7a3d
00000140: 492c 253d bf35 2fbd 2718 efbb 4c69 33bd
00000150: 08b4 76bd 8730 7dbc bdc8 a1bd cabd a53d
00000160: 4a06 3a3c 34ef 4f3b d226 6e3d 4526 983d
00000170: 575c 04bd b8c0 28bd 5b76 3e3d ee98 65bd
00000180: b014 7bbc 9041 36bd ea12 113d f673 b13d
00000190: 4135 b1bc 0a49 b6bc 80a2 133c ef4e c5ba
000001a0: 3b86 4d3d 2481 213d 569f 9f3d c6e1 943d
000001b0: be2d 9b3b 46a5 ab3d e606 0bbd 0d3e bbbc
000001c0: 444e 94bd a8c1 67bc 276c 4cbd 9a38 833d
000001d0: 0393 9fbd 96e5 1dbc a8ce 8f3d 8dde 823d
000001e0: 023a 863c c25f a7bc 6b41 f83b 9ef2 783d
000001f0: 79f8 c7bc 0c73 dabb 7a1c 003d 4d2a 28bd
00000200: fcf0 a33d 9f1b bbbc 2cf5 9fbd 8e83 30bd
00000210: b69f efbc 5e67 acbc c5f3 0abd d66a a0bd
00000220: 3eb2 213d d2d4 bcbb 3ffc 9fbd 84f0 b1bd
00000230: c0e3 0a3d 2a7f b93c 3890 d83c a35c 923d
00000240: 1a2e eabc b902 db3a 727f 98bd 1388 7bbd
00000250: 3e1e 4ebc 9744 29bb 4768 58bc cb8c 9bbd
00000260: f37d a23d 5494 8d3d fef3 33bd ee29 6bbd
00000270: 655b a83d 5315 81bc be64 b8bc 3d43 fb3c
00000280: aecb 813d 7387 9ebd 292e 5d3d 3a60 903d
00000290: faa1 4b3d b935 af3d 9429 a6bd 7ee3 7bbd
000002a0: ffea a53d 1f9c 1e3d 69c5 213b 08e1 2b3d
000002b0: e5f4 db3c 2688 c0bc f82b 8fbd 189d c23c
000002c0: 1711 303b f4b8 9fbd d0da 7abd f334 1e3d
000002d0: 7d18 873d 1073 403c 2c9c 02bd edaf 6cbc
000002e0: 5436 6a3d 31fd 983d 1ce3 e7bc 9a4e 563b
000002f0: 5022 0bba e972 463d 7839 4fbd c859 9dbd
00000300: 9ddf a13c 6980 903d 61e9 8a3d a5e8 713d
00000310: a147 69bc 906d 96ba c42f 74bc c2ec f9bc
00000320: 4d99 fb3c bcea f83c 4c87 63bd a8a3 b7bc
00000330: 52de b2bd 63f0 23bd 178c e93b 0c69 a8bd
00000340: 7030 77bc a09e 9bbc cc58 b8bb d78e b13d
00000350: c327 1c3d e5d5 1dbd 6d84 ccbc 0a16 99bd
00000360: da06 3d3d fe34 adbd b122 b4bd ba6d 933d
00000370: 2d0d e23c be9a d03c 4991 5a3c 37ce 84bd
00000380: b9a2 90bc 6258 7dbd 04af e9bc c220 563d
00000390: 90b0 a03d 8aff e2b8 4163 623d d238 3e3c
000003a0: b84f f0bc 5c66 cd3c bcb1 b13c 5b6a a6bd
000003b0: 914a 483d b1a8 da3c f7ab 9e3d 2085 6e3c
000003c0: 625a 8b3c d986 5d3c 4677 923c 349c 9c3d
000003d0: 8f39 933b 01ca be3a 8b43 8b3c f0bd a53d
000003e0: 7e21 9f3d ff7c 1ebc 63d4 a4bc 758f 983d
000003f0: 99e0 0c3d 0218 b43d c9a6 5fbd 5b37 673c

fc2.bias f4 [128]
0.06364389 0.056037392 0.07223441 0.011442201 -0.0020148437 -0.0439824 -0.011162318 -0.06887461
0.08455674 -0.040836312 -0.079016976 -0.06685751 0.08439631 0.06554136 0.029075593 0.037117075
0.0644956 -0.0657178 -0.01124973 -0.050131336 0.040886767 0.05280273 0.08691515 -0.08716794
0.06765021 0.022552272 0.087866366 0.06475709 0.051913057 0.0035756994 -0.036674775 0.069941975
-0.015532967 -0.07312321 -0.08252841 -0.013907643 0.03914663 0.041589495 -0.0030890203 -0.01725608
-0.06178734 0.040985957 0.05989613 0.05995692 -0.04779066 0.07065784 -0.04606498 0.03745518
-0.04806296 -0.048301335 -0.044969305 -0.079620674 -0.08680859 0.03506262 -0.035749692 -0.02845064
-0.057482205 0.012158703 0.03612961 0.042472284 0.082154 0.026912775 -0.08571722 0.032854576
-0.0766819 0.07784647 -0.017214758 0.009612146 0.03943868 0.05889487 -0.004593256 -0.00021650642
-0.0803379 -0.059299134 0.06935017 0.02041486 0.017640129 -0.07606623 -0.022325587 0.018017273
0.062432714 0.0019732225 0.06752568 -0.012106696 0.0696786 -0.044681724 0.06590621 -0.0014029525
-0.082407095 -0.004504275 -0.070376806 -0.08343188 0.02161382 -0.0093155615 -0.074358456 0.05623597
0.06775328 -0.011472522 0.04824789 -0.07795459 -0.08555796 0.0682315 -0.04352134 -0.07479816
0.063831605 -0.025152754 0.003466662 0.05009428 0.0799555 -0.029369535 -0.046613887 -0.0031696649
0.013491596 -0.021081107 0.022692364 0.053098626 0.08432249 0.065869905 -0.064942926 -0.026880823
-0.028297225 -0.011184775 0.028338565 -0.031310104 0.00834612 0.010904545 0.06323665 0.0010938166
00000000: ba57 823d 7787 653d a2ef 933d 1278 3b3c
00000010: 780b 04bb e426 34bd 28e2 36bc 220e 8dbd
00000020: 162c ad3d fa43 27bd a7d3 a1bd 97ec 88bd
00000030: f9d7 ac3d 8c3a 863d f02f ee3c 1308 183d
00000040: 4516 843d 0e97 86bd ca50 38bc 8456 4dbd
00000050: e278 273d ad47 583d 9200 b23d 1b85 b2bd
00000060: 318c 8a3d 8bbf b83c 48f3 b33d 5d9f 843d
00000070: c9a2 543d 4856 6a3b 4a38 16bd bd3d 8f3d
00000080: fc7d 7ebc 9fc1 95bd a804 a9bd e2dc 63bc
00000090: 3758 203d bf59 2a3d 2971 4abb 9f5c 8dbc
000000a0: b914 7dbd e4e0 273d a555 753d 6395 753d
000000b0: 24c0 43bd 0fb5 903d a2ae 3cbd 9a6a 193d
000000c0: abdd 44bd 9fd7 45bd bc31 38bd 2a10 a3bd
000000d0: b4c8 b1bd d29d 0f3d 456e 12bd 5111 e9bc
000000e0: 7672 6bbd 4c35 473c a4fc 133d 6bf7 2d3d
000000f0: 5b40 a83d 2e78 dc3c 838c afbd 8592 063d
00000100: 660b 9dbd f86d 9f3d f705 8dbc 437c 1d3c
00000110: 748a 213d bf3b 713d 0683 96bb 0006 63b9
00000120: 3288 a4bd a6e3 72bd 7607 8e3d 113d a73c
00000130: 0882 903c 9dc8 9bbd 26e4 b6bc f698 933c
00000140: 72b9 7f3d 2e51 013b e74a 8a3d 2a5b 46bc
00000150: a7b3 8e3d 2f04 37bd d6f9 863d 46e3 b7ba
00000160: 0dc5 a8bd 9998 93bb b721 90bd 55de aabd
00000170: 770f b13c 4ca0 18bc 3f49 98bd b057 663d
00000180: 3bc2 8a3d 3ff7 3bbc 949f 453d a8a6 9fbd
00000190: 0339 afbd f5bc 8b3d 6f43 32bd c72f 99bd
000001a0: 25ba 823d 260d cebc f030 633b a92f 4d3d
000001b0: b6bf a33d 6198 f0bc 34ee 3ebd 27ba 4fbb
000001c0: db0b 5d3c 49b2 acbc 56e5 b93c f27d 593d
000001d0: 45b1 ac3d cde6 863d cc00 85bd 2c35 dcbc
000001e0: 95cf e7bc 5940 37bc 4726 e83c 063f 00bd
000001f0: 2abe 083c faa8 323c 3782 813d 655e 8f3a

fc3.weight f4 [2, 128]
0.030671101 0.031312615 -0.0099858465 -0.060446285 0.05069498 -0.084957816 -0.07000874 -0.0436367
0.064785644 -0.044437308 0.011854969 0.04565411 0.03777648 0.07693473 0.07482855 -0.05917687
7.4036725e-05 -0.010187253 -0.016977113 0.0013277307 0.07794436 0.045616012 -0.051329914 -0.021961577
0.045086347 -0.0019475984 0.018557334 0.013470438 -0.075229555 -0.0036330505 0.04842318 -0.03412815
-0.07369136 0.08412131 0.056281485 -0.05712791 -0.038731623 -0.034037348 -0.04873577 0.08292762
0.0035217926 0.006241637 0.06401019 -0.08638722 0.08137979 -0.07497892 -0.011831783 -0.08374595
0.08581514 -0.034942422 -0.025109269 0.07169152 0.028062217 0.071740426 0.05687294 0.06216321
-0.08323152 0.0030008182 -0.05195312 0.06775975 0.074783966 -0.015032641 0.067287825 -0.07362712
-0.061122783 -0.043166418 0.0025030393 0.05660773 0.0794493 -0.07526567 -0.043589912 0.036077335
0.05604682 0.014964543 -0.063030295 0.0029271545 -0.06317185 -0.0064979345 -0.01584597 -0.024162302
-0.067838855 -0.06516133 -0.07912194 0.013770416 0.032672796 0.03163887 -0.015438332 0.07759885
0.06193974 0.07075582 -0.022027947 0.07385666 -0.007947926 0.05121281 0.056877173 -0.0032838497
-0.045551304 0.041568197 0.048840623 -0.07719281 0.07909679 -0.0009775779 0.041342713 -0.060408995
0.0053034434 0.08799744 0.05859169 -0.042515017 0.0019946366 -0.0040303767 0.066667624 -0.03465169
-0.010762556 0.03785586 -0.001326481 -0.072558604 0.04513363 0.03421162 -0.020278938 -0.07056412
-0.02597053 -0.07407049 -0.020880684 0.045270108 -0.034400214 0.0067310994 -0.038378928 0.0134548675
0.0055628754 0.04183642 -0.06440255 0.036094643 0.05574835 0.048404492 0.023724686 0.04380808
-0.051984083 0.05616408 -0.029198512 -0.018847838 0.053908385 -0.0039834827 -0.05330825 0.06482509
-0.053749133 0.035177626 0.049183533 -0.06052616 0.0048980713 0.05440522 -0.08741546 -0.057819583
0.05577076 -0.00079055503 0.009788106 0.05377033 -0.061281834 0.02545695 0.054428823 0.04803769
0.0312682 0.05223068 0.08827529 -0.0409464 0.053484898 0.06300838 -0.059585247 -0.055198915
-0.062749505 -0.0245297 0.06521669 -0.023154829 -0.03074783 0.040867135 -0.08420306 0.087447666
0.07122705 0.035104677 0.0774819 -0.005407423 0.035797574 0.015974985 0.036096595 0.044467207
0.023752436 -0.015211134 -0.0486734 -0.08696431 0.06731284 0.071226925 0.07040841 0.048509106
-0.008669861 0.06335391 -0.08416728 0.008314118 0.0031748603 0.03357866 -0.0183836 0.07584637
0.02718947 -0.029075667 0.01999455 -0.08143696 0.046032377 0.014657326 0.044437133 -0.027342247
-0.029899718 0.044762418 0.08256815 0.08388087 -0.0053900722 0.0386476 -0.075065136 0.024710901
-0.07547349 -0.07590245 -0.022429638 0.077409826 0.019994268 -0.016226366 0.016173676 0.008762438
0.019028796 0.052744754 -0.0732316 0.01849618 0.083959274 -0.05656563 -0.0856608 -0.04290138
0.054638606 0.040397655 -0.011889888 -0.06703624 -0.033660334 -0.061476287 -0.053024337 0.06687198
0.058976192 -0.028330037 -0.008815783 0.026411496 0.06573182 -0.058624055 0.008012854 -0.068263575
-0.067992546 -0.03762369 -0.06599041 0.010810971 -0.0667379 0.008941103 0.033737577 0.052563153
00000000: f641 fb3c a841 003d ad9b 23bc 8696 77bd
00000010: 8aa5 4f3d 5dfe adbd be60 8fbd 65bc 32bd
00000020: 56ae 843d e503 36bd 583b 423c ceff 3a3d
00000030: 83bb 1a3d f58f 9d3d b63f 993d 7263 72bd
00000040: 2a44 9b38 70e8 26bc 9613 8bbc 4007 ae3a
00000050: 4ba1 9f3d dbd7 3a3d 513f 52bd c4e8 b3bc
00000060: 76ac 383d 8f46 ffba 8d05 983c 1db3 5c3c
00000070: f411 9abd 7918 6ebb 6257 463d f6c9 0bbd
00000080: 7feb 96bd cb47 ac3d 6a87 663d f5fe 69bd
00000090: 0da5 1ebd bf6a 0bbd 299f 47bd f5d5 a93d
000000a0: e0cd 663b a586 cc3b c617 833d c8eb b0bd
000000b0: 73aa a63d 8c8e 99bd 18da 41bc ff82 abbd
000000c0: d9bf af3d c91f 0fbd f4b1 cdbc 01d3 923d
000000d0: bce2 e53c a5ec 923d 9af3 683d da9e 7e3d
000000e0: 4a75 aabd 60a9 443b cbcc 54bd a0c5 8a3d
000000f0: 5628 993d 774b 76bc 33ce 893d d1c9 96bd
00000100: e25b 7abd 45cf 30bd 080a 243b 82dd 673d
00000110: 51b6 a23d e324 9abd 568b 32bd d4c5 133d
00000120: 5a91 653d d82d 753c 0716 81bd 81d5 3f3b
00000130: 3e60 81bd a0ec d4bb 68cf 81bc 05f0 c5bc
00000140: 19ef 8abd 4e73 85bd af0a a2bd 509d 613c
00000150: e9d3 053d c297 013d 0ff1 7cbc 25ec 9e3d
00000160: 86b4 7d3d 6de8 903d f473 b4bc 2942 973d
00000170: 0538 02bc 86c4 513d 0af8 683d db35 57bb
00000180: 0194 3abd 6a43 2a3d 1b0d 483d 4417 9ebd
00000190: 7ffd a13d 1222 80ba fa56 293d 6c6f 77bd
000001a0: 82c8 ad3b 0038 b43d d7fd 6f3d 3a24 2ebd
000001b0: 73b8 023b 4011 84bb 0989 883d eeee 0dbd
000001c0: 6f55 30bc bf0e 1b3d 51dd adba 9b99 94bd
000001d0: 0bde 383d 7c21 0c3d 0420 a6bc ec83 90bd
000001e0: 26c0 d4bc 45b2 97bd f80d abbc 266d 393d
000001f0: 3de7 0cbd 8e90 dc3b 3933 1dbd ce71 5c3c
00000200: c848 b63b aa5c 2b3d 7ce5 83bd fad7 133d
00000210: 6258 643d ca43 463d 465a c23c 1a70 333d
00000220: 43ed 54bd 4e0c 663d b831 efbc c866 9abc
00000230: 0acf 5c3d e087 82bb c059 5abd 04c3 843d
00000240: 0d28 5cbd 6a16 103d ac74 493d 47ea 77bd
00000250: 0080 a03b 02d8 5e3d e006 b3bd 3ad4 6cbd
00000260: e16f 643d 403d 4fba 4b5e 203c 473e 5c3d
00000270: a902 7bbd 188b d03c c2f0 5e3d 2bc3 443d
00000280: 1613 003d d6ef 553d adc9 b43d 6ab7 27bd
00000290: fb12 5b3d 8a0a 813d a90f 74bd 4218 62bd
000002a0: d082 80bd 82f2 c8bc 5490 853d 32af bdbc
000002b0: e0e2 fbbc 4c64 273d a772 acbd c317 b33d
000002c0: 7ddf 913d ecc9 0f3d d5ae 9e3d c030 b1bb
000002d0: 7aa0 123d f9dd 823c 06da 133d 3f23 363d
000002e0: 7894 c23c 1f38 79bc c25d 47bd 581a b2bd
000002f0: 50db 893d 6cdf 913d 4932 903d 7cb1 463d
00000300: 080c 0ebc b2bf 813d e55f acbd f037 083c
00000310: 5111 503b c789 093d 3499 96bc 5755 9b3d
00000320: 74bc de3c 1830 eebc 9ccb a33c 6cc8 a6bd
00000330: 728c 3c3d 4825 703c b603 363d d9fc dfbc
00000340: 41f0 f4bc cc58 373d 7d19 a93d bcc9 ab3d
00000350: 349f b0bb f24c 1e3d c0bb 99bd 846e ca3c
00000360: d891 9abd be72 9bbd 5cbe b7bc 0b89 9e3d
00000370: 05cb a33c 28ed 84bc a87e 843c 5490 0f3c
00000380: 47e2 9b3c e20a 583d 73fa 95bd 4d85 973c
00000390: d7f2 ab3d 5db1 67bd ee6e afbd 5cb9 2fbd
000003a0: bbcc 5f3d 0378 253d cecd 42bc 4c4a 89bd
000003b0: 6bdf 09bd 8fce 7bbd 0c30 59bd 2df4 883d
000003c0: 0591 713d 6514 e8bc 1370 10bc ec5c d83c
000003d0: 689e 863d c71f 70bd 5848 033c c6cd 8bbd
000003e0: ad3f 8bbd 4c1b 1abd fb25 87bd 8020 313c
000003f0: e1ad 88bd b47d 123c 6a30 0a3d 764c 573d

fc3.bias f4 [2]
0.014279631 0.044291638
00000000: 1df5 693c 266b 353d
